graph-neural-networks/zinc_models/GCN.pth (torch, 360639 bytes, 29 tensors)

layers.0.conv.W f4 [21, 128]
0	0x3d32bd24	0.04363741
1	0xbe2867d5	-0.16445859
2	0xbc8d6194	-0.017258443
3	0x3e37e86f	0.1795976
4	0x3cc595bf	0.024119256
5	0x3e9b51a6	0.3033573
6	0xbeb031be	-0.3441295
7	0xbcc6f455	-0.024286428
8	0x3e494c28	0.19657958
9	0x3d72c1af	0.059266742
10	0x3e413cde	0.18870875
11	0x3e03ee7a	0.1288394
12	0xbe315455	-0.17317326
13	0x3e64c266	0.22339782
14	0xbddc533c	-0.10758063
15	0x3e38a42c	0.18031377
16	0x3e70631e	0.2347531
17	0xbe14294a	-0.14468876
18	0x3e126fff	0.14300536
19	0x3e4ba226	0.19886073
20	0x3e396233	0.18103866
21	0x3da4498b	0.0802184
22	0x3e0fb3bb	0.14033405
23	0xbead3979	-0.3383291
24	0x3e7e60ec	0.2484166
25	0xbe936b52	-0.28792816
26	0xbe7c9cb3	-0.24669151
27	0x3def7aec	0.11693367
28	0x3e89dcdf	0.26926324
29	0xbe476ff1	-0.19476296
30	0xbce70c90	-0.028204232
31	0x3e4cea16	0.20011172
32	0x3c5e2888	0.013559468
33	0x3d2d0fa8	0.04225126
34	0x3e7a5475	0.2444628
35	0x3e828064	0.2548858
36	0xbe6c6739	-0.23086251
37	0x3ea9ac09	0.33139065
38	0x3e2c6d84	0.16838652
39	0xbcaea704	-0.021319874
40	0xbea203ea	-0.3164361
41	0x3d3aae84	0.045576587
42	0x3d8479bf	0.06468534
43	0xbc4a204f	-0.0123368045
44	0x3e282487	0.16420184
45	0xbe0ed639	-0.13948907
46	0xbe91204b	-0.2834495
47	0x3d005267	0.031328585
48	0xbbc48bf4	-0.005998129
49	0xbe3b4a6f	-0.18290113
50	0x3e34b767	0.17648087
51	0x3e1e711b	0.15472834
52	0x3e9af5d7	0.30265686
53	0x3e65c338	0.22437751
54	0xbe52fd50	-0.20604444
55	0x3d66b95f	0.056329127
56	0xbe7be792	-0.24600056
57	0xbe355984	-0.17709929
58	0xbeda9139	-0.4268892
59	0x3e5fe254	0.21863681
60	0x3e3c5b86	0.18394288
61	0x3e755e50	0.23961759
62	0xbd467642	-0.048452623
63	0xbe6a98a7	-0.22909795
64	0xbe904360	-0.28176403
65	0x3e188b79	0.14896955
66	0xbeb842b5	-0.35988393
67	0xbd4c1d6a	-0.04983274
68	0x3e509e9f	0.20373009
69	0x3e6010d7	0.21881424
70	0xbe2dc939	-0.16971292
71	0x3d65f31e	0.056140058
72	0xbe40d5e3	-0.18831591
73	0xbd949dbf	-0.0725665
74	0xbea8bea7	-0.32957956
75	0xbd5a6e6a	-0.053327955
76	0xbdc839f8	-0.09776682
77	0x3b746a85	0.0037294936
78	0x3c9cd87c	0.019146197
79	0x3e4a9d6f	0.19786619
80	0x3e344901	0.17605974
81	0xbeab49a4	-0.3345462
82	0xbe671747	-0.22567473
83	0x3e017fda	0.12646428
84	0x3e027f11	0.12743784
85	0x3e352016	0.17688021
86	0xbe3613ec	-0.17781037
87	0x3dfd8779	0.12379355
88	0xbdbe0170	-0.09277618
89	0x3e3e27de	0.18569896
90	0xbe28d83b	-0.16488735
91	0x3d4692be	0.048479788
92	0x3e516cd8	0.20451677
93	0x3e095210	0.1341021
94	0x3cb67d17	0.022276444
95	0x3e6dbd9a	0.23216859
96	0xbe0faa26	-0.1402975
97	0xbde09066	-0.10965042
98	0xbe2e03e5	-0.16993673
99	0x3e23a977	0.15982614
100	0x3e92642d	0.28592053
101	0x3e592223	0.21204428
102	0xbef64bca	-0.48104697
103	0x3d8ce87e	0.06880282
104	0x3e4b5640	0.1985712
105	0xbc5c738a	-0.013455281
106	0x3b4ad884	0.0030951807
107	0x3de3335b	0.1109378
108	0x3e549738	0.2076081
109	0x3e5f9078	0.21832454
110	0xbe93c467	-0.2886078
111	0xbe11d772	-0.14242342
112	0xbe13665d	-0.14394517
113	0xbe5183f5	-0.20460494
114	0xbe1c7947	-0.15280639
115	0xbe435187	-0.19074069
116	0xbe30550a	-0.1721994
117	0x3e56ad2d	0.20964499
118	0xbe93828a	-0.2881053
119	0x3e353e65	0.17699583
120	0xbe03541a	-0.12825051
121	0xbf08aadc	-0.5338571
122	0xbe2fa801	-0.17153932
123	0x3e6f65eb	0.23378722
124	0x3e2a2af9	0.16617955
125	0x3e8cd4e2	0.27506167
126	0x3d29d1a6	0.041459702
127	0xbcf25923	-0.02958352
128	0x3e5f62c3	0.21815018
129	0xbe513c9b	-0.20433275
130	0x3e7b36de	0.24532649
131	0xbde83389	-0.113379546
132	0xbeccbc1a	-0.3998726
133	0x3e02ebf5	0.12785323
134	0xbc008a95	-0.0078455405
135	0xbecd13f7	-0.40054294
136	0x3d02f807	0.03197482
137	0x3e5b00be	0.21387002
138	0x3e233269	0.15937199
139	0xbed3b9c9	-0.4135268
140	0x3dd9e472	0.106392756
141	0xbdbc3971	-0.091906436
142	0xbea3d5c6	-0.31999034
143	0xbd6fc5ac	-0.058538124
144	0x3b75a9c5	0.0037485224
145	0x3e1a730d	0.15082951
146	0xbe92c79e	-0.2866792
147	0xbeaeeea9	-0.34166458
148	0xbce2405c	-0.02761858
149	0x3e5d54be	0.21614358
150	0x3de00387	0.10938173
151	0x3dcc5fcc	0.09979209
152	0x3dc5f609	0.09666068
153	0xbd6011fd	-0.054704655
154	0xbe318c3f	-0.17338656
155	0xbd980fff	-0.07424926
156	0xbed6ccf1	-0.41953233
157	0x3de2e416	0.1107866
158	0xbe116932	-0.14200285
159	0x3a66f6aa	0.00088105595
160	0x3e26a9ae	0.16275665
161	0xbe8b814a	-0.27247077
162	0x3e01974a	0.12655368
163	0xbded0b01	-0.115743645
164	0x3cb0e89b	0.02159529
165	0xbdb1a8ee	-0.08674799
166	0xbc0b31c0	-0.008495748
167	0xbea1588d	-0.3151287
168	0x3d8c3f08	0.0684796
169	0x3e4ed151	0.20197035
170	0xbe0d05fd	-0.13771816
171	0x3e2f2f76	0.17107949
172	0x3da69d11	0.08135427
173	0xbe906f91	-0.28210118
174	0xbc9022bd	-0.01759469
175	0xbef9d43c	-0.48794734
176	0xbeed37d3	-0.46331653
177	0xbe4c78d2	-0.19967964
178	0x3e511ac7	0.20420371
179	0x3e0d44b6	0.13795742
180	0x3cebae49	0.02876963
181	0x3cdd42dd	0.027009422
182	0xbeb13c0b	-0.34616122
183	0xbdcac335	-0.09900514
184	0xbe60ca9a	-0.21952286
185	0x3d08404b	0.03326444
186	0x3dd56db8	0.10421318
187	0x3c9d4b5f	0.019200979
188	0xbd119ad5	-0.03554805
189	0x3cab38dd	0.020901138
190	0x3bcdaafd	0.006276487
191	0xbe82f76d	-0.25579396
192	0xbdc6d897	-0.0970928
193	0xbd0232a7	-0.031786587
194	0x3d92f08a	0.071747854
195	0xbea8a12e	-0.3293547
196	0x3de41556	0.11136882
197	0x3e54bd0d	0.20775242
198	0x3def222c	0.1167644
199	0xbeb47896	-0.3524825
200	0xbe5118cf	-0.2041962
201	0x3d8a7844	0.0676122
202	0xbe160f36	-0.1465424
203	0x3de12f3b	0.109953366
204	0xbd4aaaa4	-0.04947914
205	0x3e1abda6	0.15111408
206	0x3e07af7e	0.13250539
207	0x3e337d22	0.17528203
208	0x3e5e01be	0.21680352
209	0x3d135eb7	0.035979
210	0x3c426dbb	0.011866982
211	0x3e189e30	0.14904094
212	0x3e08ae5e	0.13347766
213	0xbcae5f66	-0.021285724
214	0xbe37e8f0	-0.17959952
215	0x3d96049b	0.07325097
216	0x3dd95ea2	0.10613753
217	0x3e2a3107	0.16620265
218	0xbddd3527	-0.10801154
219	0x3e63d757	0.22250114
220	0x3e666a3e	0.22501466
221	0x3e3ef922	0.18649724
222	0xbd4fbe67	-0.05071869
223	0x3e20f751	0.15719344
224	0x3dff521d	0.12466834
225	0x3dd6e6e0	0.10493255
226	0x3dbdc4dc	0.092660636
227	0x3e188468	0.14894259
228	0x3e123eb1	0.14281727
229	0x3dd4d252	0.10391678
230	0x3c70bbd8	0.014693223
231	0xbce689d8	-0.0281419
232	0x3df762e4	0.12079409
233	0x3e3ee0cd	0.18640442
234	0x3cc82784	0.024432905
235	0x3e418792	0.18899372
236	0x3c561259	0.013065898
237	0xbe2b20c6	-0.16711721
238	0xbe3336f4	-0.17501432
239	0x3da53259	0.08066244
240	0x3e16da35	0.14731677
241	0xbe61f8ef	-0.22067617
242	0x3e57a1b7	0.21057783
243	0xbd28a0e8	-0.041169077
244	0x3de4a84a	0.11164911
245	0xba9502c7	-0.0011368626
246	0xbb33eb6d	-0.0027453557
247	0x3e2c3f20	0.16820955
248	0xbdcbfd41	-0.09960414
249	0x3da009b1	0.078143485
250	0x3e462508	0.19350064
251	0x3e2d3ac7	0.16916953
252	0x3e5fb49e	0.21846244
253	0x3d04027e	0.03222894
254	0xbee20598	-0.44144893
255	0x3cfa5e22	0.030562464

layers.0.conv.b f4 [128]
0	0xbd8ae747	-0.06782394
1	0x3e13a75c	0.14419311
2	0x3e0b8cf6	0.13627991
3	0xbd87b4b6	-0.06626265
4	0x3d379aba	0.044825293
5	0xbe34f876	-0.17672905
6	0x3d79ad3c	0.060956225
7	0xbdad78aa	-0.084702805
8	0xbd6e3fd8	-0.058166355
9	0xbdb946c4	-0.090467006
10	0xbe10f9b7	-0.14157759
11	0xbcc2fbf2	-0.023801778
12	0x3dbc7ee6	0.092038915
13	0x3e9a289f	0.30109116
14	0x3c889722	0.016673628
15	0xbdd8fe73	-0.10595407
16	0x3b9a06c1	0.004700512
17	0x3e2b57c0	0.16732693
18	0xbe708587	-0.23488437
19	0xbd6c58dd	-0.057701934
20	0xbcaeb58b	-0.0213268
21	0x3dec12a9	0.11526997
22	0xbcfe1a64	-0.031018443
23	0xbd1cf809	-0.038322482
24	0x3e50458b	0.20339029
25	0x3de235a9	0.11045391
26	0xbe8cb46a	-0.27481395
27	0xbcae9dc1	-0.021315457
28	0x3d9d25d1	0.076732285
29	0x3a14dad7	0.00056783616
30	0x3e149a6c	0.14512032
31	0x3d4e2d9e	0.050336473
32	0xbd66c78c	-0.056342646
33	0xbe1b2b9e	-0.15153357
34	0x3e264b5d	0.16239686
35	0xbe13fc40	-0.14451694
36	0x3d5104ed	0.05103009
37	0xbe433733	-0.19064026
38	0xbddf5c54	-0.10906282
39	0xba671dba	-0.000881638
40	0x3e02caea	0.12772718
41	0x3c26d8ec	0.010183554
42	0xbe0d6a52	-0.13810089
43	0xbc5c01ff	-0.01342821
44	0x3e3170a6	0.17328128
45	0x3e175f79	0.14782514
46	0xbdf99137	-0.12185901
47	0xbdb493bc	-0.088172406
48	0x3dbcc11b	0.092165194
49	0x3de5f1cd	0.112277605
50	0x3ea41304	0.32045758
51	0xbe95644e	-0.2917809
52	0x3ccb2bdd	0.02480119
53	0xbd277080	-0.040878773
54	0xbc909d38	-0.017653093
55	0x3e2a303d	0.16619964
56	0x3dda3afa	0.1065578
57	0x3dd9cea3	0.10635116
58	0x3cda320c	0.026635192
59	0x3ec33cac	0.38132226
60	0x3e187a16	0.14890322
61	0x3db358fb	0.08757206
62	0xb9203029	-0.0001527673
63	0x3e14cb35	0.14530642
64	0x3e539e05	0.20665748
65	0xbcd9678b	-0.026538631
66	0x3e479a49	0.19492449
67	0x3d92df8d	0.07171545
68	0x3e399469	0.1812302
69	0xbe5375ad	-0.20650358
70	0x3e000f94	0.12505943
71	0xbd11fe04	-0.03564264
72	0x3da1c9cc	0.07899818
73	0xbd9363a7	-0.071967416
74	0x3e57b8f7	0.21066652
75	0x3dfca86d	0.12336812
76	0x3dd47f93	0.10375895
77	0xbe4db974	-0.20090276
78	0x3e0b933f	0.13630389
79	0xbe479772	-0.19491366
80	0xbd3aecd8	-0.045636028
81	0x3e0f399b	0.13986818
82	0x3e3a337b	0.181837
83	0xbcd1439e	-0.025544938
84	0xbc273871	-0.010206328
85	0xbdf4d073	-0.11953821
86	0x3d618f0d	0.055068064
87	0xbd132907	-0.0359278
88	0xbde12fa9	-0.109954186
89	0xbd8e402f	-0.06945836
90	0xbe829299	-0.2550247
91	0xbdc8d00d	-0.098053075
92	0x3ccb0fd4	0.02478782
93	0xbd536694	-0.051611498
94	0xbdd4793c	-0.10374686
95	0x3d73e591	0.059545103
96	0xbd37b1dd	-0.044847358
97	0x3df63b8c	0.120230764
98	0x3e889d5f	0.26682565
99	0xbbfce2a1	-0.007717446
100	0x3e45b538	0.1930741
101	0xbde59c42	-0.112114444
102	0xbc378746	-0.011201685
103	0xbc8663b4	-0.016404964
104	0xbcaf2250	-0.021378666
105	0xbde5e24c	-0.11224803
106	0xbec7fb26	-0.390588
107	0xbdbedc8d	-0.093194105
108	0x3e05f0cb	0.13080136
109	0xbd509c3a	-0.05093024
110	0x3e1b9058	0.15191782
111	0x3d84b6ba	0.06480165
112	0x3d669d2f	0.056302246
113	0x3d86441b	0.06555959
114	0x3d39ec52	0.04539139
115	0xbd7c954d	-0.06166582
116	0x3d8293a6	0.06375818
117	0xbd53b2a7	-0.051684048
118	0xbdd14074	-0.102173716
119	0x3e2a54aa	0.1663386
120	0xbe763ece	-0.24047396
121	0xbde3067f	-0.110852234
122	0x3d695a21	0.05697072
123	0x3ec2c589	0.38041332
124	0xbd6a4a48	-0.057199746
125	0x3ce050a0	0.027382195
126	0x3e1a9c2a	0.15098634
127	0x3cb457bd	0.022014493

layers.0.bn.weight f4 [128]
0	0x3f4abda0	0.79195595
1	0x3f626773	0.884391
2	0x3f3fb849	0.7489057
3	0x3f97b230	1.1851254
4	0x3f572ab5	0.8404954
5	0x3f5704e0	0.83991814
6	0x3f1ef7db	0.6209695
7	0x3f514c08	0.8175664
8	0x3f608b7b	0.8771283
9	0x3f745a58	0.95450354
10	0x3f8566f9	1.042205
11	0x3f43bcb8	0.76459837
12	0x3f390df4	0.72286916
13	0x3f78d956	0.9720663
14	0x3f751b6a	0.95744956
15	0x3f53a58a	0.8267447
16	0x3f85959c	1.0436282
17	0x3f22ae67	0.63547367
18	0x3f6a493f	0.91518015
19	0x3f6ee700	0.9332123
20	0x3f45b53f	0.77229685
21	0x3f212cd3	0.6295902
22	0x3f7aea00	0.98013306
23	0x3f345cca	0.70454085
24	0x3f7456cb	0.95444936
25	0x3f3319da	0.6996132
26	0x3f820079	1.0156394
27	0x3f6553e4	0.8958113
28	0x3f4fdd8d	0.81197435
29	0x3f1f4038	0.62207365
30	0x3f8c3611	1.0954
31	0x3f86de63	1.0536617
32	0x3f61d4a4	0.8821509
33	0x3f484d5c	0.7824304
34	0x3f64192f	0.8910093
35	0x3f8d1643	1.1022419
36	0x3f41a9d3	0.75649756
37	0x3f640c57	0.8908133
38	0x3f5f352f	0.87190527
39	0x3f416bf7	0.75555366
40	0x3f4b5788	0.7943044
41	0x3f427709	0.75962883
42	0x3f403bf2	0.7509147
43	0x3f4ee7d4	0.8082249
44	0x3f583426	0.8445457
45	0x3f63c5ad	0.88973504
46	0x3f2ac942	0.66713345
47	0x3f30ddf8	0.690887
48	0x3f16c96a	0.58901083
49	0x3f5d61b8	0.8647723
50	0x3f8f10ac	1.1176963
51	0x3f7274f2	0.94709694
52	0x3f5bc237	0.85843223
53	0x3f5064f4	0.8140404
54	0x3f638188	0.88869524
55	0x3f75403e	0.9580115
56	0x3f468878	0.77551985
57	0x3f448a01	0.7677308
58	0x3f2a6ed5	0.66575366
59	0x3f67a409	0.9048467
60	0x3f6f2680	0.9341812
61	0x3f63c192	0.8896724
62	0x3f2862a9	0.65775543
63	0x3f55a642	0.83456814
64	0x3f59363c	0.8484838
65	0x3f80280f	1.0012225
66	0x3f3c4212	0.73538315
67	0x3f6ee7dc	0.9332254
68	0x3fc05047	1.5024499
69	0x3f5e571e	0.8685168
70	0x3f5181ec	0.8183887
71	0x3f5718b8	0.8402209
72	0x3f5c4a53	0.8605091
73	0x3f5792d9	0.84208447
74	0x3f4ad3b9	0.79229313
75	0x3f499d2b	0.78755444
76	0x3f2ecc93	0.68280905
77	0x3f2d06cf	0.67588514
78	0x3f6d2219	0.92630154
79	0x3f82d29a	1.022052
80	0x3f46dedb	0.776838
81	0x3f1eac93	0.6198208
82	0x3f68735e	0.90801036
83	0x3f62b709	0.8856054
84	0x3f7f1648	0.99643373
85	0x3f41377e	0.754753
86	0x3f332a33	0.69986266
87	0x3f40ec86	0.75360906
88	0x3f0eb4cf	0.5574464
89	0x3f77b92d	0.9676693
90	0x3f5eb8b0	0.8700056
91	0x3f684817	0.90735
92	0x3f580691	0.8438502
93	0x3f72b55f	0.94808
94	0x3f619e19	0.8813186
95	0x3f8f5d68	1.120038
96	0x3f4d4e1f	0.8019733
97	0x3f55e7b0	0.8355665
98	0x3f0cec0a	0.5504767
99	0x3f857ea7	1.0429276
100	0x3f81adbb	1.0131143
101	0x3f7771bc	0.9665792
102	0x3f07f161	0.5310269
103	0x3f2141a4	0.62990785
104	0x3f76be51	0.9638415
105	0x3f4496d2	0.76792634
106	0x3f8f4e97	1.1195859
107	0x3f4c1108	0.7971349
108	0x3f8fe885	1.1242834
109	0x3f5ee243	0.87064
110	0x3f52233f	0.8208503
111	0x3f5ac2d1	0.85453516
112	0x3f383687	0.719582
113	0x3f253010	0.6452646
114	0x3f11ab64	0.56902146
115	0x3f6957d5	0.91149646
116	0x3f3cc150	0.7373247
117	0x3f533dd6	0.8251623
118	0x3f59bdbe	0.8505515
119	0x3f9e49e3	1.2366298
120	0x3f83eaed	1.0306069
121	0x3f67ebf7	0.9059443
122	0x3f3b743e	0.73224247
123	0x3f881bb0	1.063345
124	0x3fbcdfeb	1.4755834
125	0x3f69f637	0.9139132
126	0x3f5c47e1	0.8604718
127	0x3f72ee11	0.9489451

layers.0.bn.bias f4 [128]
0	0xbe48a14c	-0.1959278
1	0xbda92d45	-0.082605876
2	0xbe657bec	-0.22410554
3	0x3dce494e	0.100725755
4	0xbe6ebac3	-0.23313431
5	0xbcf7454f	-0.030184416
6	0xbeb01683	-0.34392175
7	0xbdb0c53a	-0.08631368
8	0xbdb9ee6c	-0.090786785
9	0xbe38362b	-0.17989413
10	0xbe31bed9	-0.17357959
11	0xbdb30bb2	-0.08742465
12	0xbe8e132c	-0.27749002
13	0xbe475af0	-0.19468284
14	0xbdce3cdb	-0.10070201
15	0xbdb8bf3e	-0.090208516
16	0xbe89e335	-0.26931158
17	0xbebad3a6	-0.364896
18	0xbe8350c3	-0.25647554
19	0xbce7bfb1	-0.028289648
20	0xbea2ab89	-0.31771496
21	0xbe3ff32d	-0.18745108
22	0xbe490fb0	-0.1963489
23	0xbe002560	-0.12514257
24	0xbd773dbf	-0.06036162
25	0xbe56e101	-0.2098427
26	0xbeff78f1	-0.49896958
27	0xbe94f642	-0.2909413
28	0xbded16a0	-0.11576581
29	0xbe7f266a	-0.24916998
30	0x3df8904e	0.12136899
31	0xbe99d3dd	-0.3004445
32	0xbe196c42	-0.14982703
33	0xbe7d3200	-0.24726105
34	0xbe76e63e	-0.24111268
35	0xbe9ad5a7	-0.3024113
36	0xbea84c8f	-0.3287091
37	0xbe8801c7	-0.26563856
38	0xbbc489c2	-0.0059978673
39	0xbea2228f	-0.3166699
40	0xbe86e6ca	-0.26347953
41	0xbe073410	-0.13203454
42	0xbe13cbf8	-0.14433277
43	0xbeaa7d69	-0.33298805
44	0x3c6b6eb9	0.01436966
45	0xbe89c413	-0.26907405
46	0xbe0af5b5	-0.13570292
47	0xbdbf8d19	-0.09353084
48	0xbea5f567	-0.3241379
49	0xbdb5ddfd	-0.088802315
50	0xbed75e32	-0.42064053
51	0xbdf8fca1	-0.1215756
52	0xbd9810f4	-0.074251086
53	0xbe887322	-0.2665034
54	0xbe3395fd	-0.17537685
55	0xbe2aa029	-0.16662659
56	0xbdc79a47	-0.09746223
57	0xbd537e5f	-0.05163419
58	0xbe50c67d	-0.20388217
59	0xbe099c25	-0.1343847
60	0xbd7c75ad	-0.061635662
61	0xbeea16f4	-0.45720637
62	0xbe9e6938	-0.3093965
63	0xbe4da884	-0.20083815
64	0x3d4958a9	0.04915682
65	0xbce71847	-0.028209819
66	0xbea2e926	-0.31818503
67	0xbda49327	-0.080358796
68	0xbe019fbf	-0.12658595
69	0xbe407cad	-0.1879756
70	0xbe22bfc4	-0.15893465
71	0xbd3ddb0d	-0.04635148
72	0xbecfed1a	-0.40610582
73	0xbeb29827	-0.34881708
74	0xbea2ecec	-0.31821382
75	0xbe1c0ecb	-0.15240018
76	0xbec29215	-0.38002077
77	0xbe9f5136	-0.31116647
78	0xbe52e905	-0.20596702
79	0x3d4cc450	0.049991906
80	0xbe6b0f53	-0.22955064
81	0xbe22d26b	-0.1590058
82	0xbe38956e	-0.18025753
83	0xbddd1082	-0.10794164
84	0xbd3cc13b	-0.046082716
85	0xbe0bd9e4	-0.13657337
86	0xbe830345	-0.25588432
87	0xbe7c91b8	-0.24664962
88	0xbe899d5b	-0.26877865
89	0xbd3a9a43	-0.04555727
90	0xbe3024f9	-0.17201604
91	0xbe9aa0a1	-0.30200675
92	0xbe83d4ba	-0.25748235
93	0xbeb58851	-0.35455564
94	0xbe15e779	-0.14639081
95	0xbe4a16da	-0.1973528
96	0xbe2859ed	-0.16440554
97	0xbe9b1592	-0.30289894
98	0xbe635bdf	-0.22203015
99	0xbdda1218	-0.10647982
100	0xbcc90eae	-0.024543133
101	0x3ccaeacd	0.024770165
102	0xbecb5a77	-0.39717457
103	0xbea3fd6f	-0.32029292
104	0xbe6c6477	-0.230852
105	0xbe46b2e1	-0.19404174
106	0xbdf5cde1	-0.12002159
107	0xbe14e43f	-0.14540194
108	0xbe5956b9	-0.21224488
109	0xbe7930df	-0.24335049
110	0xbe656405	-0.22401436
111	0xbe929380	-0.2862816
112	0xbe640243	-0.22266488
113	0xbefbb045	-0.4915792
114	0xbde78ca6	-0.113061234
115	0xbdaa4f74	-0.08315936
116	0xbea2ae45	-0.31773582
117	0xbe74aa59	-0.23893107
118	0xbe047cab	-0.12938182
119	0x3cef59bd	0.029217595
120	0xbdfe70b0	-0.12423837
121	0xbe5908a3	-0.21194701
122	0xbda5bbe4	-0.08092478
123	0x3db707d4	0.0893704
124	0xbe5a67ed	-0.21328707
125	0xbe0ffc3a	-0.1406106
126	0xbbbaa5c5	-0.005696031
127	0xbda872fc	-0.082250565

layers.0.bn.running_mean f4 [128]
0	0x3c68102f	0.014164015
1	0xbbc43e3b	-0.0059888638
2	0x3e20e6fd	0.15713115
3	0x3db5520b	0.08853539
4	0xbc8e5bc6	-0.017377745
5	0x3d8eb669	0.06968386
6	0xbe4cb0b2	-0.19989279
7	0xbe223f47	-0.15844451
8	0x3de81c7b	0.11333557
9	0xbc0a5755	-0.008443673
10	0x3d31b2bd	0.04338335
11	0x3d03fbd4	0.032222584
12	0xba4f6dbf	-0.0007912777
13	0x3ef7e4c0	0.4841671
14	0xbdd33197	-0.10312193
15	0xbcfc13fd	-0.03077125
16	0x3e45ada6	0.19304523
17	0x3d97ada1	0.07406164
18	0xbe4081e4	-0.1879955
19	0x3d6e2b75	0.058146913
20	0x3df1e370	0.118109584
21	0x3e2817ef	0.1641538
22	0x3dd91750	0.1060015
23	0xbe8b5123	-0.2721034
24	0x3ecf4cb2	0.404882
25	0xbdf1091e	-0.11769317
26	0xbf007be8	-0.50189066
27	0x3da3b9ef	0.079944484
28	0x3e68867f	0.22707556
29	0xbdd23647	-0.10264259
30	0x3d6779bf	0.05651259
31	0x3e52f591	0.20601489
32	0xbda40937	-0.0800957
33	0xbe114227	-0.14185391
34	0x3eb629ca	0.35578758
35	0x3d5e654a	0.054295816
36	0xbe095ed2	-0.13415077
37	0x3ce12c9d	0.027487094
38	0x3cd8827d	0.02642941
39	0xbd5b5318	-0.05354604
40	0xbdf1f064	-0.11813429
41	0x3d521984	0.051293865
42	0xbdc8dd48	-0.09807831
43	0xbc3a2456	-0.011361202
44	0x3e9e295d	0.30890933
45	0x3cc0349e	0.02346259
46	0xbea9be15	-0.33152834
47	0xbdfc1dfb	-0.12310406
48	0x3d3b77fa	0.045768715
49	0xbd5a928e	-0.05336242
50	0x3ef86a0e	0.48518413
51	0xbe33b734	-0.17550355
52	0x3e6b07c5	0.22952183
53	0x3e097754	0.13424426
54	0xbe4fc731	-0.20290829
55	0x3e54ea84	0.20792586
56	0xbdc3ca02	-0.09560014
57	0xbcc9fe6f	-0.024657456
58	0xbe8c91e3	-0.27455053
59	0x3f068589	0.5254751
60	0x3e9a6156	0.30152386
61	0x3e8b96ad	0.27263394
62	0xbd043e5c	-0.032286033
63	0xbcd1bbe9	-0.025602298
64	0xbd0cdc21	-0.03438962
65	0x3db7d70c	0.08976564
66	0xbd55d43c	-0.052204356
67	0xbccd51af	-0.025063364
68	0x3ec0b10a	0.3763507
69	0xbcb74387	-0.022371067
70	0x3d48d0c9	0.049027238
71	0xbceedc89	-0.029157894
72	0xbdc8d59c	-0.09806368
73	0xbdacb9bf	-0.08433866
74	0xbd1ce36b	-0.03830282
75	0x3dbda376	0.09259693
76	0x3c9cda2f	0.019147007
77	0xbe689799	-0.2271408
78	0x3e025eeb	0.12731521
79	0xbc9751c1	-0.0184716
80	0x3dc4a763	0.09602239
81	0xbdfe378c	-0.124129385
82	0xbc24ed23	-0.010066303
83	0x3dca134d	0.098669626
84	0x3d8a067a	0.067395166
85	0x3c94a246	0.018143784
86	0xbda51715	-0.08061043
87	0x3c2d1a3d	0.010565338
88	0xbe327f71	-0.17431428
89	0x3db868b6	0.09004347
90	0xbedc519f	-0.43031022
91	0xbccfce21	-0.025366845
92	0x3e543d16	0.20726427
93	0x3d9f36b4	0.07774106
94	0xbe19cdb4	-0.15019876
95	0x3e88ea56	0.26741284
96	0xbdff313b	-0.12460562
97	0x3ceb402d	0.028717125
98	0x3e30944d	0.17244072
99	0x3dde4661	0.108532675
100	0x3ed91a95	0.42403093
101	0x3d91ffb8	0.071288526
102	0xbeaf7458	-0.3426845
103	0x3cc2a99e	0.02376252
104	0x3e0af8a7	0.13571416
105	0xbe0ffc50	-0.14061093
106	0xbed3272e	-0.4124083
107	0x3cd59006	0.026069652
108	0x3ea214c8	0.3165648
109	0x3dca59fd	0.09880445
110	0xbd80f494	-0.062966496
111	0xbd879c1a	-0.06621571
112	0xbcaa6d2e	-0.020804014
113	0xbd961421	-0.07328058
114	0xbd231ab9	-0.039820407
115	0xbe2a1b3e	-0.16611955
116	0xbdb84615	-0.08997742
117	0x3d863757	0.06553524
118	0xbe9ea646	-0.30986232
119	0x3ea76543	0.32694444
120	0xbec39f1f	-0.38207337
121	0xbeedae83	-0.46422204
122	0xbc8e54bf	-0.017374394
123	0x3f15ae61	0.58469206
124	0x3df3d721	0.11906267
125	0x3e59d6d5	0.21273358
126	0x3e140346	0.14454374
127	0xbd4c5a14	-0.049890593

layers.0.bn.running_var f4 [128]
0	0x3b0b0f61	0.0021218883
1	0x3b2688d4	0.0025411146
2	0x3b8573a7	0.0040726247
3	0x3b4821a4	0.003053763
4	0x3c316a90	0.010828629
5	0x3b6f64d4	0.0036528604
6	0x3c0af43f	0.008481084
7	0x3ba41efd	0.005008577
8	0x3ae3d033	0.0017380774
9	0x3afef65c	0.0019452083
10	0x3a874a48	0.001032182
11	0x3c18ea15	0.009333153
12	0x3bf19012	0.007371911
13	0x3b9303d0	0.0044865385
14	0x3afbc8cc	0.0019209622
15	0x3c45bc17	0.01206877
16	0x3b2a3c60	0.0025975928
17	0x3b95ad91	0.00456781
18	0x3c1fb4d9	0.009747707
19	0x3c20aa18	0.0098061785
20	0x3b2ce2f1	0.0026380385
21	0x3b90a856	0.0044145985
22	0x3a4a0121	0.00077058567
23	0x3c2acb53	0.010424453
24	0x3b1ffc23	0.002441176
25	0x3bb18deb	0.0054185293
26	0x3a7e250e	0.00096948526
27	0x3b136fbd	0.002249702
28	0x3c81fed6	0.015868586
29	0x3c0c455e	0.00856146
30	0x3b8812c0	0.004152626
31	0x3b220179	0.0024720116
32	0x3bc7be9f	0.006095722
33	0x3bcd828f	0.0062716673
34	0x3b850f92	0.004060694
35	0x3b98ac70	0.004659228
36	0x3b4dab1c	0.0031382507
37	0x3c31b4d6	0.010846337
38	0x3b0e24ef	0.0021689495
39	0x3b92c302	0.004478813
40	0x3bd6e3dd	0.006557925
41	0x3b3a3b99	0.002841687
42	0x3b3f7662	0.0029214849
43	0x3b30302c	0.0026884181
44	0x3b398f7d	0.0028314285
45	0x3b2567e0	0.0025238916
46	0x3baaa20a	0.005207305
47	0x3c099df5	0.008399476
48	0x3bdb1213	0.006685504
49	0x3ab58b89	0.0013850789
50	0x3a2872f2	0.00064258196
51	0x3b4155d3	0.0029500618
52	0x3c16b89e	0.00919929
53	0x3b351158	0.0027628746
54	0x3b566870	0.0032716058
55	0x3b2844a5	0.002567568
56	0x3b452a66	0.0030085086
57	0x3b274891	0.002552543
58	0x3c6b267d	0.014352438
59	0x3be7709a	0.0070629837
60	0x3b5a5dc5	0.003332005
61	0x3b32ad9b	0.0027264121
62	0x3b22d21e	0.0024844478
63	0x3bab8b26	0.0052350936
64	0x3b38bf38	0.0028190147
65	0x3b034a6c	0.0020033373
66	0x3c47a877	0.012186161
67	0x3b865f48	0.004100714
68	0x3a4959c6	0.0007680919
69	0x3afa71bf	0.0019107385
70	0x3c0aac8b	0.008463989
71	0x3c1abb17	0.00944402
72	0x3a3e4939	0.0007258836
73	0x3b789460	0.0037930235
74	0x3bc6aef2	0.0060633356
75	0x3bb475d3	0.00550721
76	0x3b1842ab	0.0023233097
77	0x3bd733af	0.0065674405
78	0x3b917d9e	0.0044400236
79	0x3ab902ab	0.0014115175
80	0x3b35fdac	0.0027769608
81	0x3bf221a9	0.0073892665
82	0x3b3956bb	0.0028280455
83	0x3af4510c	0.0018639877
84	0x3bd32cb9	0.0064445403
85	0x3b37a56d	0.0028022185
86	0x3bc3928e	0.0059683984
87	0x3bfb6d74	0.00767296
88	0x3b9bb9a5	0.004752355
89	0x3ab54479	0.001382961
90	0x3b179777	0.0023131052
91	0x3af9038e	0.0018998252
92	0x3aea4ca0	0.0017875619
93	0x3acebd4d	0.0015772969
94	0x3bb9bd9e	0.005668356
95	0x3afb2e98	0.0019163666
96	0x3bb32271	0.005466752
97	0x3b3e56ad	0.0029043362
98	0x3bb8af22	0.005636112
99	0x3c0a4157	0.00843843
100	0x3b4e1fc9	0.003145205
101	0x3acb36c3	0.0015503991
102	0x3c99e175	0.018784264
103	0x3b80a20c	0.0039255675
104	0x3b025e5a	0.0019892664
105	0x3bb4a030	0.00551226
106	0x3ba166f4	0.004925603
107	0x3b2fa3d5	0.0026800532
108	0x3ae50762	0.0017473514
109	0x3bc60db1	0.0060441126
110	0x3bd2be47	0.0064313742
111	0x3b71f595	0.003692006
112	0x3bc54d5a	0.006021184
113	0x3bc122d8	0.0058940463
114	0x3bf2f8ad	0.0074148984
115	0x3c1a3fec	0.009414654
116	0x3b5cd5f1	0.0033696855
117	0x3c0884a0	0.0083324015
118	0x3c0689ec	0.008211594
119	0x3ae02297	0.0017100152
120	0x3aa30217	0.0012436536
121	0x3cd8f9e4	0.026486345
122	0x3c04a68b	0.008096348
123	0x3ae9f9b8	0.0017850911
124	0x3a374159	0.00069906336
125	0x3c128d04	0.008944754
126	0x3bff161f	0.0077846195
127	0x3bd45669	0.0064800275

layers.1.conv.W f4 [128, 128]
0	0xbdebdf16	-0.1151716
1	0x3c0c6a92	0.00857033
2	0xbe0071df	-0.12543438
3	0x3e195ab2	0.14976004
4	0x3d01408c	0.031555697
5	0x3da00940	0.07814264
6	0x3ea45d69	0.32102516
7	0xbe4caab5	-0.19986995
8	0x3ccbd293	0.024880683
9	0x3e9c96f9	0.30583933
10	0xbe78e3d5	-0.24305661
11	0xbe858e60	-0.26085186
12	0xbe198cf1	-0.14995171
13	0xbd14b597	-0.03630599
14	0xbd06593f	-0.032799955
15	0xbe10c58e	-0.14137861
16	0x3e3101a2	0.17285779
17	0xbd0eef90	-0.034896433
18	0x3e6df2e4	0.23237187
19	0xbe6456ae	-0.2229869
20	0x3e6e6d6e	0.23283932
21	0xbccfd4ec	-0.025370084
22	0x3cb39a60	0.021924198
23	0x3e5c7504	0.21529013
24	0xbe43d35e	-0.19123599
25	0x3df440e9	0.11926443
26	0xbe0f26db	-0.13979666
27	0x3e5d8136	0.21631321
28	0xba8eee44	-0.0010904749
29	0x3d43e738	0.04782793
30	0xbdb4259f	-0.08796238
31	0xbd114181	-0.03546286
32	0x3e8f71c0	0.28016472
33	0x3e38f10f	0.18060707
34	0xbd3f91a0	-0.04676974
35	0xbd9051d2	-0.07046856
36	0x3e218b9f	0.15775917
37	0xbe2c3ffa	-0.1682128
38	0xbc82ec81	-0.015981914
39	0xbe62def1	-0.22155358
40	0x3d55d03c	0.05220054
41	0xbd8ac1c7	-0.06775241
42	0xbbe71a9b	-0.007052732
43	0x3d7f1499	0.062275503
44	0x3e03c280	0.12867165
45	0xbdd77635	-0.10520593
46	0x3e18f7f0	0.1493833
47	0xbca4814b	-0.020081183
48	0x3dadbe37	0.08483546
49	0x3e127b47	0.14304839
50	0xbd80ff64	-0.06298712
51	0xbd98ed0f	-0.0746709
52	0xbc1f3de8	-0.009719349
53	0x3d144cd3	0.036206078
54	0x3db7a706	0.08967404
55	0xbe1b790f	-0.15182899
56	0xbd3adfab	-0.045623463
57	0xbd7ba8bb	-0.06144021
58	0xbe0d51fa	-0.13800803
59	0xbd047c43	-0.032345068
60	0xbe055731	-0.13021542
61	0xbc7896ab	-0.015172641
62	0xbd8fea4a	-0.07027109
63	0xbe14b1af	-0.14520906
64	0xbe1138d3	-0.14181833
65	0xbe0bc811	-0.13650538
66	0xbda5d360	-0.08096957
67	0xbdfc552c	-0.12320933
68	0x3e18dc52	0.14927796
69	0xbd74249f	-0.059605237
70	0xbdbb4bcd	-0.09145317
71	0x3d9847a4	0.07435539
72	0xbe3f0a8e	-0.1865637
73	0x3d05b114	0.032639578
74	0x3af58e6b	0.001873446
75	0xbd97b087	-0.07406717
76	0xbd51a878	-0.051186055
77	0x3d9367a7	0.071975045
78	0xbd230a4e	-0.03980475
79	0xbcb87d6a	-0.02252074
80	0xbe4c8c90	-0.19975495
81	0xbcf9b253	-0.03048054
82	0xbe884a3a	-0.2661913
83	0xbd44a765	-0.048011202
84	0xbdc7be2e	-0.09753071
85	0x3e2ded99	0.16985168
86	0x3e1a7417	0.15083347
87	0x3e5f71ba	0.21820727
88	0x3b061960	0.0020461902
89	0xbebe2a58	-0.3714168
90	0x3d9a2644	0.0752683
91	0xbddb178d	-0.10697851
92	0xbe7ad92f	-0.24496911
93	0xbdcede60	-0.101010084
94	0x3e7a6457	0.24452339
95	0xbd6318ef	-0.0554437
96	0xbe4ddf1d	-0.20104642
97	0x3c50da9e	0.012747435
98	0x3e47eef2	0.19524744
99	0x3d162b96	0.03666266
100	0xbdfd1b44	-0.12358716
101	0x3914929e	0.00014168999
102	0x3e15e361	0.1463752
103	0x3d1cd745	0.038291235
104	0x3e4b8f51	0.1987889
105	0x3dd56d2c	0.104212135
106	0x3e4b4a16	0.1985248
107	0x3dc954d2	0.09830631
108	0xbebb2b20	-0.3655634
109	0xbe0925d0	-0.1339333
110	0x3d399a71	0.045313302
111	0x3bac05dd	0.0052497224
112	0xbdef92b7	-0.116979055
113	0xbc8a2729	-0.016864376
114	0xbda24c41	-0.079247005
115	0x3e13109b	0.14361803
116	0xbb0d8bd2	-0.0021598232
117	0x3bd62687	0.0065353545
118	0xbf0f29f8	-0.55923414
119	0x3dbdcfa8	0.09268123
120	0xbcea6444	-0.028612264
121	0xbda80bbc	-0.08205363
122	0xbe11dbba	-0.14243975
123	0xbce36dfc	-0.027762406
124	0x3e76eb37	0.24113165
125	0x3c47849d	0.012177614
126	0x3e4ff756	0.20309195
127	0xbd82f929	-0.0639518
128	0xbd0e2078	-0.034698933
129	0x3d9ec644	0.0775266
130	0xbd06f32c	-0.03294675
131	0x3dfadd80	0.12249279
132	0xbe1125aa	-0.14174524
133	0x3ce7adca	0.028281111
134	0xbd84b11b	-0.06479093
135	0xbe461d57	-0.1934713
136	0xbd291db2	-0.041288085
137	0xbe1f7b8c	-0.15574473
138	0xba1048d9	-0.0005504019
139	0xbdb45801	-0.08805848
140	0xbdcce11f	-0.10003876
141	0x3d299319	0.04140005
142	0xbe27cc69	-0.1638657
143	0x3e6311c4	0.22174746
144	0xbcacd7e0	-0.021099031
145	0xbd650cd3	-0.055920433
146	0xbebc7efa	-0.36815625
147	0x3e404e91	0.1877997
148	0xbdcbbf43	-0.0994859
149	0x3e2779db	0.16355078
150	0x3db87aaa	0.09007771
151	0x3e5e7f0f	0.21728157
152	0x3e07e778	0.13271892
153	0x3d5095e0	0.050924182
154	0xbda3c684	-0.07996848
155	0xbdfbecff	-0.12301063
156	0x3db252eb	0.087072216
157	0x3ae3bc67	0.0017374874
158	0xbe09d76c	-0.13461083
159	0x3e0ebad4	0.13938457
160	0x3e54fc5a	0.2079939
161	0xbea2ee50	-0.31822443
162	0x3de24a45	0.11049322
163	0xbe0f14cb	-0.13972776
164	0xbdfb832b	-0.12280878
165	0x3c3be8e0	0.011469096
166	0x3d57b348	0.05266121
167	0x3d7c5107	0.06160071
168	0xbe6b468a	-0.22976127
169	0x3dbc2290	0.0918628
170	0x3e4643e8	0.19361842
171	0xbe0c5e4a	-0.13707843
172	0x3ca3e2a9	0.02000554
173	0xbe11d31e	-0.14240691
174	0xbe409e24	-0.18810326
175	0x3dbbda43	0.091724895
176	0xbe929c66	-0.28634948
177	0xbceb2e69	-0.028708654
178	0x3d3727bb	0.044715624
179	0x3ca5df74	0.020248152
180	0xbe315ceb	-0.17320602
181	0xbc6b896f	-0.014376028
182	0x3e158afc	0.146038
183	0xbe5ff155	-0.21869405
184	0x3d9500f1	0.0727557
185	0x3dd58837	0.104263715
186	0x3e595c32	0.21226576
187	0x3c22f0d9	0.009945118
188	0xbd900810	-0.07032788
189	0xbd3a013c	-0.045411333
190	0x3e088ed4	0.13335735
191	0xbd6a7cec	-0.05724804
192	0x3e08bda9	0.133536
193	0xbea99dd6	-0.33128232
194	0xbdee7b36	-0.11644594
195	0x3e014b9e	0.12626502
196	0xbd2133ac	-0.03935592
197	0x3e9b1478	0.30289054
198	0xbdee8850	-0.11647093
199	0xbd86a2d6	-0.06574027
200	0x3d51f2d4	0.05125697
201	0xbe4fd0c9	-0.20294489
202	0x3d53e639	0.05173323
203	0x3da4029a	0.08008309
204	0x3d01290f	0.031533297
205	0xbe1642f2	-0.14673975
206	0xbdaa028a	-0.083012655
207	0xbdd17ce8	-0.10228902
208	0x3e26fccc	0.16307372
209	0x3d31ec31	0.04343814
210	0x3e36cf1b	0.17852442
211	0xbdc07288	-0.09396845
212	0x3e3ff27c	0.18744844
213	0xbd42f8e4	-0.04760064
214	0xbca9232b	-0.020646652
215	0xbd0bd81c	-0.034141645
216	0x3d9dd25d	0.07706139
217	0xbda316bc	-0.079633206
218	0xbd87135a	-0.06595488
219	0xbde06ee5	-0.109586515
220	0x3e0ea642	0.1393061
221	0xbe22c7a4	-0.1589647
222	0xbdd1d2ff	-0.102453224
223	0xbde585f4	-0.1120719
224	0xbe5c6195	-0.215216
225	0xbe89c159	-0.26905325
226	0xbe910041	-0.28320506
227	0xbe70f2e5	-0.23530157
228	0x3e2fe44f	0.17176937
229	0x3e2fadfd	0.17156215
230	0x3ebea6ac	0.37236536
231	0x3c97d88b	0.018535873
232	0xbd53abf5	-0.051677663
233	0xbe8d991e	-0.27655882
234	0x3d28dfb4	0.041228965
235	0xbe69723f	-0.22797488
236	0xbaebd858	-0.0017993553
237	0xbde14c95	-0.11000935
238	0x3cc0b7cd	0.023525143
239	0xbe06da31	-0.13169171
240	0xbaa7952e	-0.0012785548
241	0x3e929849	0.2863181
242	0x3d91550e	0.07096301
243	0xbe3a10de	-0.18170497
244	0xbe068492	-0.13136509
245	0xbe555a75	-0.20835288
246	0xbc036e44	-0.008021895
247	0xbe0f459e	-0.139914
248	0x3d5f815a	0.05456672
249	0x3e5b1d58	0.21397913
250	0xbe206ee3	-0.156673
251	0x3e7672d7	0.24067245
252	0x3d6d52e9	0.057940397
253	0x3e0e2557	0.13881432
254	0xbe372a27	-0.17887174
255	0xbe10e86f	-0.14151166

layers.1.conv.b f4 [128]
0	0x3d1b12ca	0.037859716
1	0xbdde1a5a	-0.1084487
2	0x3ca1e6e1	0.019763412
3	0x3c4fd66d	0.0126854
4	0x3b9008a5	0.0043955618
5	0xbd5a2d17	-0.053265657
6	0x3c9b85fd	0.018984789
7	0x3ce2fc3f	0.027708171
8	0x3cee648e	0.029100683
9	0x3cfc3af8	0.030789837
10	0x3d469ef6	0.04849144
11	0x3d2ad6e8	0.041708857
12	0x3bba5f29	0.0056876135
13	0x3d0f2def	0.034955915
14	0xbd9074dc	-0.07053539
15	0xbc36fae6	-0.011168217
16	0x3c8054dd	0.015665466
17	0xbc200857	-0.009767613
18	0x3cbe2193	0.023209369
19	0x3cdac68c	0.026706003
20	0x3c8bb91b	0.017056039
21	0xba0fee39	-0.0005490515
22	0x3d1a90d8	0.03773579
23	0x3c43089a	0.011903906
24	0xbe107722	-0.14107946
25	0xbd1ff4da	-0.039051868
26	0x3d96e213	0.07367339
27	0xba83b0a1	-0.0010047146
28	0xbc0ca998	-0.008585356
29	0x3a28a1e5	0.00064328156
30	0x3d193db3	0.037412357
31	0xbd1b0415	-0.03784569
32	0x3bd5107f	0.0065022106
33	0xbb480fd5	-0.0030527015
34	0xbc8fa618	-0.017535254
35	0x3d567511	0.052357737
36	0x3b20607f	0.0024471579
37	0xbc84f9dd	-0.016232425
38	0xbd28f971	-0.04125351
39	0x3aa0e6b9	0.0012275792
40	0xbde48e79	-0.11159987
41	0xbb7691df	-0.0037623567
42	0x3db50ef9	0.088407464
43	0xbc8a158e	-0.016855981
44	0x3d60edd5	0.054914314
45	0x3cec3e7b	0.028838387
46	0x3d55d76f	0.052207407
47	0x3d03d083	0.032181274
48	0x3d077d21	0.033078317
49	0xbc1a902f	-0.00943379
50	0x3ace32f3	0.0015731737
51	0xbb451d5c	-0.0030077314
52	0x3dd90c85	0.10598091
53	0x3addaa26	0.001691167
54	0xbc51a249	-0.012795039
55	0xbdb42db8	-0.08797783
56	0xbc9f438b	-0.019441387
57	0xbdb77ae4	-0.089589864
58	0xbc339636	-0.010961106
59	0xbc1f3eca	-0.00971956
60	0x37dea7c7	2.654259e-05
61	0xbd18d6d4	-0.03731425
62	0x3c798337	0.015229038
63	0x393e0b5c	0.00018124044
64	0x3d9c35bf	0.07627439
65	0xbc4230cb	-0.011852453
66	0xbd8aac76	-0.067711756
67	0x3c90d258	0.017678425
68	0xbd437d95	-0.047727186
69	0xbca741f4	-0.020417191
70	0x3cc46845	0.0239755
71	0x3d51c819	0.05121622
72	0xbc66f4ea	-0.014096478
73	0xbbcb4729	-0.0062035513
74	0xbc1c6589	-0.009545692
75	0xbc954bf3	-0.018224692
76	0xbbd84950	-0.0066005364
77	0xbd2b1534	-0.041768268
78	0x3b344587	0.0027507262
79	0xbc7131b8	-0.0147213265
80	0xbc5b1f6d	-0.013374192
81	0xbda796f6	-0.081830904
82	0x3d8eb693	0.06968417
83	0xbc190492	-0.009339469
84	0xbd277f3e	-0.040892832
85	0x3cecf3ff	0.02892494
86	0x3a8798c4	0.001034521
87	0xbb528681	-0.0032123628
88	0xbdcedcef	-0.101007335
89	0x3d565eaa	0.052336372
90	0x3cf99d77	0.030470593
91	0x3c5430f6	0.012951126
92	0x3bda9d39	0.0066715744
93	0xbd11b5d6	-0.035573803
94	0xbdccec07	-0.10005956
95	0x3e3beaa6	0.1835123
96	0x3d31e8fe	0.04343509
97	0x3ced893b	0.0289961
98	0xbc1e15d0	-0.009648755
99	0xbbf178e4	-0.0073691476
100	0x3d2daae8	0.042399317
101	0x3c3a3d04	0.011367086
102	0x3aa26f07	0.0012392708
103	0x3acb5a25	0.0015514536
104	0x3b9b47ab	0.004738768
105	0xbd20d0fa	-0.039261796
106	0x3d08f5df	0.033437606
107	0x3bf8b670	0.0075901076
108	0xbd33529e	-0.04377996
109	0x3d07fa9b	0.03319798
110	0x3d0f242d	0.03494661
111	0xbd72da2f	-0.059290107
112	0x3d1024a2	0.035191186
113	0xbd22aa44	-0.03971316
114	0x3cff0b9d	0.031133467
115	0x3d163937	0.036675658
116	0xbcf5e5dc	-0.030016832
117	0xb9a5fa02	-0.00031657523
118	0xbd3e24d9	-0.04642186
119	0xbccee6a0	-0.025256455
120	0xbcb431af	-0.021996347
121	0x3c433794	0.011915106
122	0x3c24368c	0.010022771
123	0x3b0d5731	0.0021566863
124	0xbcda4aa4	-0.02664692
125	0xbd4ae79a	-0.04953728
126	0xbd0089d0	-0.03138143
127	0x3cd64a7c	0.026158564

layers.1.bn.weight f4 [128]
0	0x3f8a9b65	1.0828673
1	0x3f78a464	0.9712584
2	0x3f5fe3d1	0.87456995
3	0x3f645b84	0.8920214
4	0x3f4315c1	0.7620507
5	0x3f65f722	0.8983022
6	0x3f60e646	0.8785137
7	0x3f900dcd	1.1254212
8	0x3f6a5a04	0.915436
9	0x3f761e40	0.9613991
10	0x3f6698ac	0.9007671
11	0x3f730e5d	0.9494379
12	0x3f92e215	1.1475245
13	0x3f59128f	0.84793943
14	0x3f7277cd	0.9471405
15	0x3f906e0c	1.1283584
16	0x3f81c957	1.0139569
17	0x3f6f3c06	0.93450963
18	0x3f4c5e8d	0.79831773
19	0x3f69314e	0.9109086
20	0x3f59263e	0.8482398
21	0x3f4111f7	0.7541804
22	0x3f4246dc	0.7588937
23	0x3f887b29	1.0662585
24	0x3f497642	0.7869607
25	0x3f822a96	1.0169246
26	0x3f861409	1.0474864
27	0x3f4b6a26	0.79458845
28	0x3f32d30d	0.6985329
29	0x3f807090	1.0034351
30	0x3f4d2012	0.8012706
31	0x3f88f0dc	1.0698504
32	0x3f6062a7	0.8765053
33	0x3f385307	0.7200169
34	0x3f7133b0	0.94219494
35	0x3f6616f9	0.89878803
36	0x3f6defa6	0.929438
37	0x3f8cd77f	1.1003264
38	0x3f9235fa	1.1422722
39	0x3f3908c6	0.7227901
40	0x3f88e32b	1.0694326
41	0x3f414545	0.7549632
42	0x3f62260e	0.88339317
43	0x3f541e94	0.8285916
44	0x3f52890b	0.8224036
45	0x3f8424c1	1.0323716
46	0x3f5739c7	0.84072536
47	0x3f6e7415	0.9314588
48	0x3f6ea6c6	0.93223226
49	0x3f96ce51	1.1781713
50	0x3f4eecc3	0.8083002
51	0x3f90fa0c	1.1326308
52	0x3f760228	0.9609704
53	0x3f5794d4	0.8421147
54	0x3f6c6940	0.923481
55	0x3f72bccf	0.9481935
56	0x3f5ef81c	0.87097335
57	0x3f7f8101	0.9980622
58	0x3f664b9e	0.8995913
59	0x3f3e622a	0.74368536
60	0x3f81b2b1	1.0132657
61	0x3f5694eb	0.8382098
62	0x3f4a62f4	0.7905724
63	0x3f83194b	1.0242094
64	0x3f73e8fc	0.9527738
65	0x3f4676b6	0.7752489
66	0x3f889d82	1.0673068
67	0x3f69c8ba	0.9132191
68	0x3f6dda83	0.9291155
69	0x3f91b063	1.1381954
70	0x3f67cf94	0.90551114
71	0x3f87e31d	1.0616184
72	0x3f35ca84	0.7101214
73	0x3f5984db	0.84968346
74	0x3f6b0a91	0.91813
75	0x3f6cc2e3	0.92484874
76	0x3f5e890a	0.86927855
77	0x3f789b72	0.9711219
78	0x3f636afa	0.8883511
79	0x3f5f4764	0.8721831
80	0x3f56548f	0.83722776
81	0x3f75992c	0.95936847
82	0x3f7acb15	0.9796613
83	0x3f51e1e9	0.81985337
84	0x3f5de1b2	0.8667251
85	0x3f6125b5	0.8794816
86	0x3f7dd06c	0.9914615
87	0x3f40ddc5	0.75338393
88	0x3f7b9a8f	0.9828271
89	0x3f746073	0.9545967
90	0x3f6df5c6	0.92953146
91	0x3f42f6c4	0.76157784
92	0x3f4d413b	0.8017766
93	0x3f877b48	1.0584497
94	0x3f6933bf	0.91094583
95	0x3f799f85	0.9750903
96	0x3f81d3f3	1.0142807
97	0x3f4d78cb	0.8026244
98	0x3f3c7f48	0.73631716
99	0x3f534742	0.82530606
100	0x3f54b7e2	0.8309308
101	0x3f694db3	0.91134185
102	0x3f2922ed	0.6606892
103	0x3f723b3f	0.9462165
104	0x3f42e3c0	0.7612877
105	0x3f814692	1.0099661
106	0x3f5a261d	0.85214406
107	0x3f34be31	0.7060271
108	0x3f79d0b7	0.975841
109	0x3f598630	0.8497038
110	0x3f6ea2ac	0.9321697
111	0x3f54761d	0.82992727
112	0x3f51ab5c	0.819021
113	0x3f5f21e6	0.871611
114	0x3f73d158	0.9524131
115	0x3f62f445	0.88653976
116	0x3f7afe81	0.9804459
117	0x3f522d26	0.8210014
118	0x3f95de98	1.1708555
119	0x3f7ebb22	0.9950429
120	0x3f4ba56c	0.7954929
121	0x3f4cadd8	0.79952765
122	0x3f61c5df	0.8819255
123	0x3f60507a	0.876228
124	0x3f66dd1c	0.90181136
125	0x3f730829	0.94934326
126	0x3f4c2e3c	0.7975805
127	0x3f6a52ab	0.9153239

layers.1.bn.bias f4 [128]
0	0xbe3efe5c	-0.18651718
1	0xbe67702a	-0.22601381
2	0xbe8636e2	-0.26213747
3	0xbe80a9fc	-0.25129688
4	0xbee72c9a	-0.45151216
5	0xbe09ca81	-0.13456155
6	0xbeb803f0	-0.35940504
7	0xbe46bedc	-0.19408745
8	0xbe6ea98c	-0.23306865
9	0xbd51cc33	-0.05122013
10	0xbde705cd	-0.11280403
11	0xbd067832	-0.03282947
12	0xbecbd364	-0.39809716
13	0xbeacb9d2	-0.3373552
14	0xbec365e0	-0.38163662
15	0xbe771299	-0.24128188
16	0xbe990b04	-0.29891217
17	0xbe9f23b0	-0.31081915
18	0xbe4ebccf	-0.20189212
19	0xbd9701c2	-0.07373382
20	0xbe60936f	-0.21931241
21	0xbe8b3618	-0.27189708
22	0xbe9ed715	-0.3102347
23	0xbee0393e	-0.43793672
24	0xbe778a1f	-0.24173783
25	0xbe439431	-0.190995
26	0xbedda1fb	-0.43287644
27	0xbe0cdfde	-0.13757274
28	0xbe6b3630	-0.2296989
29	0xbddacc70	-0.106835246
30	0xbdaa9309	-0.08328826
31	0xbe805ffe	-0.25073236
32	0xbe31639c	-0.17323154
33	0xbe97351c	-0.29532707
34	0xbf0267b1	-0.5093947
35	0xbde32120	-0.110903025
36	0xbe2eca15	-0.17069276
37	0xbee56308	-0.44802117
38	0x3d0b18e7	0.033959296
39	0xbe1473ed	-0.14497347
40	0xbdb4521e	-0.08804725
41	0xbe4e1318	-0.20124471
42	0xbe2bfd4b	-0.16795842
43	0xbe05603a	-0.13024989
44	0xbec0c85c	-0.37652862
45	0xbdea40b2	-0.11438121
46	0xbe451994	-0.19248039
47	0xbe225fbe	-0.15856835
48	0xbea8820f	-0.32911727
49	0x3dbf4fd7	0.093414
50	0xbe8d954b	-0.27652964
51	0xbe9f10d0	-0.31067514
52	0xbe16dd7e	-0.1473293
53	0xbe5904c5	-0.21193226
54	0x3c1e0698	0.009645127
55	0xbe656fe0	-0.22405958
56	0xbea61710	-0.3243947
57	0xbea654e4	-0.3248664
58	0xbe35f5f4	-0.17769605
59	0xbe922265	-0.28541866
60	0xbe9be32f	-0.30446765
61	0xbeabd541	-0.33561137
62	0xbe81eb72	-0.25374943
63	0xbd565f13	-0.052336764
64	0xbebd6924	-0.36994278
65	0xbea2c6b7	-0.31792232
66	0xbd2dada4	-0.042401925
67	0xbdc50273	-0.09619608
68	0xbe863806	-0.26214617
69	0xbf1a5b3d	-0.6029547
70	0xbe212574	-0.15736943
71	0xbe70965b	-0.23494856
72	0xbe95f6be	-0.29289812
73	0x3b296919	0.0025849997
74	0xbdffb6f2	-0.12486066
75	0xbe3fcd26	-0.18730602
76	0xbe7249bf	-0.23660944
77	0xbe42174f	-0.18954204
78	0xbeaf9e88	-0.34300637
79	0xbe929a9a	-0.28633577
80	0xbe472d67	-0.19450913
81	0xbdeafefc	-0.11474416
82	0xbe984371	-0.29738954
83	0xbe96d2ba	-0.29457647
84	0xbcc44110	-0.023956805
85	0xbece11fb	-0.40248093
86	0xbe4ffbd3	-0.20310907
87	0xbe93121b	-0.2872475
88	0xbeb8ccf6	-0.36093873
89	0xbd83e59e	-0.064402804
90	0xbe3aba53	-0.1823514
91	0xbe945fc9	-0.28979328
92	0xbe2345fd	-0.15944667
93	0xbdeef10b	-0.11667069
94	0xbe3640db	-0.17798178
95	0xbe033796	-0.12814173
96	0xbdd5191f	-0.10405182
97	0xbddaef90	-0.10690224
98	0xbe7a0253	-0.24414949
99	0xbdc1a957	-0.09456127
100	0xbe3b5356	-0.18293509
101	0xbe1ce8ee	-0.1532323
102	0xbe574da0	-0.21025705
103	0xbdb62ef8	-0.08895677
104	0xbdcd85d0	-0.10035288
105	0xbe95e6e2	-0.29277712
106	0xbe4310a5	-0.19049318
107	0xbe83ac39	-0.25717333
108	0xbe5a46a5	-0.21316011
109	0xbe942660	-0.28935528
110	0xbe090f58	-0.1338476
111	0xbdb447a1	-0.08802725
112	0xbebcbf47	-0.36864683
113	0xbe8b16af	-0.27165744
114	0xbe52694c	-0.2054798
115	0xbe32488a	-0.17410484
116	0xbe0eb842	-0.13937476
117	0xbe4824eb	-0.19545333
118	0xbdd3f023	-0.10348537
119	0xbef7ae7f	-0.48375317
120	0xbe9598f6	-0.29218262
121	0x3d462ec7	0.048384454
122	0xbc428636	-0.011872819
123	0xbebe4f66	-0.3716995
124	0xbdeebd7e	-0.116572365
125	0xbea9a8e0	-0.33136654
126	0xbe85cd62	-0.26133257
127	0xbdf28bd5	-0.11843077

layers.1.bn.running_mean f4 [128]
0	0xc0116bd6	-2.2722068
1	0x3fe05cec	1.7528358
2	0x3f24c0ab	0.6435649
3	0xbe804dd2	-0.25059372
4	0x3d3bffc4	0.045898214
5	0x3f0b6c42	0.54462063
6	0x402bce43	2.6844642
7	0xc01e772b	-2.4760234
8	0xbe6bf450	-0.23042417
9	0xbee52146	-0.44751948
10	0xbf322d9c	-0.69600844
11	0xbfc7f0b7	-1.5620335
12	0xc01d963a	-2.462294
13	0x3f7333fa	0.95001185
14	0xbfeb3d13	-1.8378013
15	0xc0345c45	-2.8181317
16	0xbfa93cdd	-1.3221699
17	0xbfe566c7	-1.792199
18	0xbe65a15b	-0.22424833
19	0xbf5b79b6	-0.8573259
20	0xbdb58488	-0.08863169
21	0x3f4bca4a	0.79605544
22	0x3fbce63e	1.4757764
23	0xbf98d833	-1.1940979
24	0x3fbf2509	1.4933177
25	0xc0085acf	-2.1305425
26	0x3fa41cbb	1.2821268
27	0x3fbd89f1	1.4807721
28	0xbe2a0394	-0.16602927
29	0x3e59a1dd	0.21253152
30	0xbf9aa76f	-1.2082347
31	0xbf8c945b	-1.0982774
32	0x3f381b9a	0.71917117
33	0xbf9dcbef	-1.232786
34	0x3f50b20e	0.8152169
35	0xbde35d62	-0.11101796
36	0x3f917bc7	1.1365899
37	0xbfd05479	-1.6275779
38	0x3fcb8d36	1.5902469
39	0xbf66ec2f	-0.9020414
40	0x3e2fe570	0.17177367
41	0xbfa891b6	-1.3169467
42	0xbfa15c47	-1.2606286
43	0xbe4e0c52	-0.20121887
44	0x3fddd97b	1.7331995
45	0xbf5cb6ab	-0.8621623
46	0x3ed6d054	0.41955817
47	0xbfa3d96f	-1.280073
48	0xbff8ebb7	-1.9446934
49	0xbebb7c94	-0.36618483
50	0x3fa9617a	1.3232872
51	0xbe9f68af	-0.31134555
52	0xc01556b5	-2.3334172
53	0x3da22f2d	0.07919154
54	0x3f9b3420	1.2125282
55	0xc0016314	-2.0216722
56	0xc002200d	-2.0332062
57	0xbfa2dbd6	-1.2723339
58	0x3ea16594	0.3152281
59	0xbf3eb064	-0.744879
60	0x3f9348f2	1.1506636
61	0x3dc744dd	0.097299315
62	0xbfbc3e0b	-1.4706434
63	0x3ed9321e	0.4242105
64	0x3ff434b4	1.9078584
65	0xbff1121d	-1.8833653
66	0xbe23e294	-0.16004401
67	0xbfe58670	-1.7931652
68	0xc01e516e	-2.47372
69	0xbf9f50f2	-1.2446578
70	0x3fe78460	1.8087273
71	0xbf7230b8	-0.9460559
72	0x3dba32f9	0.090917535
73	0xbf910cab	-1.1331991
74	0xbfbb89ab	-1.4651388
75	0x3e17c96a	0.14822927
76	0xbe8d0d07	-0.27549002
77	0xbff1ce18	-1.889102
78	0xbe3cd704	-0.18441397
79	0x3faf4d34	1.3695436
80	0x3dc26fc8	0.09493977
81	0xbfe1e17e	-1.764694
82	0xbfcf3cdd	-1.6190449
83	0xbf74b96a	-0.9559542
84	0xbf179d08	-0.59223986
85	0xbf6d2990	-0.92641544
86	0x402eeaf8	2.7330914
87	0x3e5b4c0f	0.21415733
88	0xc0105649	-2.2552664
89	0xbee902c4	-0.45509923
90	0x3f1b9911	0.60780436
91	0xbf828e09	-1.0199596
92	0xbed79a99	-0.42110136
93	0x4007c1a0	2.121193
94	0xbfa0f652	-1.2575171
95	0x3fef1112	1.8677084
96	0x3f166aa9	0.587565
97	0xbfb07b69	-1.3787662
98	0xbfa8a085	-1.3173987
99	0xbeaeb3f2	-0.34121662
100	0xbf9c7fa5	-1.2226454
101	0xbffc4f7c	-1.9711757
102	0x3f126047	0.5717816
103	0xbfb2a3c5	-1.3956228
104	0x3f276ec4	0.6540339
105	0xbf6d5fb0	-0.9272413
106	0x3f1365df	0.5757732
107	0xbf0fd97f	-0.5619125
108	0xc016b28b	-2.3546474
109	0xbf08538e	-0.53252494
110	0xbf98f2e4	-1.1949124
111	0x3f528db3	0.82247466
112	0xbee15e6b	-0.44017348
113	0xbfa0b707	-1.2555856
114	0x3e1e1d05	0.15440758
115	0xbf4d9596	-0.80306375
116	0xbf6954ab	-0.9114482
117	0x3e306d7e	0.17229268
118	0xc0267c52	-2.601338
119	0xbff5bd6e	-1.9198434
120	0xbfb56993	-1.4172844
121	0xbf63329a	-0.88749087
122	0xbe96b3a1	-0.2943392
123	0x3f9e6e90	1.2377491
124	0x3f8044ce	1.0020998
125	0xbf8d6f9a	-1.1049683
126	0xc00615ef	-2.0950887
127	0xbf674479	-0.90338856

layers.1.bn.running_var f4 [128]
0	0x3f09669e	0.53672206
1	0x3f505d54	0.8139241
2	0x3f443da8	0.7665658
3	0x3ea88b96	0.32918996
4	0x3e302550	0.17201734
5	0x3f0252b7	0.5090746
6	0x3f0d24dc	0.5513437
7	0x3f4647cb	0.774533
8	0x3e4cdca7	0.20006047
9	0x3ef68334	0.48146975
10	0x3f1136ba	0.5672413
11	0x3edd63f0	0.4324031
12	0x3ef21b9e	0.47286695
13	0x3f11b860	0.5692196
14	0x3f19ba5c	0.60049987
15	0x3fe6eacb	1.8040403
16	0x3ef22e2a	0.47300845
17	0x400748e3	2.1138237
18	0x3f896e39	1.0736762
19	0x3fac7620	1.3473549
20	0x3f390c14	0.72284055
21	0x3f23fbae	0.6405591
22	0x3ea888d9	0.32916906
23	0x3e8f66eb	0.28008208
24	0x3eb6d335	0.35708013
25	0x3eca3dea	0.39500362
26	0x3ee73b33	0.45162353
27	0x3f41a09c	0.75635695
28	0x3f4467c5	0.7672084
29	0x3f3cd7cb	0.73766774
30	0x3ffa5cb2	1.9559538
31	0x3eee8d80	0.4659233
32	0x3fa465d7	1.2843579
33	0x3fc19628	1.5123949
34	0x3e57cef8	0.21075046
35	0x3effcdf8	0.4996183
36	0x3f31e44b	0.6948897
37	0x3e27f33a	0.16401377
38	0x3eb0ec17	0.34555122
39	0x3fadcef2	1.357878
40	0x3efd98d5	0.49530664
41	0x3faee210	1.3662739
42	0x3edbf640	0.4296131
43	0x3fa05085	1.2524573
44	0x3e76289b	0.24038927
45	0x3fa2b2e2	1.2710841
46	0x3f097d0c	0.5370643
47	0x3f0e083d	0.5548132
48	0x3f094c9e	0.53632534
49	0x3e998486	0.2998392
50	0x3fb3479a	1.4006226
51	0x3e884b68	0.2662003
52	0x3eee5882	0.465519
53	0x3f96beff	1.1777037
54	0x3eab0442	0.33401686
55	0x3f0517a3	0.5198919
56	0x3edf172d	0.4357237
57	0x3ee3078d	0.44341698
58	0x3f6d5270	0.92703915
59	0x3f4332b0	0.7624922
60	0x3eea976c	0.4581865
61	0x3e49fa08	0.19724286
62	0x3ea97f81	0.3310509
63	0x3f01e4a3	0.50739497
64	0x3f4f9e87	0.8110127
65	0x3fbcc01b	1.4746126
66	0x3edd1d09	0.43186215
67	0x400ef3df	2.2336347
68	0x3f06f585	0.52718383
69	0x3e4651e8	0.19367182
70	0x3ee0e646	0.43925685
71	0x3eae505a	0.34045678
72	0x3ebb678b	0.36602435
73	0x3f961dcf	1.1727847
74	0x3f1c2e4b	0.6100814
75	0x3f0b5a76	0.5443491
76	0x3f47c450	0.78033924
77	0x3ebe333c	0.37148464
78	0x3e746fd4	0.23870784
79	0x3f365ef4	0.71238637
80	0x3fd87183	1.6909641
81	0x3f1db556	0.6160482
82	0x3f00b3e5	0.502745
83	0x3fc10258	1.507884
84	0x3ffd0d7b	1.9769739
85	0x3f27841b	0.6543595
86	0x3f32966f	0.69760793
87	0x402c66ad	2.6937668
88	0x3f094faf	0.5363721
89	0x3f052937	0.52016014
90	0x3e92a6cf	0.2864289
91	0x3f84f5a1	1.038746
92	0x3f25b8d1	0.6473513
93	0x3effe18a	0.4997676
94	0x3ebfff1f	0.3749933
95	0x3ec3912c	0.38196695
96	0x3f0f944c	0.5608566
97	0x3fd5abc7	1.6693047
98	0x3f1bc997	0.60854477
99	0x3f51640a	0.8179327
100	0x3f3aa229	0.72903687
101	0x3f6f15b5	0.933925
102	0x3f0bb920	0.54579353
103	0x3f5a439d	0.8525942
104	0x3f4b7fe5	0.79492027
105	0x3ed36919	0.4129112
106	0x3f5551d4	0.83327985
107	0x3f716b1d	0.94304067
108	0x3fc8a1b4	1.5674348
109	0x3e5cb720	0.21554232
110	0x3f77b084	0.96753716
111	0x3f29a488	0.6626668
112	0x3ed21605	0.41032425
113	0x3e7bbfaa	0.24584833
114	0x3fa07e41	1.253853
115	0x3f82fbab	1.0233053
116	0x3f82a787	1.0207375
117	0x3f3719ba	0.7152363
118	0x3ff5e72f	1.9211177
119	0x3ee9e05f	0.45678994
120	0x3f811bbb	1.0086588
121	0x3fb56505	1.4171454
122	0x3f289383	0.65850085
123	0x3ece5112	0.40296227
124	0x3f03b9fc	0.51455665
125	0x3ec3d271	0.38246492
126	0x4026be14	2.6053514
127	0x3fb4738b	1.4097761
