graph-neural-networks/zinc_models/MPNN_add.pth (torch, 806264 bytes, 14 tensors)

layer.nnet.0.weight f4 [3, 3]
-0.39284372 -0.07906565 0.63520044 -0.3873092 0.14938289 -0.13849278 0.112802066 -0.2262489
0.76601934
00000000: d022 c9be 2ced a1bd 7f9c 223f 644d c6be
00000010: d4f7 183e 0dd1 0dbe c504 e73d cbad 67be
00000020: d819 443f

layer.nnet.0.bias f4 [3]
0.030624283 0.36615202 0.13394044
00000000: c7df fa3c 4778 bb3e af27 093e

layer.nnet.2.weight f4 [16384, 3]
-0.22320276 -0.37463674 -0.5299819 0.299386 0.40695152 -0.55275834 0.45425475 -0.41640925
0.05929481 0.49859953 -0.05910785 0.3787777 0.19096304 -0.11331655 -0.0052643702 -0.051219963
0.03516227 0.3504518 -0.8461002 0.46928406 0.013740427 -0.30310714 -0.19014959 -0.44108298
-0.023791881 0.48375154 -0.05894343 0.21938051 -0.48061845 -0.031333044 -0.15497293 -0.3893843
-0.27866068 -0.31699944 0.50945497 -0.043185208 0.2465377 -0.48680124 0.33310097 0.31832504
-0.041898597 -0.30285215 0.17122766 -0.22975487 -0.33032504 -0.1945722 -0.03358851 -0.3089672
0.5902938 0.00014798828 0.5879534 0.011490833 0.34511355 -0.4802244 0.482906 0.13082936
0.2166345 -0.25901306 -0.24733537 0.14918604 0.3009425 -0.31081206 -0.18973671 0.480744
0.19083872 0.22837065 0.45137143 0.2606547 0.75158244 -0.3677238 0.3080801 0.51036507
0.40919974 -0.2624981 -0.3470938 0.23174226 -0.18609364 0.24327333 0.43958348 -0.6066348
-0.16375741 0.013799312 0.023933949 -0.13431603 0.3954392 -0.23609252 0.34511027 -0.66101974
-0.09468577 -0.24459001 0.5353228 0.39953768 0.61005175 0.626715 0.47246942 -0.074875094
0.6537366 -0.17910296 0.103077956 -0.61292326 0.44289154 0.08597678 0.6392737 -0.26303473
-0.22819296 0.28346154 0.32706526 -0.29578298 0.29484376 0.2601027 -0.13375644 -0.22649123
-0.05201538 0.12346997 0.49421063 -0.1810895 -0.055737108 0.24261941 -0.04711415 0.519692
0.028219864 -0.23710896 -0.14252158 0.17829755 0.015385064 0.05098025 0.26864195 0.3486896
-0.5253986 0.3120894 0.07918552 0.19246294 0.5959207 -0.49282816 0.581742 -0.4117015
-0.5780186 -0.3166911 0.5500055 0.24465822 0.089044906 0.0099994065 0.22528099 0.4345086
0.11310219 -0.45232826 0.35997435 0.11166352 -0.12182955 0.33626527 -0.4165402 -0.42630693
0.57090473 0.10884422 0.5269474 0.4028266 -0.40637186 -0.68250287 -0.47777846 -0.42084593
0.55458313 -0.47050157 -0.25365868 -0.18464883 0.49932575 0.48677415 0.41424516 0.35221282
-0.14926428 -0.6857513 -0.34813628 -0.6764014 -0.06575413 0.4484125 -0.4017396 0.405962
-0.6745762 0.53655356 -0.58679926 -0.12182944 0.48242542 -0.057701863 0.5813574 -0.48669386
0.75985676 -0.16307376 -0.049281664 0.259549 0.11215392 0.6946291 0.33084327 -0.30625942
0.49192217 -0.62336653 -0.18257585 -0.46592984 0.08672932 -0.07208436 0.27982798 -0.52448785
0.27132976 0.03379011 0.41844437 -0.23585676 -0.41279927 -0.45529535 0.3622568 -0.50041527
0.48465398 0.447009 0.25659198 -0.25691572 -0.23177141 -0.19995432 -0.33134666 0.048058715
-0.19504324 -0.39354244 0.42174906 0.3338596 0.31579208 0.14487974 -0.53756666 -0.06657378
-0.4666502 0.43578056 -0.3480686 0.33085275 -0.09360842 0.73171973 0.31492525 0.2215676
-0.18497203 -0.54385227 0.29218963 -0.23929723 -0.24443094 -0.22246729 0.42039195 0.20889963
-0.37941095 -0.41970468 0.18276133 0.3680714 0.35036215 -0.2540091 0.041801315 0.09819978
-0.05765744 -0.27761212 0.3471479 0.2322825 0.04803856 -0.030289294 0.560487 -0.23969527
00000000: 448f 64be 63d0 bfbe e5ac 07bf 1f49 993e
00000010: f35b d03e 9281 0dbf 1494 e83e 9833 d5be
00000020: 1ddf 723d 7048 ff3e 131b 72bd 27ef c13e
00000030: d18b 433e 8212 e8bd bd80 acbb 06cc 51bd
00000040: 5006 103d 6b6e b33e 069a 58bf 0046 f03e
00000050: 871f 613c dc30 9bbe 93b6 42be a1d5 e1be
00000060: 31e7 c2bc 48ae f73e ab6e 71bd 49a5 603e
00000070: 9f13 f6be 1457 00bd 39b1 1ebe 615d c7be
00000080: 9dac 8ebe c04d a2be a46b 023f f9e2 30bd
00000090: 6174 7c3e 033e f9be 368c aa3e 80fb a23e
000000a0: dd9d 2bbd 700f 9bbe 4e56 2f3e dc44 6bbe
000000b0: 5d20 a9be ef3d 47be 1b94 09bd f330 9ebe
000000c0: 7f1d 173f 4d2d 1b39 1d84 163f 0c44 3c3c
000000d0: b9b2 b03e f9df f5be 753f f73e 22f8 053e
000000e0: 6fd5 5d3e 5c9d 84be 7c45 7dbe 3ac4 183e
000000f0: 2315 9a3e c222 9fbe 574a 42be 1424 f63e
00000100: 3a6b 433e ffd9 693e 281a e73e 8874 853e
00000110: b567 403f 4b46 bcbe adbc 9d3e 49a7 023f
00000120: a182 d13e 2766 86be 47b6 b1be d84d 6d3e
00000130: 558f 3ebe a51c 793e 1611 e13e 6b4c 1bbf
00000140: 06b0 27be 8216 623c 2111 c43c 248a 09be
00000150: 0277 ca3e 3dc2 71be 4bb2 b03e 9738 29bf
00000160: 9dea c1bd ce75 7abe ea0a 093f 3490 cc3e
00000170: 5a2c 1c3f 6570 203f 83e7 f13e 1d58 99bd
00000180: 485b 273f c466 37be 891a d33d 8ae8 1cbf
00000190: aec2 e23e 9814 b03d 71a7 233f 7dac 86be
000001a0: 6aab 69be df21 913e 1975 a73e de70 97be
000001b0: c3f5 963e 2e2c 853e 73f7 08be 51ed 67be
000001c0: 140e 55bd d3dd fc3d 2d09 fd3e 876f 39be
000001d0: 984c 64bd 3971 783e c4fa 40bd 890a 053f
000001e0: 582d e73c b1cc 72be 2df1 11be a293 363e
000001f0: a311 7c3c abd0 503d 708b 893e 7187 b23e
00000200: 8680 06bf 2fca 9f3e 052c a23d 0115 453e
00000210: 428e 183f f953 fcbe 0bed 143f 8aca d2be
00000220: 07f9 13bf 5625 a2be 29cd 0c3f af87 7a3e
00000230: 2d5d b63d 8dd4 233c 0fb0 663e e977 de3e
00000240: 1fa2 e73d 9297 e7be 8f4e b83e d8af e43d
00000250: c581 f9bd f62a ac3e c244 d5be e744 dabe
00000260: d026 123f b8e9 de3d 06e6 063f 4a3f ce3e
00000270: f90f d0be 82b8 2ebf 619f f4be 1e79 d7be
00000280: 29f9 0d3f 95e5 f0be 8ddf 81be 9514 3dbe
00000290: a0a7 ff3e 763a f93e f117 d43e 3d55 b43e
000002a0: bcd8 18be 668d 2fbf eb3e b2be a428 2dbf
000002b0: 1aaa 86bd 5396 e53e d0b0 cdbe 40da cf3e
000002c0: 07b1 2cbf 935b 093f 7a38 16bf b781 f9bd
000002d0: 7700 f73e ca58 6cbd d7d3 143f f02f f9be
000002e0: f985 423f cffc 26be 92db 49bd 9be3 843e
000002f0: f4b0 e53d 36d3 313f 4a64 a93e 09ce 9cbe
00000300: 39dd fb3e f394 1fbf 2af5 3abe 5b8e eebe
00000310: 249f b13d f7a0 93bd 9d45 8f3e d644 06bf
00000320: bceb 8a3e 8067 0a3d 573e d63e 6f84 71be
00000330: 6d5a d3be 791c e9be b979 b93e 371b 00bf
00000340: 9124 f83e 5dde e43e 0660 833e 758a 83be
00000350: 7c55 6dbe d3c0 4cbe 45a6 a9be 37d9 443d
00000360: 6ab9 47be 657e c9be 7eef d73e a5ef aa3e
00000370: 80af a13e 5b5b 143e f89d 09bf d557 88bd
00000380: c6ec eebe a11e df3e 0c36 b2be 8865 a93e
00000390: c5b5 bfbd fc51 3b3f e23d a13e 9ee2 623e
000003a0: 4f69 3dbe e739 0bbf e199 953e 550a 75be
000003b0: 1b4c 7abe 77ce 63be 9d3d d73e c9e9 553e
000003c0: 2742 c2be 88e3 d6be c925 3b3e db73 bc3e
000003d0: ab62 b33e 7b0d 82be db37 2b3d f71c c93d
000003e0: 352a 6cbd 2d23 8ebe 5fbd b13e 77db 6d3e
000003f0: 15c4 443d 4121 f8bc 137c 0f3f ad72 75be

layer.nnet.2.bias f4 [16384]
0.42674324 -0.5932938 0.6264804 -0.38340157 0.33093873 0.2798617 -0.41781414 0.3930927
-0.46882248 0.4980366 0.061186656 0.48296976 -0.3129165 -0.45522714 -0.06743554 -0.33748028
0.2962262 0.5278638 -0.49337775 -0.4845158 -0.38069376 -0.11866052 0.5031059 0.049595352
-0.1954109 -0.31326497 0.30796507 -0.555184 -0.08014186 0.242498 0.48018375 0.5438278
0.418429 0.12059172 -0.4147876 0.35876343 0.5181882 0.15280527 0.40673462 0.40677965
0.101580776 -0.49958283 0.061979875 0.24573383 -0.15306139 -0.119091995 -0.18942598 -0.23888749
0.32966402 0.17612347 0.26543096 0.1214371 -0.2608341 -0.26105213 0.003153603 -0.35959834
-0.23828642 -0.42882374 0.15539801 -0.03289863 0.44648373 -0.39037186 -0.3614516 -0.22100759
0.032990597 -0.03938011 0.46180713 -0.60737455 0.31629914 -0.25498122 -0.16180262 -0.45154676
-0.19042216 -0.34115002 0.18464772 0.043544106 -0.35329947 0.3568508 -0.02957435 0.2863508
0.387648 -0.189686 -0.4160287 -0.18976305 -0.22012326 -0.48939407 0.15584145 -0.12920032
0.12579064 -0.0035748945 -0.40344757 -0.28956106 -0.31815067 -0.019182045 0.6572878 -0.17502119
-0.38237935 -0.08385285 -0.42900246 -0.47959742 0.38420826 0.42882714 -0.29932144 -0.083269745
0.1437117 0.35601112 0.5502598 -0.35158297 -0.58783454 0.20248991 -0.01913547 -0.29070926
0.16862422 0.41356635 0.47427145 -0.23381336 -0.0050515463 -0.18582428 0.2763386 0.4519736
0.32792443 -0.49682862 0.43637538 -0.51148903 0.2345455 -0.1290516 0.08850105 0.5503106
-0.41753697 -0.26073718 -0.15544191 0.23660694 -0.037812058 -0.49834922 -0.11772292 -0.117378265
0.23599146 0.17927666 -0.43086362 -0.4136862 -0.21197776 -0.11772046 -0.2469305 0.19624843
0.05432545 0.5316497 0.2664469 0.0321587 0.47235093 0.5781479 -0.03084044 0.24129152
0.15066543 0.0051378338 0.00780521 -0.4586971 -0.2612761 0.43741885 -0.3014806 0.18649043
0.45894855 0.55656594 -0.20435454 -0.5710145 0.19533393 0.11642963 0.41467276 0.17391334
-0.09365396 -0.5390928 -0.46722612 0.45513877 0.07377323 0.19643292 -0.14450653 -0.44041067
-0.37246 -0.4680975 -0.50903535 -0.038664795 -0.009307819 -0.4029405 -0.024684332 0.43682346
0.33386737 0.57764083 0.43309256 0.053553637 0.48789287 0.67115957 0.09944295 0.2102708
0.3538821 -0.53437227 0.103369534 0.24638641 0.14011419 0.07766916 -0.13998336 -0.2418317
-0.25225955 0.2880363 0.20479766 -0.38603282 -0.6610273 0.18845515 0.39410967 -0.5650747
0.30737716 0.33211607 -0.26990464 -0.2775779 -0.39229548 -0.014230584 0.0044460776 0.39106014
-0.24915226 -0.28932947 0.5792061 0.17641678 0.3248633 0.0060007 -0.13550287 -0.48035648
0.3265082 0.078672074 0.51405483 -0.007226605 0.2614491 -0.34599897 0.43714306 -0.30835533
-0.45538178 0.31077403 -0.33907694 -0.18896551 -0.4566748 -0.46692294 0.16009794 -0.43713996
-0.37691286 0.46925926 -0.25075695 -0.12010487 0.23191354 -0.05858989 0.5215881 0.0049027554
-0.6288466 0.5010613 0.12962644 0.22249149 0.04375759 0.037370004 0.37371138 0.21932508
00000000: 177e da3e 1ae2 17bf 0561 203f 364d c4be
00000010: cd70 a93e 084a 8f3e bceb d5be 7243 c93e
00000020: 8009 f0be a7fe fe3e dc9e 7a3d d047 f73e
00000030: 9736 a0be 8813 e9be a51b 8abd 37ca acbe
00000040: f6aa 973e 1522 073f 029c fcbe 7412 f8be
00000050: 4bea c2be 4904 f3bd 8ccb 003f 7f24 4b3d
00000060: cc19 48be 4464 a0be 99ad 9d3e 8a20 0ebf
00000070: 6a21 a4bd 6551 783e a5da f53e 4c38 0b3f
00000080: 533c d63e cbf8 f63d 0a5f d4be d7af b73e
00000090: fba7 043f fc78 1c3e 853f d03e 6c45 d03e
000000a0: 9509 d03d 52c9 ffbe 9cde 7d3d a6a1 7b3e
000000b0: 20bc 1cbe 81e6 f3bd e2f8 41be ec9e 74be
000000c0: b9c9 a83e b659 343e 91e6 873e 04b4 f83d
000000d0: 0c8c 85be a0a8 85be aeac 4e3b 461d b8be
000000e0: 5b01 74be c98e dbbe a820 1f3e b7c0 06bd
000000f0: 8499 e43e d2de c7be 2f10 b9be d04f 62be
00000100: 2621 073d 0a4d 21bd fc71 ec3e e67c 1bbf
00000110: f6f1 a13e e68c 82be 96af 25be 2331 e7be
00000120: 07fe 42be 37ab aebe 4b14 3d3e 4e5b 323d
00000130: abe3 b4be 26b5 b63e e845 f2bc 929c 923e
00000140: cc79 c63e 0c3d 42be b701 d5be 3f51 42be
00000150: fe67 61be dc91 fabe e794 1f3e 174d 04be
00000160: 43cf 003e c748 6abb ae90 cebe 5941 94be
00000170: a5e4 a2be aa23 9dbc 0344 283f c138 33be
00000180: 3ac7 c3be 0bbb abbd 36a6 dbbe cb8d f5be
00000190: f2b6 c43e 3b8f db3e a940 99be 5489 aabd
000001a0: 2929 133e 1747 b63e d4dd 0c3f af02 b4be
000001b0: 537c 16bf 8459 4f3e fdc1 9cbc d8d7 94be
000001c0: d4ab 2c3e f8be d33e b5d3 f23e c56c 6fbe
000001d0: 7187 a5bb b848 3ebe 417c 8d3e 1569 e73e
000001e0: b6e5 a73e 5260 febe 986c df3e f2f0 02bf
000001f0: b22c 703e 1a26 04be 0a40 b53d 28e1 0c3f
00000200: 68c7 d5be 587f 85be 2a2c 1fbe 1749 723e
00000210: d1e0 1abd a127 ffbe b718 f1bd 0464 f0bd
00000220: bfa7 713e 4d94 373e 289a dcbe adce d3be
00000230: b310 59be 6d17 f1bd 59db 7cbe 59f5 483e
00000240: 5d84 5e3d 321a 083f ba6b 883e d7b8 033d
00000250: fbd7 f13e 8001 143f 17a5 fcbc 2015 773e
00000260: 0a48 1a3e 465b a83b d9c2 ff3b 59da eabe
00000270: fbc5 85be 5df5 df3e aa5b 9abe 59f7 3e3e
00000280: 4efb ea3e 1b7b 0e3f 5142 51be 022e 12bf
00000290: 9e05 483e a872 ee3d fd4f d43e 5716 323e
000002a0: a6cd bfbd fc01 0abf 4338 efbe f307 e93e
000002b0: 6b16 973d b625 493e 85f9 13be 827d e1be
000002c0: 14b3 bebe 7aaa efbe 2450 02bf fa5e 1ebd
000002d0: d37f 18bc 384e cebe cc36 cabc 53a7 df3e
000002e0: aaf0 aa3e 45e0 133f 4fbe dd3e 0f5b 5b3d
000002f0: 18cd f93e 1dd1 2b3f bfa8 cb3d 3b51 573e
00000300: 0930 b53e 9fcc 08bf 68b3 d33d b84c 7c3e
00000310: 187a 0f3e 0211 9f3d cc57 0fbe bba2 77be
00000320: 2a28 81be 7e79 933e 7ab6 513e 18a6 c5be
00000330: 1639 29bf 63fa 403e bec8 c93e bca8 10bf
00000340: 8a60 9d3e 1e0b aa3e f130 8abe b11e 8ebe
00000350: f4da c8be 6527 69bc 67b0 913b 0939 c83e
00000360: c521 7fbe fe22 94be da46 143f 9aa6 343e
00000370: 7c54 a63e 85a1 c43b 44c1 0abe 49f1 f5be
00000380: 152c a73e d31e a13d 1999 033f 28cd ecbb
00000390: a8dc 853e c726 b1be 37d1 df3e c0e0 9dbe
000003a0: cd27 e9be c61d 9f3e 7e9b adbe 2d80 41be
000003b0: 48d1 e9be 8610 efbe b7f0 233e cfd0 dfbe
000003c0: b9fa c0be c042 f03e 3763 80be 8bf9 f5bd
000003d0: be7a 6d3e f4fb 6fbd cc86 053f 4ba7 a03b
000003e0: 17fc 20bf 8e45 003f cbbc 043e cfd4 633e
000003f0: 293b 333d 4a11 193d 1957 bf3e c196 603e

layer.gru_unit.weight_ih f4 [384, 128]
-0.080464065 -0.17675658 0.10744592 -0.057299357 0.01375047 0.19835573 -0.37869513 -0.17392282
0.0033103335 0.063100964 -0.10719466 0.12386368 0.13815996 0.3770993 0.042085294 -0.083712704
0.04534718 0.21937874 -0.011576875 0.027935179 -0.12549101 -0.0840207 0.106135555 -0.043882947
-0.1076638 0.16541626 -0.20188521 -0.05482689 -0.085481 -0.10061365 0.15692927 0.10045647
0.018874822 0.16563754 0.10024047 0.20701668 -0.040901262 0.0059026866 0.05153528 -0.091401525
-0.019771794 -0.23012571 0.039066426 -0.22074208 0.20806837 0.07529914 -0.003361281 0.17019662
0.17762314 -0.092432566 -0.06004184 0.012085288 0.35372427 0.24430491 0.20981124 0.05875668
0.14416215 0.09935688 0.06550343 0.33773068 -0.44729558 -0.31241158 0.092294246 0.03624661
0.011149943 0.024153518 0.09196068 -0.016425785 0.052203774 0.08841452 0.07718233 -0.01928861
-0.07434124 0.0020154053 0.07656918 0.056249518 0.23318794 -0.07401416 -0.21595861 0.11537751
0.011037526 -0.24670497 0.17952026 -0.12433692 0.026884781 0.08645514 0.12758125 0.08560514
0.16986744 -0.124541335 -0.0471082 0.069846444 0.08187857 0.074567914 -0.050550275 -0.062013984
0.050310895 0.094175145 -0.12655212 0.24210326 -0.19435628 0.04658362 0.27721792 -0.2270263
0.0154146645 0.0685541 0.028061839 -0.11930699 -0.034629147 0.079822175 -0.055635158 -0.046602346
-0.18181626 0.05575787 -0.04414721 -0.14196292 0.005788503 -0.03107761 -0.3570846 0.054377872
-0.048094623 0.011684741 0.13273233 0.22910212 0.05417139 -0.19522993 0.020655451 -0.08834346
0.16261381 0.08745318 0.15749536 0.30975303 0.05062592 0.02985058 -0.048794776 0.07567368
0.091641426 -0.34051198 0.17677009 0.1639224 -0.0029926877 -0.11642625 0.0019050726 0.08036222
-0.09701164 -0.0051535997 -0.031269364 -0.024396103 0.18695812 -0.20751703 0.16918126 -0.053912796
0.29846135 -0.03133955 -0.035256583 0.024436925 -0.08882688 0.043745436 -0.029746702 -0.22242957
0.094574 0.030191582 0.10925283 -0.16371748 -0.020134892 -0.017164217 -0.12729365 -0.1866605
0.052067358 0.09512982 0.13541844 0.07533563 -0.23958832 -0.018852366 -0.046887457 -0.06229922
0.08703868 0.19015759 0.12657964 0.029504498 -0.12465251 0.33947405 -0.15286863 0.09585329
-0.0659326 -0.18151309 0.10058117 -0.37912557 0.018127095 0.42276973 -0.17801052 -0.0073562264
-0.21119222 -0.04018747 -0.31336415 -0.072280794 -0.118764006 0.17403094 -0.109779656 -0.16885878
0.0074949637 0.062475722 -0.1208849 -0.18734822 0.034320485 0.1184926 0.0026222242 0.052591544
0.0077886074 -0.12628253 0.037269354 -0.20582716 0.21297163 0.17236516 0.18711385 -0.14090596
-0.11232485 0.20315535 0.16359188 0.08052278 0.011689843 0.13520774 0.24025531 -0.16379248
0.15114143 0.0006520495 0.05095746 0.0075214575 -0.035211667 0.0487337 -0.13332753 -0.107957944
-0.050451357 -0.056532692 -0.12406964 -0.03034485 0.00844 -0.038622603 0.04096088 0.16545238
0.06646254 0.31277353 0.029387617 0.08722972 0.10817215 -0.25393945 -0.049113456 -0.09284592
-0.14603092 -0.106686205 -0.20569824 -0.25511217 0.24192192 0.24956773 -0.10475456 -0.006810767
00000000: 58ca a4bd adff 34be 9b0c dc3d bbb2 6abd
00000010: a749 613c c41d 4b3e 54e4 c1be d318 32be
00000020: 2ef2 583b 143b 813d e088 dbbd 3eac fd3d
00000030: ce79 0d3e 2913 c13e a161 2c3d 9171 abbd
00000040: f7bd 393d d2a4 603e efac 3dbc 51d8 e43c
00000050: b780 00be 0b13 acbd 995d d93d 9bbe 33bd
00000060: d77e dcbd e162 293e ffba 4ebe 2992 60bd
00000070: aa10 afbd 880e cebd 11b2 203e 1fbc cd3d
00000080: 5f9f 9a3c e39c 293e e04a cd3d 2efc 533e
00000090: 1588 27bd 536b c13b a816 533d b930 bbbd
000000a0: 75f8 a1bc 13a6 6bbe 1e04 203d 360a 62be
000000b0: e00f 553e 6f36 9a3d f048 5cbb 0648 2e3e
000000c0: d7e2 353e 494d bdbd 6fee 75bd 5f01 463c
000000d0: 591b b53e 112b 7a3e c2d8 563e d8aa 703d
000000e0: 3e9f 133e 9f7b cb3d aa26 863d 09eb ac3e
000000f0: ed03 e5be 69f4 9fbe c404 bd3d 5377 143d
00000100: 40ae 363c 99dd c53c e255 bc3d 5e8f 86bc
00000110: a0d3 553d ac12 b53d c511 9e3d 2603 9ebc
00000120: 3840 98bd e414 043b 4dd0 9c3d e565 663d
00000130: d2c8 6e3e bc94 97bd 4124 5dbe 0b4b ec3d
00000140: bdd6 343c 3aa0 7cbe 29d4 373e 5ba4 febd
00000150: 793d dc3c 640f b13d a9a4 023e bf51 af3d
00000160: bbf1 2d3e 870f ffbd 87f4 40bd a70b 8f3d
00000170: f4af a73d 10b7 983d ce0d 4fbd 6002 7ebd
00000180: cc12 4e3d e6de c03d e196 01be ebe9 773e
00000190: 5505 47be 77ce 3e3d 82ef 8d3e 9579 68be
000001a0: ca8d 7c3c 1866 8c3d f1e1 e53c 3957 f4bd
000001b0: 4bd7 0dbd cf79 a33d b1e1 63bd 1ae2 3ebd
000001c0: 0b2e 3abe 5d62 643d b4d3 34bd ba5e 11be
000001d0: 7cad bd3b 7996 febc cbd3 b6be 55bb 5e3d
000001e0: defe 44bd 5b71 3f3c fcea 073e bf99 6a3e
000001f0: d2e2 5d3d 5bea 47be 9f35 a93c 6aed b4bd
00000200: 3c84 263e a71a b33d 7746 213e f397 9e3e
00000210: 205d 4f3d 3489 f43c 08dd 47bd cdfa 9a3d
00000220: 80ae bb3d 9657 aebe 3803 353e 46db 273e
00000230: f820 44bb e370 eebd a1b3 f93a f394 a43d
00000240: 0aae c6bd 87df a8bb 4e14 00bd 56da c7bc
00000250: f371 3f3e 587f 54be da3d 2d3e aad3 5cbd
00000260: edcf 983e e65d 00bd 3569 10bd f22f c83c
00000270: deea b5bd 6a2e 333d 5baf f3bc 94c4 63be
00000280: 03b0 c13d 5654 f73c f3bf df3d 8ea5 27be
00000290: eef1 a4bc f99b 8cbc 4459 02be ee23 3fbe
000002a0: 9544 553d 6cd3 c23d 22ab 0a3e 9149 9a3d
000002b0: a456 75be 4770 9abc 100d 40bd 782d 7fbd
000002c0: 5641 b23d acb8 423e 189e 013e 6bb3 f13c
000002d0: d149 ffbd 8bcf ad3e 9889 1cbe bb4e c43d
000002e0: ac07 87bd 91de 39be 80fd cd3d bf1c c2be
000002f0: 467f 943c 4675 d83e 6448 36be 800c f1bb
00000300: c642 58be 9e9b 24bd 4471 a0be f407 94bd
00000310: 8b3a f3bd 2b35 323e 28d4 e0bd 51e9 2cbe
00000320: 5098 f53b 8be6 7f3d 8192 f7bd 36d8 3fbe
00000330: a393 0c3d 40ac f23d 9fd9 2b3b 3b6a 573d
00000340: 9337 ff3b 3550 01be c0a7 183d 5bc4 52be
00000350: 3c15 5a3e 7e80 303e c69a 3f3e a749 10be
00000360: 920a e6bd f507 503e a184 273e 21e9 a43d
00000370: c186 3f3c e673 0a3e 7d05 763e 37b9 27be
00000380: d2c4 1a3e 4dee 2a3a c5b8 503d 8f76 f63b
00000390: 1c3a 10bd fd9c 473d 0387 08be 0e19 ddbd
000003a0: 15a6 4ebd d38e 67bd 3918 febd c395 f8bc
000003b0: ed47 0a3c bc32 1ebd 99c6 273d 596c 293e
000003c0: 831d 883d da23 a03e 4dbe f03c 7fa5 b23d
000003d0: 5c89 dd3d 5a04 82be 312b 49bd 0026 bebd
000003e0: 2189 15be 4c7e dabd 8fa2 52be 109e 82be
000003f0: 61ba 773e af8e 7f3e 8f89 d6bd db2c dfbb

layer.gru_unit.weight_hh f4 [384, 128]
-0.14478514 0.12693444 -0.00015867183 0.11464714 0.068275236 0.058028392 0.0011006474 0.2555515
0.078266256 0.08655842 0.29481497 -0.11813794 -0.15563154 -0.13537969 -0.05450768 0.054425903
0.12300557 0.026119754 -0.019765599 0.09656127 0.07363317 -0.112414815 0.044620164 0.09774797
0.048512887 0.2164665 0.2927778 0.18604149 -0.019949988 0.029242635 0.17240627 0.22251791
0.17309795 0.06222155 0.18642008 -0.10531852 -0.0069986046 0.21506093 0.24865527 0.058112275
-0.14046499 0.022002593 0.10920199 0.16740076 0.12754446 0.5239031 0.070499234 -0.04503077
0.18254244 0.13381071 -0.011332351 -0.17842759 -0.16619928 0.0066441842 0.2878186 0.18287835
0.12901773 0.24836999 -0.061871313 0.15019397 0.15933542 -0.10388894 -0.01884802 0.15727305
-0.039186873 -0.10063195 -0.024894228 -0.07114007 0.23697244 0.22100642 0.086331084 -0.056763995
-0.0350581 -0.012646822 0.15776418 0.15287676 0.087750144 0.23351991 0.14917663 -0.1300717
0.02760993 0.016146813 -0.11837339 -0.3032334 -0.23992716 0.072483994 -0.014440413 0.051767904
0.1339459 -0.03671751 0.2487841 -0.105734296 0.19504724 0.40427968 -0.13964137 0.24038006
0.16396813 -0.094235554 -0.0892769 0.08880926 0.09017822 -0.08074986 -0.0127728805 0.2601666
0.050082378 0.34277314 0.00804929 -0.0004509288 0.2287325 0.36151108 0.08446623 -0.16351235
0.12367467 0.0019244486 0.17243607 -0.14754419 0.22036177 -0.008673894 0.022901757 0.043927312
0.13134284 -0.16945836 0.15208298 -0.02765039 0.004212414 0.1160435 0.2114536 0.070001245
0.008273636 0.23274119 -0.0115903765 0.0743702 0.0069786934 0.099935524 0.1348113 0.13568868
-0.03326255 -0.055873368 0.24437432 0.19674177 0.091655456 0.17534643 -0.08639433 0.19604783
0.05586424 0.010056498 0.12592648 0.09143057 0.12463004 -0.11306002 0.1482597 0.13061844
-0.09049116 -0.17388396 0.22959661 0.16765863 -0.053331334 0.23491623 0.1068606 0.17663002
0.28896505 0.07793975 -0.12484548 -0.118856296 0.02752937 0.0067019174 -0.12855232 0.31158155
0.22927974 -0.006721631 0.30656606 -0.027933385 0.10919736 0.019629037 0.039238106 -0.06363028
0.041332588 -0.09142986 0.07358522 0.32805482 -0.12087003 -0.09931803 0.056936387 0.12610137
0.09209261 0.11896843 -0.04840953 -0.22287779 0.10434047 -0.110939585 -0.033689898 -0.04330304
-0.1715131 0.2138135 -0.02784572 -0.29676807 0.1244426 -0.04959446 0.25393105 0.15965755
0.09355172 0.24672428 -0.16391994 -0.24961355 0.14723918 0.108529 0.10817349 0.016367177
-0.059750788 0.16290584 -0.0071057854 0.19880119 0.3015723 0.1397686 0.012328346 -0.0005757298
-0.07164601 0.009479135 -0.056438 0.032925162 0.11001547 -0.110347964 0.42539993 0.003042505
-0.02266454 0.100163125 -0.15812197 -0.056605127 -0.08146723 -0.07757602 0.10988247 -0.17420512
-0.080905646 0.08727269 0.109861515 -0.13790059 0.14826025 0.060293432 0.11719078 0.09927302
-0.3451568 -0.10996617 -0.16521333 0.19584692 0.20772864 0.12459933 0.0995736 -0.06799075
-0.0699833 0.123289794 -0.115193725 0.08398634 -0.038143292 -0.07189906 -0.052856624 0.002644778
00000000: 8e42 14be 1afb 013e 2561 26b9 1fcc ea3d
00000010: e3d3 8b3d 2eaf 6d3d 9943 903a a5d7 823e
00000020: 0f4a a03d 8a45 b13d fdf1 963e 4ef2 f1bd
00000030: e05d 1fbe f9a0 0abe 7243 5fbd b2ed 5e3d
00000040: 58ea fb3d 18f9 d53c 77eb a1bc eac1 c53d
00000050: fdcc 963d bd39 e6bd a2c3 363d 1630 c83d
00000060: 73b5 463d 65a9 5d3e f9e6 953e a981 3e3e
00000070: 286e a3bc 408e ef3c 458b 303e bcdb 633e
00000080: 9740 313e 06dc 7e3d e8e4 3e3e 3cb1 d7bd
00000090: 8d54 e5bb ef38 5c3e 7d9f 7e3e 2307 6e3d
000000a0: 0ed6 0fbe c83e b43c 4ba5 df3d 1b6b 2b3e
000000b0: 049b 023e 831e 063f e761 903d 2f72 38bd
000000c0: 68ec 3a3e ad05 093e 53ab 39bc b9b5 36be
000000d0: 2530 2abe 75b7 d93b f65c 933e 7644 3b3e
000000e0: 391d 043e b454 7e3e c66c 7dbd 73cc 193e
000000f0: d328 233e b9c3 d4bd 2a67 9abc 300c 213e
00000100: 6a82 20bd 2018 cebd fbee cbbc e3b1 91bd
00000110: e7a8 723e 824f 623e 5ace b03d 5d81 68bd
00000120: 1599 0fbd 9e34 4fbc ef8c 213e ba8b 1c3e
00000130: 59b6 b33d d81f 6f3e c2c1 183e 8431 05be
00000140: 382e e23c 5246 843c bf6d f2bd 6941 9bbe
00000150: 77af 75be 7d72 943d 7b97 6cbc 950a 543d
00000160: 1d29 093e 1a65 16bd 42c1 7e3e 398b d8bd
00000170: 77ba 473e bffd ce3e 26fe 0ebe 3126 763e
00000180: 43e7 273e 92fe c0bd cfd6 b6bd a1e1 b53d
00000190: 5caf b83d 2f60 a5bd 5845 51bc 8e34 853e
000001a0: 2e23 4d3d f67f af3e 2be1 033c a46a ecb9
000001b0: da38 6a3e fb17 b93e a1fc ac3d c86f 27be
000001c0: 2549 fd3d c83d fc3a 1593 303e d315 17be
000001d0: 84a6 613e f31c 0ebc 779c bb3c 20ed 333d
000001e0: bd7e 063e 7e86 2dbe a4bb 1b3e 1283 e2bc
000001f0: 4a08 8a3b 37a8 ed3d 4b87 583e d05c 8f3d
00000200: 258e 073c b553 6e3e 90e5 3dbc 674f 983d
00000210: 86ad e43b ffaa cc3d f90b 0a3e f9f1 0a3e
00000220: 503e 08bd 79db 64bd 433d 7a3e ad76 493e
00000230: dbb5 bb3d 048e 333e 83ef b0bd c3c0 483e
00000240: e7d1 643d 03c4 243c dff2 003e f33f bb3d
00000250: 093e ff3d 038c e7bd 64d1 173e d7c0 053e
00000260: 6e53 b9bd a30e 32be 601b 6b3e b4ae 2b3e
00000270: f571 5abd e18d 703e bbd9 da3d 80de 343e
00000280: 3af3 933e e09e 9f3d fdae ffbd ee6a f3bd
00000290: 4685 e13c c29b db3b 38a3 03be 9e87 9f3e
000002a0: 4fc8 6a3e 2141 dcbb 3af6 9c3e 8ed4 e4bc
000002b0: dea2 df3d 13cd a03c 23b8 203d 9850 82bd
000002c0: 5c4c 293d 943f bbbd d9b3 963d cdf6 a73e
000002d0: b58a f7bd 4067 cbbd 2136 693d b820 013e
000002e0: 0d9b bc3d b8a5 f33d 1249 46bd 133a 64be
000002f0: 75b0 d53d 4b34 e3bd 6bfe 09bd 875e 31bd
00000300: 21a1 2fbe edf1 5a3e b51c e4bc fcf1 97be
00000310: c3db fe3d 8f23 4bbd 4003 823e 457d 233e
00000320: 0b98 bf3d 4aa5 7c3e a1da 27be b29a 7fbe
00000330: dec5 163e 7444 de3d 108a dd3d 7514 863c
00000340: 3ebd 74bd cad0 263e a6d7 e8bb 8a92 4b3e
00000350: af67 9a3e 801f 0f3e d5fc 493c 93ec 16ba
00000360: 25bb 92bd 604e 1b3c 882b 67bd 89dc 063d
00000370: ca4f e13d 1dfe e1bd 05ce d93e c364 473b
00000380: fcaa b9bc 5322 cd3d baea 21be c7da 67bd
00000390: 4bd8 a6bd 2de0 9ebd 0f0a e13d d462 32be
000003a0: dcb1 a5bd 06bc b23d 13ff e03d d035 0dbe
000003b0: 89d1 173e 3ff6 763d b801 f03d a74f cb3d
000003c0: 64b8 b0be f135 e1bd af2d 29be 188c 483e
000003d0: d1b6 543e ef2d ff3d 3eed cb3d bc3e 8bbd
000003e0: 6853 8fbd 5c7f fc3d b0ea ebbd 0801 ac3d
000003f0: 243c 1cbd d03f 93bd 3080 58bd 0354 2d3b

layer.gru_unit.bias_ih f4 [384]
0.101942405 0.18827151 0.11801874 0.22397046 0.18814006 0.24031718 0.1397188 -0.044861488
-0.18139918 0.06879558 0.21242703 0.07801286 0.10508199 0.0032929017 0.17805426 0.065842405
0.16186625 0.18593691 0.13443743 0.18142822 0.056362886 0.17260687 0.020287476 0.010531524
-0.02403012 0.14096001 0.12483754 0.010264599 0.22946343 0.064715326 0.3981108 -0.08496182
0.23832215 0.15792908 -0.12210601 0.31137505 -0.021530034 -0.108709976 0.11280599 0.09683744
0.20137022 0.16921306 0.11024849 0.16310826 -0.12800184 0.11668277 0.19794211 0.17763814
0.16644615 0.09032977 0.19757828 0.015269337 -0.07369061 0.08156878 -0.035577435 0.15545325
0.13843031 -0.04124794 -0.02867641 0.08389678 -0.030543247 -0.0130867185 -0.0031407347 0.18707673
0.24877316 0.09552316 0.15285793 -0.0059419875 0.1433437 0.18583883 0.19068894 0.18109137
0.005761336 0.056619734 0.16392931 0.14544733 0.056851506 -0.06554435 0.012249606 0.15788813
0.10247008 0.06774305 0.106253155 0.24285808 0.3434974 0.17426889 0.22293761 0.19181718
0.08036803 0.22723456 -0.1307767 0.19405364 -0.077434815 0.009235066 0.112085216 -0.0192251
0.122137874 0.20048195 0.06651278 0.19546932 -0.023382101 0.03913079 0.1515326 0.14961599
0.031610332 0.11189574 -0.12386277 0.083451256 0.32109824 0.27637887 0.025354574 0.113493726
0.10154855 0.08336445 0.116736576 0.1881594 0.17700964 -0.17843884 -0.030648459 0.111504175
0.21552189 -0.080877066 0.11261116 0.13786076 0.2074615 0.124850556 0.1924069 0.14503634
-0.20229277 -0.085348845 0.05211133 -0.31696326 -0.13154536 -0.060730595 0.1283201 0.23282392
-0.028472578 -0.02900003 0.03457655 0.013048063 -0.0010592709 0.015165342 -0.22278737 -0.1774306
-0.0023910846 -0.15413088 -0.067288235 0.03432007 0.05075311 -0.046563968 0.0740727 0.2899417
0.05941953 -0.0884434 0.045765407 0.10061796 -0.16234286 -0.22547688 0.032789163 -0.0052234214
0.10331849 0.039371748 -0.09212343 -0.17586695 -0.1349529 0.2083163 0.053707823 0.078842714
0.08020497 -0.02084466 0.10115568 -0.13516778 -0.10282813 -0.052600138 0.005552477 0.09643079
0.021792773 -0.09326443 -0.0793681 0.1624768 0.13580187 0.15356372 0.13320413 -0.036276996
-0.16090587 0.08320321 -0.072866604 -0.16960406 -0.07860047 -0.12562802 -0.06884189 0.05093224
-0.17048901 -0.16704027 -0.021605417 0.052248918 -0.15138035 -0.022573167 0.16610631 -0.12852605
0.071207404 -0.06862818 -0.08700396 -0.076509945 -0.044167794 0.108071774 -0.015868392 -0.11041403
-0.060871053 0.23814875 0.1148705 0.10391697 -0.013263693 0.16164432 -0.23907486 -0.19156177
-0.35635084 -0.049377043 0.038878474 -0.17091243 0.02390594 0.105524845 -0.13400035 0.04579755
0.10974667 -0.03958755 -0.010497175 -0.24864106 0.05586005 -0.15636294 0.012041626 0.06768928
0.09706501 -0.14972423 0.076762386 0.0857461 -0.07812333 0.14157438 0.05904848 0.1146254
-0.09563281 0.07459657 0.2465597 0.042601146 -0.0012302333 0.045456115 -0.3059388 -0.09037894
0.09266727 -0.010096736 -0.16585776 -0.038087282 -0.03380983 -0.050438955 -0.016525831 0.037038933
00000000: 2ec7 d03d 3fca 403e cfb3 f13d 8358 653e
00000010: caa7 403e b515 763e 7212 0f3e aec0 37bd
00000020: b5c0 39be b2e4 8c3d 7986 593e 35c5 9f3d
00000030: 3a35 d73d b9cd 573b db53 363e 62d8 863d
00000040: 44c0 253e 3f66 3e3e f7a9 093e 52c8 393e
00000050: c5dc 663d dbbf 303e ec31 a63c 6a8c 2c3c
00000060: d0da c4bc d257 103e d3aa ff3d d92c 283c
00000070: 76f8 6a3e 7889 843d 2ed5 cb3e 7600 aebd
00000080: b90a 743e 29b8 213e b712 fabd 8d6c 9f3e
00000090: c15f b0bc 56a3 debd d406 e73d b552 c63d
000000a0: ff33 4e3e 3046 2d3e f6c9 e13d da05 273e
000000b0: ea12 03be 60f7 ee3d 56b1 4a3e c6e6 353e
000000c0: dc70 2a3e d1fe b83d f651 4a3e 3e2c 7a3c
000000d0: 1aeb 96bd 880d a73d a5b9 11bd 232f 1f3e
000000e0: adc0 0d3e 9af3 28bd caea eabc 13d2 ab3d
000000f0: d535 fabc ad69 56bc c9d4 4dbb 0b91 3f3e
00000100: 64be 7e3e a6a1 c33d ca86 1c3e 01b5 c2bb
00000110: b1c8 123e 894c 3e3e f643 433e 0470 393e
00000120: 97c9 bc3b 18ea 673d 16dd 273e 25f0 143e
00000130: 20dd 683d 1e3c 86bd 92b2 483c 6dad 213e
00000140: d5db d13d debc 8a3d 419b d93d caaf 783e
00000150: e4de af3e 8b73 323e c249 643e b96b 443e
00000160: fe97 a43d 2db0 683e 54ea 05be ffb5 463e
00000170: 2596 9ebd ad4e 173c ef8c e53d f57d 9dbc
00000180: 6c23 fa3d 244b 4d3e da37 883d 1c29 483e
00000190: d28b bfbc 9b47 203d 5d2b 1b3e ef34 193e
000001a0: d679 013d 9829 e53d c4ab fdbd 7ee8 aa3d
000001b0: fd66 a43e 8881 8d3e 65b4 cf3c 666f e83d
000001c0: b0f8 cf3d fbba aa3d 9613 ef3d dcac 403e
000001d0: 0442 353e acb8 36be 7a12 fbbc 4d5c e43d
000001e0: c5b1 5c3e e0a2 a5bd aea0 e63d 5f2b 0d3e
000001f0: ca70 543e a6b1 ff3d 5006 453e 6884 143e
00000200: d625 4fbe 60cb aebd b172 553d 0249 a2be
00000210: d4b3 06be a5c0 78bd 5866 033e 6569 6e3e
00000220: 533f e9bc 7991 edbc 24a0 0d3d 8bc7 553c
00000230: 3cd7 8aba 0e78 783c 5f22 64be 5eb0 35be
00000240: beb3 1cbb 7cd4 1dbe 6ace 89bd 3493 0c3d
00000250: 7ee2 4f3d dcb9 3ebd 6eb3 973d 3d73 943e
00000260: e561 733d d021 b5bd 8274 3b3d ca10 ce3d
00000270: 353d 26be 69e3 66be ee4d 063d 3c29 abbb
00000280: a598 d33d 4544 213d 35ab bcbd 7716 34be
00000290: 1831 0abe de50 553e bcfc 5b3d 4a78 a13d
000002a0: 8142 a43d 6cc2 aabc b62a cf3d 6c69 0abe
000002b0: 8e97 d2bd 3e73 57bd 8ef1 b53b 827d c53d
000002c0: c286 b23c 6c01 bfbd be8b a2bd 5160 263e
000002d0: a50f 0b3e cf3f 1d3e aa66 083e 3097 14bd
000002e0: 82c4 24be 7266 aa3d 163b 95bd b0ac 2dbe
000002f0: 49f9 a0bd a2a4 00be fafc 8cbd 539e 503d
00000300: ac94 2ebe 9b0c 2bbe d8fd b0bc f602 563d
00000310: 7303 1bbe 5deb b8bc c617 2a3e 559c 03be
00000320: 30d5 913d ee8c 8cbd 222f b2bd 3fb1 9cbd
00000330: 4ae9 34bd bc54 dd3d 6efe 81bc c020 e2bd
00000340: ed53 79bd 44dd 733e 3a41 eb3d 6cd2 d43d
00000350: f64f 59bc 1786 253e 0ad0 74be c528 44be
00000360: 9e73 b6be 953f 4abd 093f 1f3d ab03 2fbe
00000370: 64d6 c33c 691d d83d 6337 09be 3696 3b3d
00000380: ddc2 e03d 8e26 22bd 58fc 2bbc c39b 7ebe
00000390: 82cd 643d 9b1d 20be 3d4a 453c ada0 8a3d
000003a0: 05ca c63d 4f51 19be 9935 9d3d a79b af3d
000003b0: 20ff 9fbd e0f8 103e d2dc 713d b9c0 ea3d
000003c0: 22db c3bd 16c6 983d 257a 7c3e 8a7e 2e3d
000003d0: c83f a1ba 3130 3a3d 03a4 9cbe 9818 b9bd
000003e0: 56c8 bd3d c86c 25bc 9ed6 29be 6901 1cbd
000003f0: 2d7c 0abd 1499 4ebd 2e61 87bc 23b6 173d

layer.gru_unit.bias_hh f4 [384]
0.15519808 0.04571111 0.005335481 0.059416857 0.20151094 0.23816931 0.074363716 0.009007014
-0.10522966 0.08137267 0.14328843 0.06432239 0.2100334 -0.05060137 0.2356255 0.088095054
0.17306623 0.23763332 0.1341061 0.10353968 0.11375305 0.30783772 -0.01161694 0.028800227
-0.0330249 0.20518 0.10086566 0.050272707 0.1957085 0.098722756 0.28970993 0.06371137
0.15320306 0.08854845 0.02628157 0.21540664 -0.08429308 -0.10138141 0.18141086 0.20576882
0.15675026 0.12902121 0.079193905 0.17574038 -0.053068098 0.022586511 0.06280336 0.21649212
0.0026341984 0.12121325 0.12613913 -0.09097799 -0.08838581 0.14336433 -0.1328889 0.09924669
0.26872897 -0.13015725 0.050414354 0.062221102 -0.037533984 -0.03154631 -0.058647096 0.11356676
0.23522817 0.020959325 0.18365021 0.061835553 0.18522751 0.27063218 0.23801938 0.048551515
0.029579971 0.035947222 0.118012264 0.11178238 0.13448797 -0.032485936 -0.027676534 0.011324298
0.17685291 0.1362145 0.083782636 0.124682516 0.23713525 0.052078098 0.2222916 0.08800929
0.2516491 0.16805147 -0.03997198 0.27191168 0.016526544 0.11940571 0.11061238 0.07153281
0.1189477 0.098695025 0.12516113 0.22118035 -0.11239159 0.10031815 0.10547663 0.15776342
-0.11910736 0.122353256 -0.081832446 0.058238428 0.3066012 0.14152725 0.060418073 0.19125915
0.0027007635 0.04592484 0.09356214 0.08741248 0.2655158 -0.115788184 -0.023283463 -0.04449365
0.31755146 -0.011205049 0.2011169 0.15279984 0.1450993 0.2093482 0.28024203 0.073795475
-0.175719 -0.024524052 -0.025965031 -0.28436378 -0.23997554 -0.08349201 0.117189415 0.17735718
-0.013310841 0.0009318316 0.008447719 -0.09940333 -0.057443056 -0.037513383 -0.21633518 -0.13897854
0.016194994 -0.0020755408 -0.10645301 -0.05424011 -0.013283512 -0.00075306295 0.06008907 0.26219225
-0.0013569181 -0.20639169 0.21587256 0.06950494 -0.13478602 -0.19499294 0.017956072 -0.007575471
0.2060337 -0.032928858 0.028840603 -0.12935893 -0.074373044 0.3264379 -0.037739374 0.0557896
0.061597843 0.14602745 0.15521091 -0.16745116 -0.031169105 -0.087752566 0.028371138 0.07339597
-0.033988584 -0.02709558 -0.12013334 0.07310002 0.1390502 0.026407717 0.09994668 -0.06337619
-0.11738712 0.203863 0.05624227 -0.13522404 -0.011368368 -0.11586745 -0.056463685 -2.3000572e-05
-0.14219329 -0.22207512 0.10678142 0.050598744 -0.09267177 -0.031854246 0.18768662 -0.22225477
-0.050011814 -0.07795528 -0.04579763 -0.08028127 -0.049087517 0.010909953 0.014967885 -0.1797312
-0.070283584 0.07916908 0.020542245 0.1493063 0.047169924 0.12262166 -0.2844999 -0.18313034
-0.19932483 -0.048767734 -0.026143506 -0.16222268 -0.033816207 -0.05123939 -0.13537212 0.0051320526
0.072803125 0.0076537915 -0.040373124 -0.2299426 0.020526636 -0.16920024 -0.033083633 -0.0153939985
0.047407214 -0.17916606 -0.043545503 -0.008790445 -0.1513084 0.07137735 0.00929003 0.13827246
-0.1299741 -0.035806745 0.21956581 0.017693533 -0.07110415 0.004312391 -0.3096106 -0.12364516
0.19256565 -0.042702615 -0.1748591 0.071567476 -0.07596731 -0.047414362 -0.013439247 0.031342696
00000000: 3fec 1e3e 933b 3b3d 42d5 ae3b 175f 733d
00000010: e258 4e3e a8e2 733e 014c 983d 2892 133c
00000020: a682 d7bd b7a6 a63d 34ba 123e 75bb 833d
00000030: ff12 573e 6243 4fbd d047 713e 2e6b b43d
00000040: 4638 313e 2656 733e 1c53 093e 9d0c d43d
00000050: 5cf7 e83d e89c 9d3e fa54 3ebc 74ee eb3c
00000060: 1e45 07bd b51a 523e a892 ce3d c1ea 4d3d
00000070: cf67 483e 282f ca3d dc54 943e 1b7b 823d
00000080: 43e1 1c3e e458 b53d 724c d73c 8f93 5c3e
00000090: daa1 acbd 0fa1 cfbd c5c3 393e 10b5 523e
000000a0: 2483 203e 231e 043e 6a30 a23d 49f5 333e
000000b0: ef5d 59bd 5907 b93c 0c9f 803d 1cb0 5d3e
000000c0: 84a2 2c3b a73e f83d 9e2a 013e ab52 babd
000000d0: 9f03 b5bd 19ce 123e 0714 08be d941 cb3d
000000e0: d896 893e f147 05be 487f 4e3d 8edb 7e3d
000000f0: 3cbd 19bd b436 01bd f037 70bd b195 e83d
00000100: a7df 703e e4b2 ab3c cd0e 3c3e 4747 7d3d
00000110: 48ac 3d3e 4d90 8a3e 5abb 733e f4dd 463d
00000120: b251 f23c 653d 133d 6ab0 f13d 29ee e43d
00000130: 37b7 093e f90f 05bd e6b9 e2bc 8c89 393c
00000140: ee18 353e d07b 0b3e 3b96 ab3d 8c59 ff3d
00000150: 95d3 723e d84f 553d 69a0 633e 373e b43d
00000160: 27d8 803e af15 2c3e a9b9 23bd 0238 8b3e
00000170: ad62 873c fb8a f43d be88 e23d cb7f 923d
00000180: da9a f33d 9e20 ca3d 3d2a 003e 1a7d 623e
00000190: 902d e6bd 9a73 cd3d 2204 d83d bc8c 213e
000001a0: 8fee f3bd 5894 fa3d c597 a7bd 6b8b 6e3d
000001b0: d5fa 9c3e 85ec 103e f178 773d 70d9 433e
000001c0: 4bff 303b af1b 3c3d 829d bf3d 5005 b33d
000001d0: b0f1 873e 5b22 edbd f6bc bebc f93e 36bd
000001e0: 1b96 a23e 6295 37bc 97f1 4d3e 9077 1c3e
000001f0: e994 143e 605f 563e e27b 8f3e 1522 973d
00000200: aeef 33be aae6 c8bc 9eb4 d4bc 2198 91be
00000210: 26bc 75be dcfd aabd 0101 f03d 1f9d 353e
00000220: b715 5abc 2946 743a 4d68 0a3c f993 cbbd
00000230: 6949 6bbd a2a7 19bd f886 5dbe 6450 0ebe
00000240: 5dab 843c cc05 08bb 0904 dabd e12a 5ebd
00000250: 16a3 59bc 3369 45ba f51f 763d 103e 863e
00000260: 9eda b1ba 5858 53be b20d 5d3e 9b58 8e3d
00000270: 5905 0abe 3bac 47be 9d18 933c a83b f8bb
00000280: 80fa 523e 69e0 06bd 2143 ec3c ab76 04be
00000290: e550 98bd de22 a73e 9a94 1abd a383 643d
000002a0: 054e 7c3d 3888 153e 9cef 1e3e 5178 2bbe
000002b0: 5a56 ffbc 9eb7 b3bd 976a e83c a050 963d
000002c0: 9d37 0bbd 8df7 ddbc 7808 f6bd 77b5 953d
000002d0: 2d63 0e3e ff54 d83c d8b0 cc3d 60cb 81bd
000002e0: a968 f0bd 76c1 503e 4b5e 663d 2c78 0abe
000002f0: 6442 3abc ea4b edbd 7746 67bd 5af1 c0b7
00000300: 1e9b 11be a967 63be 38b0 da3d a140 4f3d
00000310: b2ca bdbd 9979 02bd ec30 403e c196 63be
00000320: 30d9 4cbd 05a7 9fbd 4c96 3bbd 826a a4bd
00000330: fe0f 49bd a9bf 323c dc3b 753c 750b 38be
00000340: d7f0 8fbd 6623 a23d 3648 a83c c0e3 183e
00000350: 4035 413d 1121 fb3d f9a9 91be 8586 3bbe
00000360: cf1b 4cbe adc0 47bd e82a d6bc b41d 26be
00000370: dd82 0abd 65e0 51bd fd9e 0abe c72a a83b
00000380: ce19 953d a8cc fa3b 4a5e 25bd 1376 6bbe
00000390: 7a27 a83c d442 2dbe b482 07bd 1c37 7cbc
000003a0: 112e 423d 4f77 37be c55c 32bd cc05 10bc
000003b0: 97f0 1abe 4a2e 923d 3635 183c 4c97 0d3e
000003c0: ee17 05be 18aa 12bd dcd5 603e 07f2 903c
000003d0: 0d9f 91bd f54e 8d3b 4885 9ebe ac39 fdbd
000003e0: ee2f 453e f0e8 2ebd 440e 33be f891 923d
000003f0: c094 9bbd 9035 42bd 4a30 5cbc 3361 003d

mlp.0.weight f4 [128, 128]
0.17535277 -0.07933883 -0.40677086 0.020715859 -0.061703186 -0.31706876 -0.084285796 0.048776723
-0.03610295 -0.12614521 -0.025432661 -0.089448564 -0.38963497 -0.33819142 0.0043190154 0.07329149
0.04973502 -0.08245876 0.00604332 0.0023262966 0.054197926 -0.57431483 -0.000343142 -0.4296661
0.10678693 -0.0885414 -0.04528227 -0.3435351 0.03556797 0.030521393 0.010977017 -0.26313594
-0.25476405 -0.059347972 0.04672349 -0.25671655 -0.14725909 -0.23848778 0.008247803 0.11808406
-0.41193357 -0.09883702 -0.07654886 0.12811218 -0.10968055 -0.14716738 -0.09554574 -0.22354129
0.16582467 0.097655654 0.11949042 -0.25425804 0.07345998 -0.14323726 0.32169637 -0.38039082
-0.49913988 -0.14273925 -0.10213022 0.08405238 -0.010922143 0.13497187 0.07793658 -0.20819728
-0.052399192 -0.05570136 -0.17948802 -0.2656389 -0.029303515 -0.26544553 0.06382671 -0.31984985
0.013913106 0.049856517 -0.26363516 -0.048228785 0.027395893 -0.1809161 -0.1427653 -0.11502345
-0.2062389 0.12028376 -0.2370272 -0.3264339 -0.025616726 -0.26114023 -0.31579646 -0.0886575
0.10019959 0.015837992 -0.13356216 -0.824744 -0.464895 -0.09414322 -0.4989761 -0.2118399
-0.009742714 -0.20386238 0.068224154 -0.26030618 -0.18908104 -0.058364104 -0.03340158 0.06151094
-0.14329575 -0.13763787 -0.25245354 0.17891221 -0.4094456 -0.20891418 -0.117302015 -0.30555183
0.2475512 0.08954592 -0.039067443 -0.06726421 -0.31828955 -0.22146535 -0.24822046 0.0503473
-0.3748284 -0.25829032 -0.06688547 -0.37768376 0.016002052 0.0034723284 -0.12777168 0.009023652
0.082604416 -0.15480351 0.1246274 0.13163146 0.027312914 0.109741606 -0.036472 -0.10166382
0.002164516 -0.09051415 -0.147357 0.09003972 -0.05989367 -0.1928851 0.10562381 -0.079722695
-0.09032587 0.16778308 0.00078086177 0.03867034 0.023401542 -0.020283252 0.07810217 -0.03412028
-0.028038332 0.1151944 -0.0060798754 -0.03056271 -0.33979094 -0.071448565 0.0708468 -0.13907431
-0.0061667073 0.09055933 0.13804735 0.08890477 0.22236815 -0.061683077 0.021456962 0.10134136
-0.009295736 0.06807367 -0.22551818 0.092470236 -0.005800337 -0.28731334 0.14479485 0.031154051
-0.2098357 -0.035560213 0.10165776 0.07209677 0.018533949 -0.012770203 -0.010880968 0.0733873
-0.04573361 0.14401712 -0.0056845807 0.06603483 -0.07298764 0.07624334 -0.016218249 0.31038344
0.0053766714 -0.103246085 -0.05388274 -0.21617764 0.029129827 0.22450843 0.068172984 0.12286643
0.14830214 0.052583266 -0.35034463 0.06732356 0.009773237 -0.012679996 0.06501754 -0.24268125
-0.15997393 0.2877556 -0.012275651 -0.044234168 0.035349324 -0.19360773 -0.3628451 0.028607087
0.011917448 0.14429595 -0.00998968 -0.24200642 -0.017904703 0.09910423 0.002792573 -0.032861784
0.06996478 -0.098708816 -0.10355986 -0.206727 -0.057476174 0.043342557 0.043226555 0.0031899703
-0.09292707 -0.02487831 0.23180686 0.02609106 -0.5828191 -0.021838408 -0.056161962 -0.052446067
-0.020384198 0.009594301 -0.16070509 -0.119907446 0.035175692 -0.0432893 0.09444014 -0.027993927
-0.112557895 0.026330218 0.06720948 -0.2772558 -0.0077723116 0.02953712 0.14927894 -0.0016758571
00000000: ad8f 333e 667c a2bd 4544 d0be 4eb4 a93c
00000010: 7bbc 7cbd d656 a2be 089e acbd 1aca 473d
00000020: b0e0 13bd 362c 01be 2858 d0bc cf30 b7bd
00000030: 3c7e c7be 6d27 adbe 8786 8d3b d919 963d
00000040: f3b6 4b3d 23e0 a8bd 0b07 c63b c874 183b
00000050: a5fe 5d3d 4c06 13bf bde7 b3b9 32fd dbbe
00000060: 1bb3 da3d 3255 b5bd e779 39bd d5e3 afbe
00000070: b8af 113d 0008 fa3c f2d8 333c c1b9 86be
00000080: 6f70 82be dc16 73bd 2161 3f3d 5a70 83be
00000090: 16cb 16be 2436 74be cb21 073c 0ed6 f13d
000000a0: f5e8 d2be 106b cabd a6c5 9cbd d72f 033e
000000b0: 32a0 e0bd 0cb3 16be 7cad c3bd 02e8 64be
000000c0: f1cd 293e b0ff c73d 65b7 f43d 1c2e 82be
000000d0: 3072 963d caac 12be 63b5 a43e 96c2 c2be
000000e0: 438f ffbe 3d2a 12be a629 d1bd a723 ac3d
000000f0: caf2 32bc 1136 0a3e 379d 9f3d ab31 55be
00000100: 89a0 56bd 1c27 64bd b5cb 37be d201 88be
00000110: ed0d f0bc 7ae8 87be 94b7 823d 5cc3 a3be
00000120: ccf3 633c 5936 4c3d 30fb 86be 8c8b 45bd
00000130: 5a6d e03c 1242 39be 1131 12be 6a91 ebbd
00000140: 4a30 53be 5557 f63d 42b7 72be 5822 a7be
00000150: 2bda d1bc 2cb4 85be 13b0 a1be 1092 b5bd
00000160: 7135 cd3d adbe 813c 85c4 08be 6c22 53bf
00000170: b806 eebe 29ce c0bd cc79 ffbe 8fec 58be
00000180: e89f 1fbc 4dc1 50be 1bb9 8b3d da46 85be
00000190: 769e 41be 330f 6fbd 18d0 08bd e5f2 7b3d
000001a0: 1fbc 12be f1f0 0cbe 9741 81be c334 373e
000001b0: dba2 d1be 99ed 55be 0a3c f0bd 4a71 9cbe
000001c0: 107e 7d3e da63 b73d 2f05 20bd d1c1 89bd
000001d0: d9f6 a2be d0c7 62be 812d 7ebe f838 4e3d
000001e0: 82e9 bfbe a13e 84be 40fb 88bd c45f c1be
000001f0: bc16 833c 0190 633b 94d6 02be f1d7 133c
00000200: 812c a93d d084 1ebe a63c ff3d 66ca 063e
00000210: 55bf df3c 35c0 e03d aa63 15bd 1f35 d0bd
00000220: 8dda 0d3b 7c5f b9bd c1e4 16be bf66 b83d
00000230: 1153 75bd ac83 45be 4c51 d83d a745 a3bd
00000240: c5fc b8bd 54cf 2b3e bfb2 4c3a ca64 1e3d
00000250: 97b4 bf3c 1029 a6bc 08f4 9f3d b5c1 0bbd
00000260: a5b0 e5bc 0beb eb3d b139 c7bb a65e fabc
00000270: 14f9 adbe a053 92bd 2118 913d 7f69 0ebe
00000280: 1712 cabb 2c77 b93d 495c 0d3e b413 b63d
00000290: 7ab4 633e 65a7 7cbd 83c6 af3c 0f8c cf3d
000002a0: 254d 18bc 356a 8b3d 3dee 66be 0961 bd3d
000002b0: c110 bebb bc1a 93be 1a45 143e c836 ff3c
000002c0: 2bdf 56be 96a7 11bd f231 d03d 79a7 933d
000002d0: 82d4 973c 1d3a 51bc 1646 32bc 154c 963d
000002e0: 2a53 3bbd 3979 133e b845 babb 453d 873d
000002f0: 8b7a 95bd 7825 9c3d 22dc 84bc 94ea 9e3e
00000300: ca2e b03b af72 d3bd 26b4 5cbd ac5d 5dbe
00000310: ada1 ee3c 8ae5 653e 479e 8b3d 65a1 fb3d
00000320: 84dc 173e 8d61 573d 5f60 b3be efe0 893d
00000330: ed1f 203c c2bf 4fbc ea27 853d 6f81 78be
00000340: 35d0 23be b454 933e d01f 49bc e32e 35bd
00000350: 74ca 103d 1b41 46be d5c6 b9be 6959 ea3c
00000360: 6641 433c 51c2 133e c1ab 23bc 88d0 77be
00000370: e2ac 92bc 29f7 ca3d 9a03 373b 149a 06bd
00000380: b249 8f3d d927 cabd 3117 d4bd 3eb0 53be
00000390: 236c 6bbd f787 313d 540e 313d d20e 513b
000003a0: 8c50 bebd 99cd cbbc c75e 6d3e ebbc d53c
000003b0: a233 15bf 76e6 b2bc 160a 66bd b0d1 56bd
000003c0: c3fc a6bc 6a31 1d3c e08f 24be 0992 f5bd
000003d0: 6314 103d 1f50 31bd d569 c13d 8553 e5bc
000003e0: c184 e6bd 78b2 d73c 20a5 893d 79f4 8dbe
000003f0: e0ae febb d5f7 f13c 94dc 183e 6fa8 dbba

mlp.0.bias f4 [128]
-0.07909952 0.03625609 -0.052482408 -0.08563295 0.0007481781 -0.04748338 -0.08445691 0.024326457
-0.017961461 0.019402074 -0.02271378 0.029536959 -0.071605675 -0.024779065 0.021458268 -0.05115963
-0.0030552768 0.017978488 -0.04477502 -0.014774943 0.016618345 -0.041489534 -0.029024938 0.08884343
0.014744388 -0.025060337 0.034948647 0.075703435 -0.1008734 0.06537303 -0.017088793 -0.052316464
-0.07026164 0.074387446 0.039085094 0.053629346 -0.008536795 0.0594426 -0.022659672 -0.10664501
-0.06786828 -0.037612613 0.050762568 -0.06904867 -0.075735524 -0.013864173 -0.011587058 0.039045144
0.008187519 -0.00086694217 -0.08534554 0.062939666 -0.02326996 -0.06906407 0.06815808 0.08636408
0.07112866 0.001899126 0.024998343 0.07505999 0.051819857 -0.05757214 0.05828063 -0.07160545
0.07926969 0.0664254 0.038388662 -0.018004067 -0.06241619 -0.0054939897 0.021921726 0.050606225
0.0013543229 -0.08776848 0.078907736 0.017603183 0.052536443 -0.06834702 0.007311883 0.01898604
-0.014675525 0.018055905 0.06654957 0.06794307 0.029061466 0.07704632 0.08744837 -0.015314461
-0.077904865 -0.0277935 0.066635534 0.012743064 0.05361383 0.06600853 0.010224141 -0.044271953
0.0032919543 -0.03809614 -0.05833997 0.035181016 -0.09681948 0.07742878 0.017503273 0.007760847
-0.00567647 -0.043814745 -0.0687659 0.015272909 -0.07308988 0.033422105 -0.07763472 -0.021248542
-0.039737 -0.07491333 0.081184186 0.008796723 -0.068217136 -0.03617766 0.02217298 -0.012693896
-0.045962386 0.08176408 -0.035858396 0.059436418 0.022595778 0.038609415 -0.055447046 0.029628318
00000000: eefe a1bd 4481 143d cbf7 56bd 5460 afbd
00000010: 6221 443a ef7d 42bd bff7 acbd 4748 c73c
00000020: ea23 93bc 19f1 9e3c 4012 babc 7ef7 f13c
00000030: ffa5 92bd 77fd cabc 40c9 af3c c38c 51bd
00000040: 0a3b 48bb 9f47 933c 0366 37bd 9a12 72bc
00000050: 3223 883c eef0 29bd b5c5 edbc 8bf3 b53d
00000060: 7292 713c 564b cdbc 5026 0f3d 670a 9b3d
00000070: b796 cebd 4ce2 853d ccfd 8bbc ca49 56bd
00000080: 56e5 8fbd 7258 983d b117 203d 72aa 5b3d
00000090: eadd 0bbc 157a 733d c7a0 b9bc b368 dabd
000000a0: 86fe 8abd af0f 1abd 69ec 4f3d 6469 8dbd
000000b0: 3a1b 9bbd 8e26 63bc a5d7 3dbc cded 1f3d
000000c0: f224 063c 8143 63ba a4c9 aebd 83e6 803d
000000d0: a5a0 bebc 7771 8dbd 7796 8b3d a7df b03d
000000e0: e7ab 913d 18ec f83a 53c9 cc3c 0db9 993d
000000f0: 0f41 543d c4d0 6bbd abb7 6e3d e1a5 92bd
00000100: 2658 a23d 0a0a 883d 6e3d 1d3d 447d 93bc
00000110: 1ea8 7fbd ed06 b4bb 3195 b33c 7948 4f3d
00000120: 8983 b13a f6bf b3bd 619a a13d 8d34 903c
00000130: 7430 573d 86f9 8bbd 8598 ef3b 9d88 9b3c
00000140: 9d71 70bc fae9 933c 244b 883d bc25 8b3d
00000150: 5012 ee3c 76ca 9d3d 2218 b33d 81e9 7abc
00000160: 968c 9fbd 32af e3bc 3678 883d 49c8 503c
00000170: 2d9a 5b3d 7b2f 873d 2883 273c 8256 35bd
00000180: d4bd 573b b30a 1cbd e4f5 6ebd f819 103d
00000190: 4b49 c6bd fb92 9e3d 0663 8f3c b44e fe3b
000001a0: af01 babb 1777 33bd 23d5 8cbd 393b 7a3c
000001b0: 26b0 95bd 9ee5 083d f4fe 9ebd 6c11 aebc
000001c0: 44c3 22bd 296c 99bd e543 a63d 2120 103c
000001d0: 6db5 8bbd 072f 14bd 1ca4 b53c 0ffa 4fbc
000001e0: 0e43 3cbd ed73 a73d 41e0 12bd 9a73 733d
000001f0: c81a b93c e824 1e3d 711c 63bd 16b7 f23c
