graph-neural-networks/zinc_models/MPNN_max.pth (torch, 806264 bytes, 14 tensors)

layer.nnet.0.weight f4 [3, 3]
0	0x3ecc9ebd	0.39964858
1	0xbec4a7d5	-0.38409296
2	0xbf0e5866	-0.55603635
3	0xbdbae598	-0.09125823
4	0xbeb6408a	-0.35596114
5	0xbe844aba	-0.25838262
6	0x3f26dab5	0.6517747
7	0x3b51dcab	0.0032022397
8	0x3ea1da44	0.31611836

layer.nnet.0.bias f4 [3]
0	0xbeb53013	-0.3538824
1	0xbed9a9ef	-0.42512462
2	0xbcb5748a	-0.022150297

layer.nnet.2.weight f4 [16384, 3]
0	0xbf1162b5	-0.5679124
1	0x3e36d445	0.17854412
2	0xbf489aed	-0.783614
3	0x3e18b771	0.14913727
4	0x3e84cdd2	0.25938278
5	0xbefc9cad	-0.49338284
6	0x3d8b43e3	0.06800058
7	0x3d6de5f0	0.058080614
8	0x3f2600ab	0.6484477
9	0xbe6b45a2	-0.22975782
10	0xbd8119f2	-0.06303777
11	0x3ee96e88	0.4559214
12	0xbd7f8940	-0.06238675
13	0xbebc2861	-0.36749557
14	0xbeb61b6f	-0.35567805
15	0xbd8167ff	-0.06318664
16	0x3e973aef	0.2953715
17	0x3ec11982	0.37714773
18	0x3ebd529c	0.36977088
19	0x3edf653e	0.4363193
20	0x3c2a8f26	0.010410106
21	0xbe7169b4	-0.23575479
22	0x3c208a64	0.00979862
23	0xbf0a7aad	-0.5409344
24	0x3dee92e6	0.116491124
25	0x3c89da1a	0.016827632
26	0xbe83edd8	-0.25767398
27	0x3ce72662	0.028216545
28	0xbf0b4f82	-0.54418194
29	0x3d6b9337	0.057513442
30	0x3ce4f39b	0.027948191
31	0xbe082b2a	-0.13297716
32	0x3dc6a10a	0.096986845
33	0xbda6a155	-0.081362404
34	0x3ee3dd7a	0.4450491
35	0x3e60ebfe	0.21965024
36	0x3e22ca99	0.15897597
37	0xbf02d807	-0.5111088
38	0x3ec8f544	0.39249623
39	0xbe86daea	-0.26338893
40	0x3f12f80b	0.57409734
41	0xbe9d7f55	-0.3076121
42	0x3ec3e02a	0.3825696
43	0x3e405465	0.18782194
44	0xbe75d075	-0.24005301
45	0x3ebeffeb	0.37304625
46	0xbd8922d4	-0.06696096
47	0xbcefed5f	-0.029287992
48	0xbf27d9a0	-0.65566444
49	0xbf066425	-0.5249656
50	0x3d00d008	0.031448394
51	0xbd8ab139	-0.06772084
52	0xbecdcfe9	-0.40197685
53	0xbeabffc8	-0.33593583
54	0x3e07834f	0.13233684
55	0x3f095600	0.5364685
56	0x3f1129c5	0.5670436
57	0xbf2a6d4d	-0.6657303
58	0xbdc4165e	-0.09574579
59	0xbe24ddd9	-0.16100253
60	0x3dae5b4a	0.08513506
61	0x3a9c1791	0.0011908879
62	0xbef09b15	-0.46993318
63	0xbdabe1cf	-0.08392679
64	0x3eac4ab6	0.3365075
65	0x3e50e91b	0.20401423
66	0x3e5143b8	0.20435989
67	0x3cedcdfa	0.029028881
68	0x3cf47431	0.02984056
69	0xbc845932	-0.016155813
70	0x3d843835	0.06456033
71	0xbeb88478	-0.36038566
72	0xbd84ce92	-0.06484713
73	0x3d8cbce5	0.06871966
74	0xbd5f3b72	-0.05450005
75	0xbe31eaef	-0.17374776
76	0x3eb38a9a	0.35066682
77	0xbeb18a36	-0.3467576
78	0x3ed79a4b	0.42109904
79	0xbe8bfd39	-0.2734163
80	0x3f01fac7	0.5077328
81	0xbf167f87	-0.5878834
82	0xbf0c5d5a	-0.54829943
83	0xbeeab1db	-0.45838818
84	0xbe13af63	-0.14422373
85	0xbe26535d	-0.16242738
86	0xbd92cab1	-0.071675666
87	0xbf245211	-0.64187723
88	0xbe192f78	-0.14959514
89	0xbf06b7c9	-0.52624184
90	0xbe5361b2	-0.20642737
91	0x3f0a730f	0.54081815
92	0x3e98323d	0.2972583
93	0xbd1644b2	-0.036686607
94	0x3ce85939	0.028362857
95	0x3d5d7b32	0.054072566
96	0x3edf693c	0.43634975
97	0xbee07b81	-0.43844226
98	0xbe9301f6	-0.28712434
99	0x3ec87f10	0.3915944
100	0xbbd82d55	-0.006597201
101	0xbe355584	-0.17708403
102	0x3e553604	0.20821387
103	0xbea99c85	-0.33127227
104	0xbe4320a0	-0.19055414
105	0x3e0b0512	0.13576153
106	0xbe19edec	-0.15032166
107	0x3eec62cf	0.46169135
108	0xbce52d05	-0.027975569
109	0x3e824474	0.2544285
110	0xbf04bbbf	-0.5184898
111	0xbdca175a	-0.09867735
112	0xbd8dfba0	-0.06932759
113	0xbda89954	-0.0823237
114	0xbe87b94c	-0.26508558
115	0x3ef2dea2	0.4743548
116	0x3b9f5e47	0.0048635337
117	0xbe83fe71	-0.2578006
118	0xbea86433	-0.32888946
119	0x3e33e49b	0.17567675
120	0xbe9916fd	-0.2990035
121	0xbe1e8044	-0.15478617
122	0xbd455059	-0.04817233
123	0x3ef2bac4	0.47408116
124	0x3e88ce62	0.26719958
125	0xbe0aa17c	-0.13538164
126	0x3eebfb53	0.46090183
127	0xbc3405d4	-0.010987718
128	0xbee8984b	-0.4542869
129	0x3e2ab20f	0.16669486
130	0xbe8d6ffd	-0.27624503
131	0xbf099d0b	-0.53755254
132	0x3ed916cc	0.42400205
133	0xbdde060a	-0.108409956
134	0x3cc3f12a	0.023918707
135	0x3ea8be2c	0.3295759
136	0x3ef060ca	0.46948844
137	0x3e505119	0.20343436
138	0x3f079a0c	0.5296943
139	0x3e5822d5	0.21107037
140	0xbeda1dd7	-0.4260089
141	0x3eeb66a0	0.45976734
142	0x3ec76fcc	0.38952482
143	0x3ec2a88d	0.3801922
144	0xbe24aa3c	-0.16080564
145	0xbeb429b7	-0.35188076
146	0x3e66cda0	0.22539377
147	0x3ea727e7	0.3264763
148	0x3d459390	0.04823643
149	0xbea1268b	-0.31474718
150	0xbe2ef5e9	-0.17085995
151	0xbc825718	-0.01591067
152	0xbf0cad0c	-0.5495155
153	0x3e20f8ca	0.15719905
154	0xbec18455	-0.37796274
155	0xbe6b50f2	-0.22980097
156	0x3eaf4062	0.34228808
157	0x3edb5b17	0.42842934
158	0xbd4164d1	-0.047215287
159	0xbeb430ae	-0.3519339
160	0xbea0784d	-0.31341782
161	0x3f04a20e	0.51809776
162	0x3e337c48	0.17527878
163	0x3eb10f41	0.3458195
164	0xbeed5ec7	-0.46361372
165	0xbea73c94	-0.32663405
166	0xbd7ac349	-0.061221395
167	0x3ed65055	0.41858163
168	0x3a8c23c8	0.0010691816
169	0x3eac4cad	0.3365225
170	0xbeccc40c	-0.39993322
171	0x3e03bc31	0.12864758
172	0xbebe9df6	-0.3722989
173	0x3eaed023	0.3414317
174	0xbe17a450	-0.14808774
175	0xbed216e9	-0.41033104
176	0x3eaad3f2	0.33364826
177	0xbf0e1b6c	-0.5551059
178	0xbf0ebf0b	-0.5576026
179	0xbf0d0761	-0.55089384
180	0x3eea7973	0.45795783
181	0x3eaf78eb	0.3427194
182	0x3d233bd7	0.03985199
183	0x3e2f56f6	0.17123017
184	0x3c1e9e33	0.009681272
185	0xbe2db3be	-0.16963097
186	0x3eb817c7	0.3595564
187	0x3e24a4c1	0.16078474
188	0x3cf64c0c	0.030065559
189	0xbd4b8231	-0.049684707
190	0x3d21a762	0.03946627
191	0x3e65600c	0.2239992
192	0xbef68d34	-0.48154604
193	0xbe08a152	-0.13342789
194	0x3e637835	0.22213824
195	0xbdb1f939	-0.086901136
196	0x3e8c3918	0.2738731
197	0x3e75aea2	0.23992398
198	0xbdb02cff	-0.08602332
199	0x3e94fdae	0.29099792
200	0x3ece4202	0.40284735
201	0xbe085886	-0.13315019
202	0xbee972e8	-0.4559548
203	0xbf056f57	-0.52123016
204	0x3e99366b	0.2992433
205	0xbdaa03e9	-0.08301527
206	0x3da152d7	0.078771286
207	0x3ecdb198	0.40174556
208	0xbd9c4e73	-0.076321505
209	0x3e33e324	0.17567116
210	0xbed0bde4	-0.40769875
211	0xbee059eb	-0.43818602
212	0xbf3ce102	-0.73780835
213	0x3ef3b476	0.47598618
214	0xbc098078	-0.008392446
215	0x3e18d999	0.14926757
216	0xbec88f8b	-0.39172015
217	0x3e613c70	0.21995711
218	0xbeea8219	-0.45802382
219	0xbe2244dd	-0.15846582
220	0xbece9059	-0.40344504
221	0xbee8f759	-0.4550121
222	0x3e966b5d	0.29378787
223	0xbe9f6aef	-0.3113627
224	0x3e8b4ca5	0.27206913
225	0xbe4ec796	-0.20193323
226	0x3ea5e6b7	0.32402584
227	0x3e049479	0.12947263
228	0x3d8e97f0	0.069625735
229	0xbefd3ca1	-0.4946032
230	0x3db6f7b0	0.089339614
231	0x3c1ac643	0.009446683
232	0xbdc6f0a5	-0.09713868
233	0x3c396db1	0.011317656
234	0xbf174509	-0.59089714
235	0xbe9d94d5	-0.30777612
236	0xbdf6acf3	-0.12044706
237	0x3c35578f	0.011068239
238	0xbeac482d	-0.33648816
239	0x3cfc895d	0.030827219
240	0x3e2047d1	0.15652396
241	0xbea2d0ed	-0.31800023
242	0xbe4a66b6	-0.19765744
243	0x3e9c2c0c	0.30502355
244	0xbe670ba4	-0.22563034
245	0xbe808e21	-0.25108436
246	0xbeb6a56b	-0.3567308
247	0xbee11baa	-0.43966419
248	0xb9656c4b	-0.00021879484
249	0xbe177971	-0.1479242
250	0x3e6481ff	0.22315215
251	0x3d81533d	0.063147046
252	0x3ed0c4ce	0.4077515
253	0x3f0352dc	0.5129831
254	0x3eef3900	0.46723175
255	0xbe772b58	-0.24137628

layer.nnet.2.bias f4 [16384]
0	0x3e9f0643	0.31059465
1	0x3edd6af6	0.43245667
2	0xbeaeb8f6	-0.3412549
3	0x3ebd9ece	0.3703522
4	0x3e8b205d	0.2717313
5	0xbe5f5da2	-0.21813062
6	0xbdaf9636	-0.08573572
7	0xbe585c00	-0.21128845
8	0x3e37b71b	0.17940943
9	0xbf0ac045	-0.5419963
10	0x3cae86af	0.021304457
11	0xbee356b9	-0.44402102
12	0xbf0d6cb7	-0.5524401
13	0x3e1afa69	0.15134586
14	0xbedbbbfc	-0.42916858
15	0xbeb7a782	-0.35869986
16	0x3e3e3789	0.18575872
17	0xbf2e0c4e	-0.67987525
18	0x3eb2722c	0.3485273
19	0x3d4c7848	0.049919397
20	0x3ecfd45e	0.4059171
21	0x3ee5ab77	0.4485738
22	0xbe0ce6a9	-0.13759865
23	0x3ec49e82	0.38402182
24	0xbd668336	-0.056277476
25	0x3ed5421a	0.41651994
26	0xbe34528a	-0.17609611
27	0x3d16ead8	0.03684506
28	0xbc027b51	-0.007963971
29	0xbdcca2ac	-0.09991965
30	0x3ec87708	0.39153314
31	0xbe057130	-0.13031459
32	0x3f02cab6	0.5109056
33	0x3e9c127a	0.30482846
34	0xbda3ee51	-0.080044396
35	0x3dd89a2e	0.105762824
36	0xbe9806bf	-0.29692647
37	0x3ed02b1b	0.40657887
38	0xbe071af0	-0.1319387
39	0xbf113d71	-0.5673438
40	0xbef5281b	-0.4788216
41	0xbe551676	-0.2080935
42	0x3e826e09	0.25474575
43	0xbedded28	-0.43344998
44	0xbec5f4c9	-0.3866332
45	0xbdff47f3	-0.12464895
46	0xbdf7502d	-0.12075839
47	0x3e0cf1b3	0.13764076
48	0xbe28413c	-0.16431135
49	0x3d85edc2	0.06539489
50	0xbe90a003	-0.2824708
51	0xbddff2fc	-0.109350175
52	0xbe4c5c8d	-0.1995718
53	0xbe3280c5	-0.17431934
54	0xbe4cd962	-0.200048
55	0xbf08c0e6	-0.5341934
56	0x3e95a4fc	0.29227436
57	0xbe83baef	-0.25728557
58	0xbdf5bbae	-0.11998688
59	0xbe30559b	-0.17220156
60	0x3ebc4811	0.36773732
61	0xbdf69bbd	-0.120414235
62	0x3f0196ec	0.50620914
63	0xbf01bc0a	-0.5067755
64	0xbec37d36	-0.38181466
65	0xbe817106	-0.25281543
66	0x3eae23a8	0.3401158
67	0xbea7c6f9	-0.32768992
68	0xbd23bff2	-0.039977975
69	0x3e1c34c0	0.15254498
70	0xbe9e6014	-0.30932677
71	0x3ea2de6d	0.31810322
72	0x3eb516c0	0.3536892
73	0xbecac4b6	-0.39603204
74	0x3ce15731	0.027507396
75	0xbe8c8ca2	-0.27451044
76	0x3e778b2d	0.24174185
77	0x3e61b962	0.22043374
78	0x3eaf02ac	0.34181726
79	0x3f13a6fb	0.57676667
80	0xbdc9d2a6	-0.09854631
81	0x3ebec822	0.37262064
82	0x3e8320f8	0.2561109
83	0xbeee3304	-0.46523297
84	0x3f173415	0.59063846
85	0x3ef42cb7	0.47690365
86	0xbec8d0f6	-0.39221925
87	0xbd399e08	-0.045316726
88	0xbe9c0c5c	-0.3047818
89	0xbea3387e	-0.31879038
90	0x3ecf0c29	0.40438965
91	0xbe6e0385	-0.2324353
92	0x3e87fb9e	0.26559156
93	0xbe33bb02	-0.17551807
94	0x3eb9dcfe	0.36301416
95	0xbf03ef6c	-0.51537204
96	0xbe905c53	-0.28195438
97	0x3e921098	0.28528285
98	0x3c70cc85	0.014697199
99	0x3ec11b6a	0.37716228
100	0xbec06e8e	-0.37584347
101	0xbe3c5ffc	-0.1839599
102	0x3eed9cf8	0.4640882
103	0xbf13e179	-0.5776592
104	0x3d240dcd	0.040052224
105	0xbeb7cd30	-0.35898733
106	0xbf08ad08	-0.53389025
107	0x3df3abc2	0.118979946
108	0xbef7df86	-0.48412722
109	0x3da9b486	0.08286385
110	0xbf02f7bb	-0.51159257
111	0xbe62a532	-0.2213333
112	0x3de605be	0.11231564
113	0xbec0bf10	-0.3764577
114	0x3ea0d58b	0.3141292
115	0x3df8b87a	0.12144561
116	0xbe84390f	-0.25824782
117	0xbd1d0bab	-0.038341206
118	0x3dec3346	0.11533217
119	0xbe4f0bde	-0.2021937
120	0xbeaa5c72	-0.33273655
121	0x3ed9ae5f	0.42515847
122	0x3b870fbb	0.0041217483
123	0xbed77f28	-0.420892
124	0x3ef915c1	0.4864941
125	0x3f0011eb	0.5002734
126	0xbe052db4	-0.13005716
127	0x3ed8e35b	0.42360958
128	0xbeb4f462	-0.353427
129	0x3e138def	0.14409612
130	0xbecd5fe4	-0.4011222
131	0x3e41a49f	0.18910454
132	0xbe86e87e	-0.26349252
133	0xbeb073c8	-0.34463334
134	0x3bb1ad85	0.0054222965
135	0x3e8fe421	0.28103736
136	0x3e407bff	0.18797301
137	0xbe24d2b0	-0.16095996
138	0xbf04c83f	-0.5186805
139	0x3e4aa69a	0.19790116
140	0x3ea18a73	0.3155094
141	0x3eea1ebc	0.45726573
142	0xbe2261aa	-0.15857568
143	0x3ebc5680	0.36784744
144	0xbc334331	-0.010941313
145	0x3e0e060a	0.13869491
146	0xbf07bfb4	-0.5302689
147	0x3ea4545a	0.32095605
148	0xbdd3f3e3	-0.10349252
149	0xbeec768f	-0.46184203
150	0xbeedc6b4	-0.4644066
151	0xbbe1f31d	-0.0068954364
152	0xbe43b380	-0.19111443
153	0xbea117fd	-0.31463614
154	0xbe42b085	-0.1901265
155	0xbe95dff4	-0.29272425
156	0xbebc96b4	-0.36833727
157	0x3d154afe	0.03644847
158	0xbe9c11e1	-0.3048239
159	0xbd402b71	-0.04691643
160	0x3ee8f5dc	0.45500076
161	0xbe37d9c6	-0.17954168
162	0xbe4c04b9	-0.19923677
163	0xbef13937	-0.47113964
164	0xbe71bf3b	-0.23608105
165	0x3e437df9	0.19091024
166	0x3f0b73b1	0.54473406
167	0xbe81b7d1	-0.25335553
168	0x3ee6be7a	0.45067197
169	0x3dd700ec	0.10498223
170	0xbe01c2b4	-0.1267193
171	0xbd22924c	-0.0396903
172	0xbf06a3a2	-0.52593434
173	0xbe9d0e06	-0.30674762
174	0x3f07e666	0.53085935
175	0x3f07f2ee	0.53105056
176	0x3e697ae2	0.22800782
177	0x3e93aaa8	0.28841138
178	0xbf0f77ac	-0.5604198
179	0xbdac3ce5	-0.08410052
180	0xbe3c7fa9	-0.18408073
181	0x3ee47e79	0.4462774
182	0x3f01230b	0.50444096
183	0xbe057d1c	-0.13036007
184	0xbe2b442f	-0.16725229
185	0x3edb3bd5	0.42819086
186	0xbdd7f706	-0.10545163
187	0x3f0a3523	0.5398733
188	0x3e52ce0a	0.2058641
189	0xbe954c33	-0.29159698
190	0xbf177e09	-0.5917669
191	0x3ee93578	0.45548606
192	0x3e859c83	0.2609597
193	0xbeac8f07	-0.3370287
194	0xbf1e6497	-0.6187224
195	0xbf018865	-0.50598747
196	0x3c1d5373	0.009602415
197	0xbf1443dc	-0.57916045
198	0x3e9790f4	0.29602778
199	0xbea91628	-0.33024716
200	0x3e1dfc6c	0.15428323
201	0x3f0a36c8	0.5398984
202	0xbd0f6a9c	-0.03501378
203	0x3eeca898	0.46222377
204	0x3e53fa4d	0.20700951
205	0xbee950f7	-0.45569584
206	0xbc8b6dd7	-0.01702015
207	0x3e82ba7d	0.25532904
208	0x3ed58497	0.4170272
209	0x3d952973	0.072832964
210	0xbdd0f2f7	-0.10202592
211	0x3e7209ec	0.23636597
212	0x3eef71c3	0.4676648
213	0xbf03b19f	-0.51442903
214	0x3db5ec66	0.0888298
215	0xbeeaaa9d	-0.45833293
216	0x3beba8cb	0.0071917525
217	0x3edead2f	0.43491504
218	0x3e9fb6af	0.31194064
219	0xbe94ba45	-0.29048362
220	0x3e826f2a	0.25475436
221	0x3e85b855	0.26117197
222	0x3e130663	0.14357905
223	0x3eb84f65	0.35998073
224	0x3d72c9e5	0.059274573
225	0xbeead482	-0.45865256
226	0x3eb592f7	0.35463688
227	0x3e17847f	0.14796637
228	0xbef73327	-0.48281214
229	0xbe001b4e	-0.12510416
230	0xbd8b2050	-0.067932725
231	0xbec66c3c	-0.3875445
232	0xbefd8393	-0.49514446
233	0xbe052efa	-0.13006201
234	0xbf0b2b95	-0.54363376
235	0x3ee7327d	0.45155707
236	0xbe9fa0ad	-0.31177273
237	0x3dbb59a3	0.09147956
238	0x3dc76798	0.09736556
239	0x3e975d57	0.295634
240	0xbef13754	-0.47112525
241	0x3d13c1d4	0.03607352
242	0xbe2eed21	-0.17082645
243	0x3e21ba08	0.15793622
244	0x3f12404f	0.5712938
245	0x3aa9bbf1	0.0012949688
246	0x3f032bc7	0.51238674
247	0xbdf17eac	-0.11791739
248	0xbe23b9db	-0.15988867
249	0xbedb0060	-0.42773724
250	0x3e0a33ff	0.13496397
251	0x3ed720f3	0.42017326
252	0xbe170d81	-0.14751245
253	0xbda62b0d	-0.0811368
254	0xbec2643b	-0.37967095
255	0x3c8de025	0.017318795

layer.gru_unit.weight_ih f4 [384, 128]
0	0xbe3a7242	-0.18207648
1	0xbe8f2ce5	-0.2796394
2	0x3e30a422	0.17250112
3	0xbe628ade	-0.22123286
4	0x3dc91d5c	0.09820053
5	0xbd4fa365	-0.050692935
6	0xbcfb9b29	-0.030713635
7	0xbe8d1f1f	-0.27562806
8	0xbc5df9e1	-0.013548345
9	0x3eac0f1f	0.33605286
10	0x3c58e050	0.013237074
11	0xbe8269ab	-0.25471243
12	0xbd1b8a5d	-0.03797375
13	0xbe08af6b	-0.13348167
14	0x3c880af4	0.016606785
15	0x3caf2e6d	0.021384442
16	0xbd3423dc	-0.04397951
17	0xbd27a962	-0.04093302
18	0x3d4065a5	0.046971936
19	0xbb81b5ab	-0.003958424
20	0xbd495bd2	-0.049159832
21	0x3eb9cb60	0.36287975
22	0xbd958965	-0.073015966
23	0xbe3a7267	-0.18207704
24	0x3ca50af2	0.02014682
25	0x3df02fda	0.11727877
26	0xbd80f8e9	-0.06297476
27	0x3e1d0aee	0.153362
28	0x3ea8a5da	0.32939035
29	0x3d8712c1	0.06595374
30	0xbd0cb15d	-0.034348834
31	0xbd6efc43	-0.058346044
32	0x3d2f9d1c	0.04287444
33	0x3e0f591c	0.13998836
34	0x3e36e21e	0.17859694
35	0x3dc653bb	0.09683939
36	0x3e51b2c7	0.20478354
37	0xbd6d21a5	-0.057893414
38	0x3d85b771	0.06529129
39	0x3e423a3c	0.18967527
40	0x3b2c7bbd	0.002631887
41	0x3e2794d4	0.16365367
42	0x3cf84028	0.03030403
43	0x3e0195be	0.12654778
44	0x3d64bd6c	0.05584471
45	0x3d13a38c	0.036044642
46	0x3e6f8bc7	0.23393165
47	0x3e4bada5	0.19890459
48	0xbe90dd0d	-0.28293648
49	0x3e70e47e	0.23524663
50	0x3e1de591	0.15419604
51	0x3da5244b	0.08063563
52	0xbd65a1dd	-0.056062568
53	0x3ed21b47	0.41036436
54	0xbd597fe3	-0.053100478
55	0xbd9b2106	-0.07574658
56	0xbe1e046d	-0.15431376
57	0xbe0992b7	-0.13434874
58	0xbdafc8ed	-0.085832454
59	0xbcccdcd9	-0.025007652
60	0xbd538272	-0.051638074
61	0x3db2d3b7	0.08731788
62	0xbce7f0c1	-0.028313043
63	0x3ca60675	0.02026675
64	0x3b695dbd	0.003560885
65	0xbe4b43e2	-0.19850114
66	0xbdcb3b8c	-0.09923467
67	0xbe598f2e	-0.21246025
68	0x3ea08fe4	0.3135978
69	0xbd0dee7d	-0.03465127
70	0x3bce9704	0.0063046236
71	0xbc19e3e0	-0.009392709
72	0xbdce6fd5	-0.10079924
73	0xbc079463	-0.008275124
74	0xbe108067	-0.14111482
75	0x3ca22994	0.019795217
76	0x3d2e0953	0.04248936
77	0x3db87edb	0.09008571
78	0xbe2c6faf	-0.16839479
79	0x3d87c4cd	0.06629334
80	0xbd5f1239	-0.054460738
81	0xbed09808	-0.4074099
82	0xbcbda6ab	-0.023150763
83	0x3df6a83b	0.12043806
84	0x3e01e646	0.12685499
85	0x3d2635d0	0.040578663
86	0xbdcb390f	-0.099229924
87	0xbd566adf	-0.052348014
88	0x3e499796	0.19686732
89	0xbad9cf3b	-0.0016617546
90	0xbe226df5	-0.15862258
91	0xbe554e50	-0.20830655
92	0xbc845a5b	-0.016156366
93	0xbdb51cc3	-0.088433765
94	0x3d29aead	0.04142635
95	0x3d51ec8f	0.05125099
96	0x3d8890f9	0.06668276
97	0xbe86b45b	-0.26309475
98	0xbd7f0511	-0.06226069
99	0xbe48c6d9	-0.19607104
100	0x3e0b8916	0.13626513
101	0x3d5dd611	0.054159228
102	0x3dacbc16	0.08434312
103	0x3e1cdb52	0.15318039
104	0x3de2983d	0.110641934
105	0xbdb7728b	-0.08957394
106	0x3e99b2e0	0.30019283
107	0x3db05189	0.086093016
108	0xbe6dc4ad	-0.23219557
109	0x3e0470db	0.12933676
110	0xbe7ac8e7	-0.244907
111	0x3e395e25	0.1810232
112	0x3e1651b1	0.146796
113	0xbd8db7fe	-0.06919859
114	0x3e6110a0	0.21978998
115	0xbd6252d5	-0.055254776
116	0x3d60aa0c	0.05484967
117	0x3d38d1ea	0.045122065
118	0x3c3f3cec	0.01167224
119	0x3ea2d8ff	0.3180618
120	0xbe8a724f	-0.27040336
121	0xbe3eb67a	-0.18624297
122	0xbd846950	-0.06465399
123	0x3e297e68	0.16552126
124	0x3e71278f	0.23550247
125	0xbab3ee66	-0.0013727664
126	0xbe5ec9d2	-0.21756676
127	0xbdf71bd5	-0.120658554
128	0x3d71b436	0.059009753
129	0xbd631e1e	-0.055448644
130	0x3daa2d5b	0.08309432
131	0xbe632056	-0.22180304
132	0x3da0ed4c	0.07857761
133	0x3e50963b	0.20369808
134	0xbe01e19c	-0.1268372
135	0x3e6c61c4	0.2308417
136	0x3e29559c	0.16536564
137	0xbdb35dd1	-0.087581284
138	0x3e28702b	0.16449039
139	0xbd473b64	-0.048640624
140	0x3e483f65	0.19555433
141	0x3da51f5a	0.080626205
142	0xbdbb3d4d	-0.091425516
143	0x3c7e2d72	0.015513765
144	0x3e2dc910	0.1697123
145	0x3d6759ee	0.056482248
146	0xbe19dad6	-0.15024886
147	0xbda5a7bb	-0.08088633
148	0xbe0afa17	-0.13571964
149	0xbc771a5e	-0.01508197
150	0xbd9f2aed	-0.07771859
151	0xbdadf5b7	-0.08494132
152	0x3d0f1d3e	0.034939997
153	0x3dfc616f	0.123232715
154	0x3d34c417	0.04413232
155	0xbe1401d9	-0.1445383
156	0x3d55e535	0.052220542
157	0x3e4bcc58	0.1990217
158	0x3da916d7	0.082563095
159	0x3d8d55ce	0.069011316
160	0x3e9737fd	0.29534903
161	0x3e931714	0.28728545
162	0xbc8adf2d	-0.016952122
163	0x3dca9e52	0.098934785
164	0x3e9b6a58	0.3035457
165	0xbe18e860	-0.14932394
166	0xbdea39ca	-0.11436804
167	0x3d68efe2	0.056869395
168	0xbdaa0c66	-0.08303146
169	0x3e3aac41	0.18229772
170	0xbe316682	-0.1732426
171	0x3aea3e93	0.0017871432
172	0x3e0bdedc	0.13659233
173	0x3d2d990a	0.042382278
174	0xbe85c82e	-0.26129287
175	0x3bec225c	0.0072062444
176	0x3e215f9d	0.1575913
177	0x3e02b5b1	0.12764622
178	0x3d845e30	0.06463277
179	0xbda7f618	-0.082012355
180	0xbe9c04ec	-0.30472505
181	0x3b8a80d0	0.0042267814
182	0x3d4975b0	0.0491845
183	0xbe24797a	-0.16061965
184	0x3e316e85	0.17327316
185	0xb921e77f	-0.00015440396
186	0x3e86f62d	0.26359692
187	0x3db1e9f6	0.08687203
188	0x3dbc7982	0.09202863
189	0xbe5bc347	-0.21461211
190	0xbe2083e0	-0.15675306
191	0xbd3ec99c	-0.04657899
192	0xbe434beb	-0.19071929
193	0x3df23865	0.11827163
194	0x3e5a8930	0.21341395
195	0x3e40f361	0.18842842
196	0xbd43e4ca	-0.047825612
197	0x3d962e56	0.07333057
198	0xbd63591e	-0.05550491
199	0x3e7e3ddd	0.24828286
200	0xbd7254aa	-0.059162773
201	0xbe7fd903	-0.24985127
202	0x3d05cf11	0.032668177
203	0x3e0a5f4e	0.13512918
204	0x3b0c25c0	0.0021384805
205	0xbd5acaf8	-0.053416222
206	0x3d40e199	0.047090147
207	0xbd27fbe9	-0.041011725
208	0xbdf9111f	-0.12161469
209	0xbdf7c7c5	-0.1209865
210	0xbc901b2a	-0.017591078
211	0xbd8b02db	-0.06787654
212	0xbd823e35	-0.06359521
213	0x3d0b574f	0.03401881
214	0xbdb6e638	-0.089306295
215	0x3e74d3e1	0.2390895
216	0x3d5e7a4f	0.05431586
217	0x3dd23f6e	0.102660045
218	0xba9f3dab	-0.0012149116
219	0x3e4faea2	0.20281461
220	0x3e7dca99	0.24784316
221	0xbd8d9161	-0.069124945
222	0xbe325959	-0.17416896
223	0x3e5bb8bc	0.2145719
224	0x3f2ba452	0.6704761
225	0x3defaebf	0.11703252
226	0x3e79a108	0.24377835
227	0x3dd9f79f	0.10642933
228	0xbe1873ad	-0.14887877
229	0xbe1fbfc7	-0.15600501
230	0x3da5a84b	0.0808874
231	0xbd8a94c6	-0.067666575
232	0x3e413803	0.18869023
233	0xbe55abd8	-0.20866334
234	0xbb6807b8	-0.0035404991
235	0xbdff2514	-0.12458244
236	0x3ec102fb	0.37697586
237	0xbd990e17	-0.074733905
238	0x3c9731d2	0.018456373
239	0xba29dec1	-0.00064800313
240	0x3e2e7f09	0.17040648
241	0x3cddc48d	0.027071262
242	0xbcd2f42e	-0.0257512
243	0xbdce1668	-0.100628674
244	0x3d00af9b	0.03141747
245	0x3cd1e085	0.025619755
246	0x3b46f7c6	0.0030360087
247	0xbe44a06f	-0.19201826
248	0xbdbd1455	-0.09232394
249	0xbe0cbe90	-0.13744569
250	0xbda4cf7d	-0.08047388
251	0xbe7025b9	-0.2345189
252	0x3e003520	0.12520266
253	0xbe85f3c9	-0.26162556
254	0x3c1b8409	0.009491929
255	0xbd912139	-0.07086415

layer.gru_unit.weight_hh f4 [384, 128]
0	0x3b267b2d	0.0025403008
1	0x3c529511	0.012852923
2	0x3d873d07	0.06603437
3	0xbc02903e	-0.00796896
4	0x3e1222df	0.14271115
5	0xbe38bcce	-0.18040773
6	0xbc51006c	-0.012756448
7	0xbd8139b9	-0.06309838
8	0xbdb9a36c	-0.090643734
9	0x3e06b0ac	0.13153332
10	0xbd62349d	-0.055225957
11	0x3c6207c6	0.013795799
12	0x3deffb6c	0.11717877
13	0xbbe96495	-0.007122586
14	0xbb54e922	-0.003248759
15	0x3db7cb81	0.08974362
16	0x3e128a4b	0.14310567
17	0xbcaa88e3	-0.020817226
18	0x3d2f9ee6	0.042876147
19	0xbe2715f8	-0.16316974
20	0xbe2bd6db	-0.1678118
21	0xbe0331a1	-0.128119
22	0xbdd37db8	-0.10326713
23	0x3e848411	0.2588201
24	0x3c92fb47	0.017942084
25	0x3db80d70	0.08986938
26	0xbdf27295	-0.11838261
27	0xbbb8e378	-0.0056423508
28	0xbea14a65	-0.3150207
29	0xbd19e5e3	-0.037572753
30	0xbe0a15a8	-0.13484824
31	0xbcd6a0a2	-0.026199643
32	0x3d09b44f	0.03361922
33	0x3e631dc8	0.2217933
34	0x3e26e76b	0.16299216
35	0xbdd58da1	-0.10427404
36	0x3e811b8d	0.25216332
37	0xbdccdb44	-0.10002759
38	0xbd8f3f99	-0.06994552
39	0xbbe59bec	-0.0070071127
40	0xbe0c8400	-0.13722229
41	0x3d741008	0.0595856
42	0x3c3c95fe	0.01151037
43	0xbda9400b	-0.08264168
44	0x3dd009a4	0.10158089
45	0xbcb524c7	-0.022112263
46	0xbda2476a	-0.079237774
47	0xbd0432f4	-0.032275155
48	0x3ea7ff19	0.32811812
49	0xbd9350bd	-0.07193134
50	0x3d3e0fba	0.046401717
51	0xbe71e5c5	-0.23622806
52	0xbc9e684b	-0.01933684
53	0x3e7ff129	0.24994339
54	0x3d428428	0.047489315
55	0x3c582db7	0.013194493
56	0x3ddfc0a3	0.109254144
57	0xbe8cce08	-0.2750094
58	0xbeb5b9f6	-0.3549344
59	0x3e53b23f	0.20673464
60	0xbc2e1f7b	-0.010627623
61	0xbcc9e107	-0.024643434
62	0xbb4166cc	-0.0029510735
63	0xbe1b29db	-0.15152685
64	0x3dd0ddb2	0.10198535
65	0x3ea501df	0.3222799
66	0xbcf31ad0	-0.029675871
67	0x3c775460	0.0150958
68	0xbd8cb628	-0.06870681
69	0xbdffa25f	-0.12482142
70	0xbdc0c8c2	-0.094132915
71	0xbd97db8b	-0.074149214
72	0xbe24f2fc	-0.16108316
73	0xbd9b1d52	-0.07573952
74	0x3e086f0b	0.1332361
75	0xbc2d0f39	-0.010562711
76	0x3b99b570	0.0046908185
77	0x3cd074e5	0.025446365
78	0x3d948d6c	0.072535366
79	0x3c82e34e	0.015977528
80	0xbe45a37c	-0.19300646
81	0xbe5ac79b	-0.21365206
82	0xbe1c4713	-0.15261488
83	0x3d7c69d2	0.061624356
84	0xbeab27dc	-0.33428848
85	0xbeb9e705	-0.36309066
86	0xbe47c7bb	-0.19509785
87	0x3d160e50	0.036634743
88	0x3d63c6f4	0.05560966
89	0xbd421320	-0.04738152
90	0xbe057532	-0.13032988
91	0x3d55bc7e	0.052181713
92	0x3d9f6bb0	0.07784212
93	0xb9261091	-0.00015837165
94	0xbe4416ec	-0.19149369
95	0xbd86a000	-0.06573486
96	0x3e60f9a0	0.21970224
97	0x3b8c91f8	0.004289862
98	0x3d98a86f	0.07454001
99	0xbd83b7bc	-0.06431529
100	0x3ec666fa	0.3875044
101	0xbe0fc60f	-0.14040397
102	0x3b2b3b51	0.0026127885
103	0x3ddf3044	0.10897878
104	0xbd10d985	-0.035363693
105	0xbe0fabe5	-0.14030416
106	0xbdae49ad	-0.08510146
107	0xbcf963f7	-0.030443175
108	0x3e0c08b7	0.136752
109	0xbda0a753	-0.078444146
110	0x3de40d8c	0.11135396
111	0xbd791eb7	-0.060820308
112	0x3e69ed8b	0.22844522
113	0x3e4f303f	0.20233248
114	0xbc22497d	-0.009905216
115	0x3cc47287	0.023980392
116	0xbe2d7779	-0.16940106
117	0xbe2aa5a8	-0.16664755
118	0xbe6ef391	-0.233351
119	0x3dcd6b8c	0.100302786
120	0xbce58870	-0.02801916
121	0xbd57a2a7	-0.05264535
122	0x3e1bcc97	0.15214764
123	0x3da28f0f	0.079374425
124	0x3e530908	0.20608914
125	0xbba317f5	-0.004977221
126	0xbe3b1af2	-0.18271998
127	0xbeadaab9	-0.33919314
128	0xbcde6892	-0.027149472
129	0xbbf4cdc2	-0.0074708173
130	0xbcd59afb	-0.026074877
131	0x3e6b600b	0.22985856
132	0xbda95015	-0.082672276
133	0x3d3009e8	0.042978197
134	0xbd8b59a6	-0.068042085
135	0xbe655a72	-0.22397783
136	0xbe4e6fd1	-0.20159842
137	0x3e033e4d	0.12816735
138	0x3d6e193e	0.05812954
139	0x3dfaafb2	0.122405425
140	0xbe0059a1	-0.1253419
141	0x3dd3490b	0.10316666
142	0xbd63b92b	-0.05559651
143	0xba284773	-0.0006419338
144	0x3e32044a	0.17384449
145	0x3e0a544d	0.1350872
146	0x3e11d31b	0.14240687
147	0xbd85a2b2	-0.06525172
148	0xbd517a1a	-0.051141836
149	0x3d591a10	0.05300337
150	0xbd684dd4	-0.056714848
151	0xbe90c103	-0.28272256
152	0xbdde9918	-0.10869044
153	0x3ce85e7e	0.02836537
154	0x3e4ff217	0.20307194
155	0xbe00d00a	-0.1257936
156	0xbe096df2	-0.13420847
157	0xbe69fc7f	-0.22850226
158	0xbdcbffb6	-0.09960882
159	0x3e413645	0.18868358
160	0xbd3f2d9e	-0.046674363
161	0xbe10a3aa	-0.14124933
162	0x3e8b5560	0.27213573
163	0xbd1ebbb4	-0.038753226
164	0xbd5e37da	-0.054252483
165	0xb901d31c	-0.00012381043
166	0xbc54d730	-0.012990758
167	0x3c39e029	0.011344948
168	0x3cbcad4a	0.02303185
169	0xbdbbc611	-0.091686375
170	0xbed7450a	-0.4204486
171	0xbe85cd44	-0.26133168
172	0x3e29ffd9	0.16601504
173	0x3e2d7148	0.16937745
174	0xbb57d521	-0.0032933431
175	0x3e57484d	0.21023674
176	0xbe32373a	-0.1740388
177	0xbdf2024f	-0.118168466
178	0xbe0e9549	-0.13924135
179	0x3e1b7c25	0.15184076
180	0xbdc41587	-0.095744185
181	0xbd60cc4f	-0.054882344
182	0xbe87f255	-0.26552072
183	0xbe2847fb	-0.16433708
184	0xbd63d169	-0.05561963
185	0x3dcfb4cb	0.101419054
186	0x3de1baef	0.11021983
187	0xbe379bf7	-0.1793059
188	0x3e1327b8	0.1437062
189	0x3daad62d	0.08341632
190	0xbdf27f18	-0.118406475
191	0x3d3565c1	0.044286493
192	0xbe7e6e64	-0.24846798
193	0x3cb95f05	0.022628317
194	0x3e864f76	0.262325
195	0x3db2dd5f	0.087336294
196	0xbdcd126e	-0.10013281
197	0x3df06aa6	0.117390916
198	0x3c7bfa15	0.015379448
199	0x3df31986	0.118701026
200	0x3d47cebf	0.048781153
201	0xbdc49970	-0.095995784
202	0xbd5a2659	-0.053259227
203	0xbd6e2c76	-0.05814787
204	0xbdeba4dd	-0.115060546
205	0x3d9e5545	0.077311076
206	0x3d2a8b3d	0.041636694
207	0x3d5c709b	0.053818326
208	0x3dbf0c68	0.09328538
209	0x3dd7713f	0.10519647
210	0x3e38124d	0.17975731
211	0xbde13364	-0.1099613
212	0xbe0d83c2	-0.13819793
213	0xbd89ac6b	-0.06722339
214	0x3e6fb36a	0.23408285
215	0xbddcee0e	-0.10787593
216	0xbd1b6b51	-0.03794414
217	0x3d703ecb	0.058653634
218	0xbdca71d1	-0.0988499
219	0x3ea1d58f	0.31608245
220	0x3cee14fe	0.029062744
221	0x3be1af34	0.006887341
222	0xbc9e398b	-0.019314548
223	0xbd973f36	-0.073851034
224	0xbeb5e0a0	-0.35522938
225	0xbe03135c	-0.12800354
226	0x3d482d22	0.048871167
227	0xbd710e34	-0.058851436
228	0xbf00f2c0	-0.5037041
229	0x3dadffe6	0.084960744
230	0xbd50c32b	-0.050967377
231	0xbd1bb1e9	-0.038011465
232	0x3e85ff61	0.261714
233	0xbd71ba43	-0.059015524
234	0xbd3cb47e	-0.04607057
235	0xbe8dfbbc	-0.2773112
236	0x3d03eb90	0.03220707
237	0xbdfdf04b	-0.12399348
238	0xbe0f4fc3	-0.1399527
239	0xbd8b74b1	-0.068093665
240	0x3c447f93	0.011993307
241	0x3e5ed35f	0.21760319
242	0xbe0520d1	-0.130008
243	0x3deb1292	0.114781514
244	0xbe303eac	-0.17211407
245	0x3dfa777e	0.122298226
246	0x3ddd6dad	0.108119346
247	0xbe68a106	-0.22717676
248	0x3d75b11b	0.059983354
249	0xbd8771d8	-0.06613511
250	0xbd566042	-0.052337892
251	0xbe5e853a	-0.2173051
252	0x3e90a282	0.28248984
253	0x3d9a15bc	0.07523677
254	0xbe491d4a	-0.19640079
255	0xbde515bb	-0.111857854

layer.gru_unit.bias_ih f4 [384]
0	0xbddbca72	-0.10731973
1	0x3dce0247	0.10059028
2	0xbd2775c4	-0.040883794
3	0xbdb585b8	-0.088633955
4	0xbd584efb	-0.052809697
5	0x3bfc4f14	0.0076998565
6	0x3c39d53f	0.011342346
7	0x3aba8673	0.0014230743
8	0xbdc67437	-0.09690135
9	0x3e6d5d80	0.23180199
10	0x3bab09cc	0.0052196737
11	0xbdc5fcbf	-0.09667348
12	0xbd658ebb	-0.05604432
13	0xbd74596c	-0.05965559
14	0xbd8e41ee	-0.06946169
15	0x3da94f58	0.08267087
16	0x3ce3e046	0.027816903
17	0x3dd94f2c	0.10610804
18	0x3e380298	0.1796974
19	0x3ddbd146	0.10733275
20	0x3e744e1d	0.23857923
21	0x3a8f2706	0.0010921664
22	0xbd5f19ea	-0.054468073
23	0x3d75d3d5	0.060016472
24	0xbd9bf41d	-0.0761492
25	0x3e73c713	0.2380641
26	0xbdb4d69a	-0.088299945
27	0xbdb51aff	-0.0884304
28	0xbd751971	-0.059838716
29	0x3c96b5c6	0.018397223
30	0xbe2049f6	-0.15653214
31	0x3db9e465	0.09076766
32	0x3dbfa796	0.09358136
33	0x3c00567f	0.007833122
34	0x3e41948e	0.18904325
35	0x3dbc3025	0.0918887
36	0xbdb7f5d1	-0.08982433
37	0x3d9f0088	0.07763773
38	0x3d75b871	0.05999035
39	0xbbad78ad	-0.0052939267
40	0xbd2738da	-0.040825702
41	0x3dbe7eec	0.09301552
42	0xbdd8542f	-0.10562932
43	0xbe09b7b8	-0.1344899
44	0x3de699ae	0.11259781
45	0xbd963b35	-0.073355116
46	0x3cb44e46	0.02200998
47	0xbe303f93	-0.17211752
48	0x3e9d02fd	0.30666342
49	0x3d351b4d	0.04421549
50	0x3e879b7a	0.26485807
51	0xbd1772f1	-0.03697485
52	0xbdd34d55	-0.10317484
53	0xbd06c374	-0.032901242
54	0xbcec961e	-0.028880175
55	0x3ce0794d	0.02740159
56	0x3d8aef21	0.067838915
57	0x3c86aaba	0.01643883
58	0x3dd12c55	0.10213534
59	0xbd8c2c08	-0.06844336
60	0xbe139161	-0.14410926
61	0x3bb87113	0.005628714
62	0xbdb5bd0d	-0.08873949
63	0xbd4394ca	-0.04774932
64	0xbb11dd59	-0.0022257178
65	0xbd242e13	-0.040083002
66	0xbe0daf3a	-0.13836375
67	0xbc472510	-0.0121548325
68	0xbda532ff	-0.08066367
69	0xbdee0855	-0.11622683
70	0xbdcfa928	-0.10139686
71	0xbd8df606	-0.06931691
72	0x3d24e8ca	0.040261067
73	0x3d1f4e91	0.038893286
74	0xbbef60f8	-0.0073052607
75	0xbc879781	-0.016551735
76	0xbd14b23b	-0.036302786
77	0x3d3efa23	0.046625268
78	0x3de08862	0.10963513
79	0xbd678869	-0.056526575
80	0xbce5f3e5	-0.0280704
81	0xbc39851a	-0.011323238
82	0x3bac688c	0.0052614864
83	0xbda60c1c	-0.081077784
84	0xbc350017	-0.011047385
85	0xbd828ab6	-0.06374113
86	0xbe042579	-0.1290492
87	0xbd920986	-0.07130723
88	0xbdc8c3bf	-0.098029606
89	0xbcd4685c	-0.025928669
90	0xbc21f963	-0.009886119
91	0xbcce7453	-0.025201952
92	0x3d567fae	0.05236786
93	0xbd2bbadb	-0.041926246
94	0x3db2971e	0.087202296
95	0x3d3dc4d4	0.046330288
96	0x3d5c4357	0.053775158
97	0xbe783abc	-0.24241155
98	0xbd3de519	-0.046361063
99	0xbb10a003	-0.002206803
100	0x3dd902d7	0.10596245
101	0x3e069317	0.13142048
102	0xbd62774d	-0.055289555
103	0xbddd5e2e	-0.10808979
104	0xbe000675	-0.12502463
105	0x3e0283b2	0.1274555
106	0xbdb794c1	-0.089639194
107	0x3c468606	0.012116915
108	0x3d992c07	0.07479101
109	0x3c9e6af2	0.019338105
110	0xbe10fb79	-0.14158429
111	0x3df72279	0.12067122
112	0xbdbfb693	-0.09360995
113	0xbda684ff	-0.08130836
114	0x3c26d881	0.0101834545
115	0x3cc49794	0.02399806
116	0xbe0e1907	-0.13876735
117	0xbd917f07	-0.07104307
118	0xbdb922e4	-0.09039858
119	0x3dc29d29	0.09502632
120	0xbcf8af50	-0.030357033
121	0xbc9257d5	-0.017864147
122	0xbd359bbb	-0.04433797
123	0xbb51a392	-0.0031988365
124	0x3e72cd3e	0.23711106
125	0x3c84a119	0.016190099
126	0xbe4f31d7	-0.20233856
127	0xbe352474	-0.17689687
128	0xbdc829e1	-0.09773613
129	0xbcd28d39	-0.025702106
130	0xbd5850be	-0.052811377
131	0xbb085f6c	-0.002080883
132	0xbe315a42	-0.17319587
133	0x3e1a274c	0.15054053
134	0xbdfd4d5b	-0.1236827
135	0x3c540876	0.01294147
136	0xbe206157	-0.15662132
137	0xbdb6a747	-0.08918624
138	0x3c843b4b	0.016141554
139	0xbbdc3206	-0.0067198304
140	0xbbf214bd	-0.007387726
141	0x3da3fd9b	0.08007356
142	0xbd6fdb83	-0.058558952
143	0xbd6eb103	-0.05827428
144	0x3c6a22a6	0.014290487
145	0x3d01b01d	0.031662095
146	0x3cf5a86d	0.029987538
147	0x3e42b0c9	0.1901275
148	0x3e28365a	0.16426983
149	0x3d5603ca	0.052249707
150	0x3ca1017b	0.019654026
151	0xbd356d5e	-0.044293754
152	0x3dc6c6bf	0.097058766
153	0x3cbf095a	0.023319889
154	0xbe287c2f	-0.16453622
155	0x39153b2c	0.0001423179
156	0xbb978e77	-0.0046251374
157	0xbd107a59	-0.03527293
158	0x3cc2a51c	0.02376037
159	0xbd86079e	-0.065444216
160	0xbdf67253	-0.12033524
161	0x3d1f175a	0.03884063
162	0x3d8ffd13	0.07030692
163	0xbd8ffde1	-0.070308454
164	0xbd2e2b13	-0.042521548
165	0x3cb39423	0.021921223
166	0xbdf15bfa	-0.11785121
167	0x3caa3bb6	0.020780426
168	0x3d7e1ad1	0.062037293
169	0xbe1777df	-0.14791821
170	0x3e1f9c3f	0.15586947
171	0xbcaab79a	-0.020839501
172	0xbdca48e2	-0.098771825
173	0xbe20c418	-0.15699804
174	0xbdc495df	-0.09598898
175	0xbcab85d9	-0.020937847
176	0x3d526759	0.05136809
177	0xbd674cb3	-0.05646963
178	0xbc82130b	-0.015878221
179	0xbe1d901e	-0.15387008
180	0x3d99a4b1	0.075021155
181	0xbe24ee4b	-0.16106527
182	0x3dc9ed82	0.09859754
183	0x3cca1359	0.024667429
184	0x3d0b3262	0.033983596
185	0xbe1aa99e	-0.15103766
186	0xbdeced2b	-0.11568674
187	0xbbaf19f3	-0.0053436696
188	0x3df3d1ba	0.119052365
189	0xbd772538	-0.06033823
190	0x3dc0a91f	0.09407257
191	0x3caec27d	0.021332974
192	0x3d886e70	0.06661689
193	0xbdc032b9	-0.093846746
194	0x3d902ac2	0.070394054
195	0x3d7c2043	0.061554205
196	0x3d370e84	0.044691578
197	0xbe54e237	-0.20789419
198	0x3d9e9666	0.0774353
199	0xbd136afe	-0.035990708
200	0x3dee44cf	0.11634218
201	0xbe1a0ce8	-0.15043986
202	0x3e428555	0.18996175
203	0x3e2449e9	0.1604382
204	0xbd8f79f9	-0.07005686
205	0x3dcd653f	0.10029077
206	0xbda0ea4b	-0.07857188
207	0xbdcf8d9d	-0.101344325
208	0xbd07c0d9	-0.0331429
209	0xbda0813f	-0.07837152
210	0x3d7c11b3	0.061540317
211	0xbc6d5996	-0.014486691
212	0x3de2ff19	0.11083812
213	0xbd485f5e	-0.048919074
214	0xbdbb7a2d	-0.091541626
215	0xbc0d6204	-0.008629326
216	0xbd330057	-0.043701496
217	0xbc832752	-0.01600996
218	0xbe255b13	-0.16148023
219	0xbd1c61ef	-0.038179334
220	0xbdafbbfc	-0.08580777
221	0x3d1e7c09	0.038692508
222	0xbdc9e5b9	-0.09858269
223	0xbe13f80d	-0.14450093
224	0xbc0340a6	-0.008011019
225	0xbd869565	-0.065714635
226	0xbcfdc7a5	-0.030978987
227	0xbe3a6974	-0.1820429
228	0x3dafc27f	0.08582019
229	0x3d4ab293	0.049486708
230	0xbe5ec1a5	-0.21753557
231	0x3d400655	0.04688104
232	0xbd0420f6	-0.032257996
233	0x3b815268	0.003946591
234	0x3db6c64a	0.089245394
235	0xbc8ecb3a	-0.01743089
236	0xbd29595e	-0.041344993
237	0xbdc47393	-0.095923565
238	0xbc071e7c	-0.008247014
239	0x3a434c3c	0.00074500195
240	0x3e06e21a	0.13172188
241	0xbe5e9899	-0.21737899
242	0xbd7a61bd	-0.061128367
243	0x3df49c85	0.11943916
244	0x3dab47b2	0.08363284
245	0x3d5516d1	0.052023713
246	0x3e095f10	0.1341517
247	0xbd84b4e0	-0.06479812
248	0x3d2f1601	0.042745594
249	0x3db433f8	0.08798975
250	0xbe279414	-0.16365081
251	0xbc5095c8	-0.012731023
252	0x3d439759	0.04775176
253	0xbe9bc5e5	-0.3042442
254	0x3d89ff84	0.06738189
255	0xbdee68e1	-0.11641098

layer.gru_unit.bias_hh f4 [384]
0	0xbdd5bdd4	-0.104365975
1	0x3d122c10	0.035686553
2	0x3d97500f	0.07388317
3	0xbe0ed6f5	-0.13949187
4	0xbe108ace	-0.1411545
5	0xbd8e7055	-0.069550194
6	0xbd983c43	-0.07433369
7	0x3c9e81fd	0.019349093
8	0xbd143b2c	-0.036189243
9	0x3e8c8971	0.2744861
10	0x3d85f9ca	0.06541784
11	0xbd93f5b9	-0.07224602
12	0x3dde6717	0.108595066
13	0xbddac2e1	-0.106817015
14	0x3d85d652	0.06535019
15	0x3e0430a4	0.1290918
16	0x3e324e88	0.1741277
17	0xbb556054	-0.0032558637
18	0x3e51dc24	0.20494133
19	0x3df342a4	0.11877945
20	0x3e1dc856	0.15408453
21	0x3ddc6967	0.107622914
22	0xbdf0fff9	-0.11767573
23	0x3d110d76	0.035413228
24	0xbe06a772	-0.13149813
25	0x3e0cd3f2	0.13752726
26	0xbe2717f2	-0.16317728
27	0xbdbca8d2	-0.092118874
28	0xbcce7a30	-0.025204748
29	0x3d5b625d	0.053560603
30	0xbd5f7bd6	-0.05456146
31	0x3ce4d1a0	0.027931988
32	0xba8e6286	-0.0010863103
33	0x3d35ca88	0.044382602
34	0x3da045bb	0.078258
35	0x3d40f3ec	0.047107622
36	0xbdd48440	-0.10376787
37	0x3cfada7c	0.03062176
38	0x3e0491e8	0.12946284
39	0x3c92754f	0.017878203
40	0xbdbfa4c0	-0.093575954
41	0x3e5c2c20	0.21501207
42	0xbd99f7c7	-0.07517963
43	0xbdedb53b	-0.116068326
44	0x3dcba1e3	0.09942987
45	0xbd1a9855	-0.03774293
46	0x3dd5e0f2	0.104432955
47	0xbd8873f7	-0.066627435
48	0x3e78216c	0.242315
49	0xbd6c69ce	-0.05771809
50	0x3ea9e5c8	0.33183122
51	0xbc837edc	-0.016051702
52	0xbdd373a6	-0.103247926
53	0xbe2f2933	-0.1710556
54	0xbd87ecd1	-0.06636966
55	0xbd316da7	-0.043317463
56	0x3c8bcc85	0.017065296
57	0xbcad4199	-0.021149443
58	0x3e2ddf03	0.16979603
59	0x3d6f42ad	0.058413196
60	0xbdc09add	-0.09404538
61	0x3d05191c	0.03249465
62	0x3c14b2d5	0.00907584
63	0x3ce18970	0.027531356
64	0x3bf92c07	0.0076041254
65	0x3d55f86a	0.05223886
66	0xbe530074	-0.20605642
67	0x3d273e08	0.040830642
68	0xbd299c30	-0.041408718
69	0x3cabceae	0.020972576
70	0xbdb75362	-0.08951451
71	0x3d5fdf1d	0.054656137
72	0xba3d0335	-0.0007210256
73	0x3d8a059d	0.06739352
74	0xbd149f76	-0.036284886
75	0xbd43e9d0	-0.047830403
76	0xbc760924	-0.015016828
77	0xbc875cc4	-0.016523726
78	0x3d8239fb	0.06358715
79	0xbdb0eeb5	-0.0863928
80	0xbd6d7622	-0.05797399
81	0x3b7fd573	0.0039037138
82	0xbd689003	-0.056777965
83	0x3b77d17f	0.0037814078
84	0xbd31432e	-0.04327696
85	0xbd27b663	-0.040945422
86	0x3d0a7f93	0.03381307
87	0xbd99740f	-0.074928395
88	0xbe3540d6	-0.17700514
89	0xbccc1db6	-0.024916511
90	0x3d4a9107	0.049454715
91	0x3b5d36cd	0.0033754588
92	0xbd8b05ed	-0.0678824
93	0xbcb52d81	-0.022116425
94	0x3d23464a	0.039861955
95	0xbd8c459d	-0.06849215
96	0xbc80444f	-0.015657572
97	0xbe02a369	-0.12757649
98	0x3d733617	0.059377756
99	0xbe037b16	-0.12839922
100	0x3dc95b8d	0.09831915
101	0x3d9f5244	0.07779363
102	0x3b0319c2	0.0020004367
103	0xbdb23408	-0.087013304
104	0xbe111daa	-0.14171472
105	0x3cc02885	0.023456821
106	0xbd86feff	-0.065916054
107	0x3ba93245	0.0051634633
108	0x3d92cda7	0.07168131
109	0xbc9ceb57	-0.019155188
110	0xbe03ea74	-0.12882406
111	0x3e42cf1f	0.19024323
112	0x3d239f14	0.03994663
113	0xbc8995d6	-0.01679508
114	0x3c449a36	0.011999657
115	0x3c34692c	0.011011403
116	0xbe02d6f5	-0.12777312
117	0xbddb82de	-0.1071832
118	0xbdfda63a	-0.12385221
119	0x3c6d1ad3	0.014471727
120	0xbcfc9a13	-0.030835187
121	0x398d929d	0.0002700285
122	0xbd06e792	-0.032935686
123	0x3d8e88f1	0.06959713
124	0x3d916b0b	0.07100495
125	0xbd9ba39c	-0.075995654
126	0xbe6f722f	-0.23383401
127	0xbe1e137d	-0.15437122
128	0x3d4eb8f1	0.050469343
129	0x3d73d2e1	0.05952728
130	0xbdf82677	-0.121167116
131	0xbe10646f	-0.14100812
132	0xbe32256d	-0.1739709
133	0x3d61fc4b	0.055172246
134	0xbd6c9760	-0.05776155
135	0x3d281f79	0.04104564
136	0xbd95a936	-0.07307665
137	0xbd08d9c8	-0.033410817
138	0xbc131b49	-0.008978673
139	0xbe110fe8	-0.14166224
140	0x3d05029f	0.032473203
141	0x3d352131	0.044221107
142	0x3d96ca57	0.07362812
143	0xbd0a5ac4	-0.033777967
144	0x3cc1073c	0.02356302
145	0x3c872ed2	0.016501818
146	0xbd340af9	-0.043955777
147	0x3dbf53ac	0.09342131
148	0x3d25208b	0.04031424
149	0x3d977dd2	0.07397045
150	0x3dad6d76	0.08468144
151	0xbd30fa6b	-0.043207567
152	0xbb8d1575	-0.0043055364
153	0x3dd367c3	0.10322525
154	0xbda80278	-0.08203596
155	0xbd2ed283	-0.04268123
156	0xbdd0a592	-0.1018783
157	0x3c8de1d6	0.017319601
158	0xbd375153	-0.04475529
159	0xbdeb9f19	-0.11504955
160	0xbd99ead8	-0.07515496
161	0x3dbd3edd	0.09240506
162	0x3cc51538	0.02405797
163	0xbd9d5bfa	-0.07683559
164	0xbe4cdd43	-0.2000628
165	0x3bb892b7	0.005632724
166	0x3b348410	0.0027544536
167	0x3d21a1b0	0.039460838
168	0x3e30288d	0.17202969
169	0xbc862261	-0.016373815
170	0x3d9295f1	0.07157505
171	0x3d484f3c	0.04890369
172	0xbdab77d3	-0.08372464
173	0xbe3789a3	-0.17923598
174	0xbd806049	-0.06268365
175	0x3c26178f	0.010137453
176	0xbcf5be49	-0.029997962
177	0x3d427cf2	0.04748244
178	0x3c59c73d	0.013292131
179	0xbdc3b704	-0.09556392
180	0x3cacb6b1	0.021083208
181	0xbe315b16	-0.17319903
182	0x3cec9c42	0.028883103
183	0x3dcd43c5	0.10022692
184	0x3ca8ccea	0.020605523
185	0x3b989b08	0.004657153
186	0xbcfaf0f3	-0.030632472
187	0x3d14f401	0.036365513
188	0x3e4f37da	0.2023615
189	0xbe011561	-0.12605812
190	0x3db0b290	0.08627808
191	0x3e291ce2	0.16514924
192	0x3d8ed2e4	0.06973818
193	0xbe36e269	-0.17859806
194	0x3c58ad01	0.013224841
195	0x3b6f4453	0.003650923
196	0xbdceb859	-0.10093755
197	0xbe59be98	-0.21264112
198	0xbbd162ee	-0.006389967
199	0x3c564d20	0.0130799115
200	0x3d96e90a	0.073686674
201	0xbe0f7026	-0.14007625
202	0x3d54eb1b	0.051982027
203	0x3dd96312	0.10614599
204	0xbe1174dd	-0.14204736
205	0xbd0671e9	-0.032823477
206	0xbe0087fe	-0.12551877
207	0xbe29b0a2	-0.16571286
208	0xbde6b797	-0.11265486
209	0xbdc24fca	-0.09487875
210	0x3b962b20	0.0045827776
211	0x3d154315	0.036440928
212	0x3dc26abb	0.094930135
213	0xbd4427f1	-0.047889654
214	0xbe0ffb2c	-0.14060658
215	0x3d4a4251	0.04937965
216	0xbc0ad415	-0.008473416
217	0xbd018788	-0.031623393
218	0xbe2052a3	-0.15656523
219	0xbe0388df	-0.12845181
220	0x3d747b68	0.059688002
221	0xbda4be7d	-0.08044145
222	0xbd382da0	-0.044965386
223	0xbdac4242	-0.08411075
224	0x3dd0ec10	0.10201275
225	0xbdcb6096	-0.09930532
226	0xbdbd7567	-0.09250908
227	0xbdae0fe3	-0.08499124
228	0x3d7ff4c4	0.062489286
229	0xbc744539	-0.014909082
230	0xbdcd25fc	-0.100170106
231	0xbd8100cc	-0.0629898
232	0x3cc1db28	0.023664072
233	0x3d8a2f9e	0.067473635
234	0x3d88c144	0.066774875
235	0xbbe43f41	-0.0069655483
236	0x3dc60147	0.096682124
237	0xbde7e97f	-0.11323833
238	0x3dbd1c3c	0.09233901
239	0x3db19cbd	0.086724736
240	0x3e23db0a	0.16001526
241	0xbe434532	-0.19069365
242	0xbe3979c6	-0.18112859
243	0x3dc102d4	0.094243675
244	0x3c954b9f	0.018224536
245	0x3d8ca348	0.06867081
246	0x3dbcf2a5	0.09225968
247	0xbd4e028e	-0.050295405
248	0x3d8f5892	0.06999315
249	0x3d62fecd	0.05541878
250	0xbd4dfe50	-0.05029136
251	0x3dc019fa	0.09379955
252	0xbde4cdfc	-0.11172101
253	0xbe979b46	-0.29610652
254	0xbd239ddb	-0.039945465
255	0xbd8efe4a	-0.069820955

mlp.0.weight f4 [128, 128]
0	0xbdf28445	-0.11841635
1	0xbde40067	-0.11132889
2	0x3db22ff8	0.087005556
3	0xbdf9e83c	-0.12202498
4	0x3b22b3e0	0.0024826452
5	0xbe11ecd3	-0.14250498
6	0xbe018414	-0.1264804
7	0xbe1d92d3	-0.1538804
8	0xbeaa0d84	-0.33213437
9	0xbe250f60	-0.16119146
10	0xbd11c1fb	-0.035585385
11	0x3cb3b134	0.021935083
12	0x3dd02f56	0.101652786
13	0x3e0165bc	0.12636465
14	0xbe04d252	-0.12970856
15	0xbe755376	-0.23957619
16	0xbe29984b	-0.16562001
17	0x3d02a499	0.031895254
18	0x3de408bd	0.11134479
19	0xbd8a5106	-0.06753735
20	0xbe2ed3e5	-0.17073019
21	0x3ca8a388	0.02058579
22	0x3e12d957	0.14340721
23	0xbd5b3027	-0.05351272
24	0x3db821dc	0.08990833
25	0xbbe64caa	-0.007028182
26	0xbe1cea85	-0.15323837
27	0x3da2db06	0.07951932
28	0x3d97d607	0.07413869
29	0xbd2099f4	-0.03920932
30	0x3e7c7408	0.24653637
31	0xbe564b79	-0.20927228
32	0xbd8abaae	-0.067738876
33	0x3e0be932	0.13663176
34	0x3ea34b52	0.31893402
35	0xbe461624	-0.19344383
36	0x3dd21715	0.10258309
37	0x3c880d5a	0.016607929
38	0x3e77d600	0.24202728
39	0xbe4b82e2	-0.19874147
40	0x3e24740c	0.16059893
41	0x3f0b097f	0.54311365
42	0x3d45f20a	0.04832653
43	0x3e0f1a4b	0.13974874
44	0xbdf618b0	-0.120164275
45	0xbd0c464f	-0.03424674
46	0xbdfcc58e	-0.12342368
47	0xbca8a68b	-0.020587226
48	0xbdae1851	-0.08500732
49	0x3deca77d	0.11555383
50	0xbdfaf63f	-0.12253999
51	0x3ccc668b	0.02495124
52	0xbcb24321	-0.021760525
53	0x3c64cfbb	0.013965542
54	0xbe4ca28f	-0.19983886
55	0xbe6233e7	-0.22090112
56	0x3e44496f	0.19168638
57	0xbc56cee4	-0.01311085
58	0xbdf016f2	-0.117231265
59	0x3e311ae5	0.17295416
60	0x3debe2cc	0.115178674
61	0xbe067770	-0.131315
62	0x3e8ead73	0.27866706
63	0x3d6881de	0.056764476
64	0xbe08f5f1	-0.13375069
65	0xbe389013	-0.1802371
66	0xbe21fd67	-0.15819322
67	0xbdb04da6	-0.0860856
68	0x3df61872	0.12016381
69	0xbe103853	-0.14083986
70	0x3dac245f	0.08405375
71	0x3d5f6dae	0.054547958
72	0xbdac05db	-0.08399554
73	0x3d7249a2	0.059152253
74	0xbe10142d	-0.14070196
75	0xbd2196a7	-0.039450314
76	0x3e19e362	0.15028146
77	0x3d8d49ff	0.06898879
78	0xbe70ddd6	-0.23522124
79	0x3ceaa1cb	0.028641602
80	0x3d1f0a14	0.03882797
81	0xbd903737	-0.070417814
82	0xbe256170	-0.1615045
83	0x3e0de2d4	0.1385606
84	0xbe8be570	-0.27323484
85	0x3d57dab5	0.05269881
86	0x3e71746d	0.23579569
87	0xbe027637	-0.12740408
88	0x3e124f3a	0.14288035
89	0xbe098bbb	-0.13432209
90	0x3c9bd02a	0.019020159
91	0x3d8c114a	0.06839235
92	0xbe5969f6	-0.21231827
93	0x3d83c8f6	0.06434815
94	0x3cfda56f	0.030962674
95	0xbe148faf	-0.14507936
96	0xbe4edb0d	-0.20200749
97	0x3ebab849	0.36468723
98	0xbe901151	-0.2813821
99	0xbcdf1d62	-0.02723569
100	0xbe6c80db	-0.2309603
101	0xbd2e6e4d	-0.04258566
102	0xbb526dba	-0.003210886
103	0xbe5f6e53	-0.21819429
104	0x3b9291e0	0.004472956
105	0xbd4a1f03	-0.04934598
106	0xbddb4cc0	-0.10707998
107	0x3c7920df	0.015205591
108	0xbee71019	-0.4512947
109	0x3dd33fc6	0.10314898
110	0xbe17d41b	-0.14827006
111	0xbe086919	-0.13321342
112	0xbd6c0288	-0.0576196
113	0xbe19821c	-0.14991039
114	0x3db6a2d1	0.089177735
115	0x3cc7aacf	0.02437344
116	0x3e17efc8	0.14837563
117	0xbd9a28ce	-0.07527314
118	0x3be5bc14	0.007010946
119	0x3db46e32	0.088100806
120	0x3d00db12	0.03145892
121	0x3dc0d5b0	0.09415758
122	0xbe700f2a	-0.23443285
123	0x3e4e6154	0.20154315
124	0xbeac9008	-0.33703637
125	0xb932a732	-0.00017037688
126	0x3e2ec008	0.17065442
127	0xbdb283c5	-0.08716539
128	0xbda757e7	-0.08171063
129	0xbd709632	-0.058736987
130	0x3d0b8666	0.03406372
131	0xbcf465c9	-0.029833691
132	0x3deaed73	0.11471071
133	0xbd5d77fd	-0.054069508
134	0x3c676cdf	0.014125078
135	0x3cfc3245	0.03078569
136	0xbc6f2c7d	-0.014598009
137	0xbe07533b	-0.13215344
138	0xbdd847e2	-0.105605856
139	0x3b03f7a5	0.0020136621
140	0x3ce5fb86	0.028074037
141	0xbcd08c23	-0.025457447
142	0xbdb95a50	-0.09050429
143	0xbd21e7d1	-0.039527718
144	0xbd220671	-0.039556924
145	0xbd1ff11d	-0.039048303
146	0xbd7234ef	-0.059132513
147	0x3d2e9d01	0.0426302
148	0xbd0e0f16	-0.034682356
149	0xbad095f4	-0.001591383
150	0xbd4f2464	-0.050571814
151	0xbb3aa4f1	-0.002847966
152	0xbd87a90d	-0.06624041
153	0x3bbbe93f	0.005734592
154	0xbd633dec	-0.055478975
155	0x3de483f9	0.11157984
156	0xbcb64861	-0.02225131
157	0x3d5cd352	0.05391247
158	0xbdb02a71	-0.08601845
159	0xbb99c329	-0.0046924544
160	0xbada977a	-0.0016677224
161	0x3db7da38	0.08977169
162	0xbd7228bf	-0.05912089
163	0x3d230406	0.03979876
164	0xbd189d51	-0.037259404
165	0xbd18f414	-0.037342146
166	0x3bbf2ba7	0.005834061
167	0x3d7f4937	0.062325682
168	0x3dde5c34	0.1085743
169	0x3d8e6152	0.06952156
170	0x39685635	0.00022157359
171	0x3d3fc121	0.04681504
172	0x3d3492be	0.044085257
173	0x3da8f80e	0.08250438
174	0xbdc9b396	-0.098487064
175	0xbd0a78f6	-0.033806764
176	0x3d157fbc	0.03649877
177	0x3cd61a68	0.026135638
178	0x3d38f800	0.045158386
179	0x3cba3c1e	0.022733744
180	0xbd05ed94	-0.032697275
181	0xbbbbc02d	-0.0057296962
182	0xbd089d15	-0.03335293
183	0xbbfe1534	-0.0077539925
184	0x3db7103b	0.089386426
185	0x3d300324	0.042971745
186	0x3da5c576	0.08094303
187	0x3daf383c	0.08555648
188	0xbc0b6d01	-0.008509875
189	0xbbe302ff	-0.0069278474
190	0xbc4e8911	-0.012605921
191	0xba11e577	-0.0005565504
192	0x3d9299bc	0.07158229
193	0x3d43aaa1	0.047770146
194	0xbd856d54	-0.06514993
195	0x3d01cb6e	0.031688146
196	0xba1c7b9d	-0.00059693475
197	0xbbe78f28	-0.007066626
198	0xbd9add77	-0.07561772
199	0xbca43e0b	-0.020049116
200	0x3db767ec	0.089553684
201	0x3ce79bfb	0.02827262
202	0x3d148984	0.036263958
203	0xbd797eca	-0.06091193
204	0xbd5b286d	-0.05350535
205	0x3cb63f3b	0.022246948
206	0x3c0e61ae	0.008690281
207	0x3dc97bea	0.09838088
208	0x3d237b51	0.039912526
209	0xbd7ebb74	-0.062190488
210	0xbc482b30	-0.012217328
211	0xbcc821ad	-0.02443012
212	0x3d2b6f1f	0.04185402
213	0x3db27913	0.08714499
214	0x3d1820f9	0.03714082
215	0xbcec7873	-0.028866028
216	0xbdc32ee5	-0.09530429
217	0x3d263fb3	0.040588092
218	0xbdf3683d	-0.11885116
219	0xbd817773	-0.06321611
220	0xbd1c224d	-0.03811865
221	0xbbab79a8	-0.0052330084
222	0xbbfce4eb	-0.007717719
223	0x3e047a1e	0.12937209
224	0x3d414e3b	0.047193747
225	0xbdc2de96	-0.09515111
226	0x3e1e9fa1	0.15490581
227	0xbcc99795	-0.024608413
228	0x3c85addf	0.01631826
229	0xbc99d226	-0.018776964
230	0xbd83a7af	-0.064284675
231	0x3cd3e3d6	0.025865477
232	0x3c56292b	0.013071339
233	0xbc8887f4	-0.01666639
234	0xbd64e7ee	-0.055885248
235	0x3b0285ce	0.001991618
236	0x3daca64a	0.084301546
237	0xbc8d45c4	-0.01724518
238	0xbdc6190f	-0.09672748
239	0xbd289823	-0.041160714
240	0xbb0e1c13	-0.0021684214
241	0x3dd67fbc	0.10473582
242	0xbd628b36	-0.055308543
243	0x3d8c30c2	0.06845237
244	0xbd9364d4	-0.07196966
245	0xbc699882	-0.014257552
246	0x3ddd78dc	0.10814068
247	0xbd085319	-0.033282373
248	0x3d659ce6	0.056057833
249	0xbd0e866d	-0.034796167
250	0x3db2c51c	0.08729002
251	0x3d66429b	0.056215864
252	0xbd85e280	-0.06537342
253	0xbc3872cc	-0.011257838
254	0x3cc1a7e3	0.023639625
255	0x3b2bc454	0.002620955
