graph-neural-networks/zinc_models/MPNN_mean.pth (torch, 806264 bytes, 14 tensors)

layer.nnet.0.weight f4 [3, 3]
00000000: 1770 a8be 17a7 cebe b5c8 b73c 7cf0 48be
00000010: d516 953d c3e5 1f3f 9978 01be 2409 293f
00000020: 15ee 833e
-0.32898018 -0.40361854 0.022434572 -0.19622988 0.072797455 0.62459964 -0.1264366 0.6602957
0.2576758

layer.nnet.0.bias f4 [3]
00000000: 554f 9abe b96a ccbd ac37 f7bd
-0.3013865 -0.09981293 -0.120711654

layer.nnet.2.weight f4 [16384, 3]
00000000: 5360 d53e 232b 263f f9d7 1abf b39c f53e
00000010: a7f6 933e ba6a 753e 4505 b43e 8bc7 afbe
00000020: f9bc a93e 088b f83c bf3b 9d3e 837c b13e
00000030: a828 103f 50e9 123f 2a49 a33e 6d9f d4bb
00000040: 58c2 81be d8c1 ac3d f377 c73e e2ed dabe
00000050: 3f7e 333f e3f8 09bf 20f6 e43e f87b dcbe
00000060: 86b9 0fbe a4d7 58be ac53 013e 0eac 04bf
00000070: d886 f2bc aa40 213e 7f92 5d3e 6e2d 873e
00000080: fd68 263f 2eb1 ab3e aa37 b2be 502c 783e
00000090: 1395 b13e aa79 033f e723 b6bc 4e20 0dbe
000000a0: b658 37bf bdc9 86be eb1c 94be 8730 8ebd
000000b0: 4f93 a8be b4ae e7be 8f98 db3d e413 003f
000000c0: 3108 183e e404 d0be 1606 10bf ec6c f03e
000000d0: 9301 823e 635f 003f cf4b 11bf 5d23 5bbe
000000e0: 8ba2 3abe 8d0e f1be d678 74be a2d4 60be
000000f0: ce2d acbc 5f73 94be 3b1e 1d3f 3cd6 313d
00000100: ec11 d13e 1fbc ab3e 6117 46be 8605 d6be
00000110: 0c1b 4b3e ebe9 f4be b5e3 dd3d 64cb 15bf
00000120: e2cf fe3e b1e7 563f 4f08 11bf d6fe e13e
00000130: 51ff 993d f5ae 813d c593 6bbe b509 b8be
00000140: ac28 81be b75c aebd c579 eabd fce4 8b3d
00000150: bc2c ee3d c7b1 84be 964c 1fbe d473 473e
00000160: d1a1 013f a794 c1be 2b5f 0fbe 2078 4c3f
00000170: d4b1 0e3e 8d91 d2be 194c 1dbf fc3e c7be
00000180: 341c a8be 4eb4 37bf 8dab 2abf f80e 81be
00000190: 3263 1bbf e7a6 863e 8d29 fdbd af58 11be
000001a0: 50ad e03e 5e94 a23e a06c d23d 7943 203f
000001b0: 0775 693e fb01 583e 8c1f 69be ca67 26be
000001c0: fcb9 b93e 0134 0cbf a0dc ed3e 9859 703e
000001d0: 0812 5dbc 415e 0c3f d0f1 993e 94df d23e
000001e0: 5940 d8bd 9b2d 06be 479a edbc 4ef4 43bd
000001f0: 3fc3 563e c87b a1bd 6761 f33e a7e4 873e
00000200: cf13 8fbc 7b81 263e 486f 6d3c 4a4a 17bf
00000210: c0a8 f03e d687 573d f24d e0be d911 523e
00000220: 43c3 923e e06a 36bf b1e9 70be 2d9c bd3e
00000230: 6369 123e 90c2 df3d 3039 39be e8a3 5c3e
00000240: 354f 03be aeb7 923e ffa2 58be 1851 0a3f
00000250: 0914 42be 3ee5 3e3f 222a 123f 405a 3b3d
00000260: 725c bdbe f9b2 01bf 9bbd 75be 62ea 1dbf
00000270: 3455 10bf 9473 4cbe 9305 1dbe bb86 55bd
00000280: 73cf 6d3e cadd d4be a4a1 0b3f 987d 10bf
00000290: 95c0 28bf a17e bbbd 4427 383e f696 d13e
000002a0: 0669 d8be 2d32 0a3f ac96 b33d 0da0 fc3e
000002b0: a8c2 c9bd 136b e23e a3c0 32be d7fd 51be
000002c0: 57de 90be dbdd 093f dafc 093e 98d3 86be
000002d0: 1413 d73d 2f0c e33e 3d38 e1be 58cf 91be
000002e0: f92e f43e 16bf 2abe ae4e e0be e3f5 70be
000002f0: e2d8 5ebe 62b0 aa3e 4cf2 d23e 44b0 b03e
00000300: 434e 0c3f f66e 69bc 117c ebbe 4908 1fbd
00000310: 0297 ae3e 846f a13e a33f d73e 3bcf 1cbe
00000320: db4b 9bbe 7853 d3be 0ed4 d23e 8ab2 fabc
00000330: 3d3d 05be fe80 223e 8443 5fbe 9465 00be
00000340: c6b9 5ebc 296a 403f a64b e0bc b8ff 2a3e
00000350: 8436 aebd 933f 0a3f 0849 da3d affd cdbe
00000360: 84f9 98be 96cc 96be 1619 1f3f 0967 c6be
00000370: 463f 14bf 375e 2c3e 3dc4 c2be f089 d4bd
00000380: b63b 8a3e ac5c 89bd b2ca 2d3e f977 363f
00000390: 5c5e ed3e c283 2d3e 2b6c 103f 2b45 da3e
000003a0: 350b b23e 6e53 04bf 2161 88bd 39fc 19bf
000003b0: db99 96be 4d49 823e d7b0 98be 304b 94be
000003c0: 1a43 e5be b926 3bbd 4d36 f43e 87cf 22be
000003d0: 41e1 d6be b13e 34bf 0519 41bd e857 de3e
000003e0: 73ad 12bf 7a26 8bbe 8741 83be c28f 8b3e
000003f0: 885a 293e 8d0d bbbe 17dd 023e d7f0 02bf
0.41675052 0.6490957 -0.604858 0.47971115 0.28899118 0.23966494 0.3516027 -0.34331927
0.33151987 0.030339733 0.30709645 0.34665307 0.56312037 0.57387257 0.31891757 -0.0064887316
-0.25343585 0.0843541 0.38958701 -0.42759615 0.7011451 -0.53895396 0.44719028 -0.4306333
-0.14035615 -0.2117601 0.12629575 -0.51825035 -0.029605314 0.15747324 0.21637915 0.26401848
0.6500395 0.33533615 -0.34808093 0.24235654 0.34684047 0.5135752 -0.022233916 -0.13781855
-0.7161974 -0.2632579 -0.28928313 -0.069428496 -0.32924888 -0.45250475 0.107224576 0.5003035
0.14846875 -0.4062873 -0.56259286 0.469581 0.25391826 0.5014555 -0.567563 -0.21400209
-0.18226068 -0.47081414 -0.2387422 -0.21956113 -0.021017935 -0.2899427 0.61374253 0.0434172
0.40833986 0.33541963 -0.19344856 -0.4180109 0.19834536 -0.47834715 0.10834447 -0.58513474
0.49767977 0.83947283 -0.566533 0.44139737 0.07519401 0.063321985 -0.23005588 -0.35944906
-0.25226343 -0.08513778 -0.11449007 0.06830785 0.11629626 -0.25916883 -0.15556559 0.19477779
0.5063754 -0.37808725 -0.14001147 0.79870796 0.13935024 -0.4112667 -0.6144424 -0.3891524
-0.32834017 -0.717595 -0.66668016 -0.25206733 -0.60698235 0.2629921 -0.12361441 -0.14193986
0.43882227 0.3175382 0.10274625 0.62602955 0.22798549 0.21094505 -0.2276594 -0.1625053
0.36274707 -0.5476685 0.46457386 0.23471677 -0.0134930685 0.5483132 0.300673 0.41186202
-0.10559148 -0.13103335 -0.02900423 -0.04784041 0.20972918 -0.078849375 0.4753525 0.26541635
-0.0174655 0.1626033 0.014491864 -0.5909773 0.47003746 0.052619778 -0.43809468 0.20514621
0.28664598 -0.7125683 -0.23526646 0.37033215 0.14298014 0.10925782 -0.18088222 0.215469
-0.12823184 0.2865576 -0.21155928 0.5402999 -0.18952955 0.74568546 0.5709554 0.045740366
-0.36984593 -0.50663716 -0.2399811 -0.61685765 -0.5638001 -0.19965965 -0.15334158 -0.052130442
0.23223667 -0.41575462 0.5454352 -0.5644164 -0.65918857 -0.09155012 0.17983729 0.40935487
-0.42267627 0.5398281 0.08768973 0.4934086 -0.09851581 0.44222316 -0.17456298 -0.20506988
-0.28294632 0.5385415 0.13475361 -0.26333308 0.10501686 0.44345233 -0.4398822 -0.28478503
0.47692087 -0.16674456 -0.43810028 -0.23531298 -0.21762422 0.33337694 0.41200483 0.3450948
0.5480692 -0.014247647 -0.45993093 -0.03882626 0.34099585 0.31530392 0.42040738 -0.15313427
-0.3033131 -0.4127462 0.4117741 -0.030602712 -0.13011642 0.15869519 -0.21803099 -0.12538749
-0.0135940965 0.7516199 -0.027379822 0.16699111 -0.08506492 0.54003257 0.10658461 -0.40232608
-0.29877865 -0.29452962 0.62147653 -0.38750485 -0.5790905 0.16832815 -0.38040343 -0.10377872
0.2699868 -0.06707129 0.16971853 0.71276814 0.46361053 0.16944793 0.5641505 0.42630896
0.34774175 -0.51689804 -0.06659151 -0.60150486 -0.29414257 0.2544655 -0.29822418 -0.28963614
-0.44777757 -0.045691226 0.47697678 -0.15899478 -0.4196873 -0.7040816 -0.047143 0.43426442
-0.5729591 -0.27177793 -0.2563593 0.27258116 0.16538441 -0.36533776 0.12779652 -0.5114874

layer.nnet.2.bias f4 [16384]
00000000: 34ea 563e f2bd 03bd 8dd6 923e bd31 d6be
00000010: 24e4 413d bda1 fb3e 727c 44be 3143 85bc
00000020: 2d27 15bf c69a 00bf 905a e7be e9e5 fabe
00000030: b6b2 603d d4a5 313e 93bd 3b3e 6234 bc3e
00000040: b4b8 9abe 0893 193f 77e2 41bd 6713 04bf
00000050: 9ec5 023f 22b5 19bf d08c dbbd ac58 183e
00000060: d892 0f3e bccc 283f 6372 da3e 74da 11bf
00000070: 2352 8fbb c1c0 fa3e 8319 0b3d 6919 4ebd
00000080: 3daf 95be 283d c4be ca66 e2be df0b 13bc
00000090: b880 d4be d141 b3bd 3ee7 aebe 7b33 433d
000000a0: 0776 91bd 1f29 b3be 6d29 f9be 39c1 fd3e
000000b0: 2475 d0be d5b3 a8bc 3070 463e c621 3abd
000000c0: e00c b6be ff2f 08bf 7ad6 83be d6c3 ce3e
000000d0: c726 adbe 4bed a7be ac2c f3bd 5c20 813e
000000e0: db74 2d3e ecb0 15bf a6af d6be 64ba 17bb
000000f0: dc8c 5dbd 0341 723e 5bef c2be 7cee f93d
00000100: a5ec e93e 05e5 ee3e e82e 96be bfc7 81be
00000110: 1604 a6bd 2e4c 093f 7d1a fe3e 8292 f7bd
00000120: 5f05 a53e af9b 06bf a5c3 d43e 9e41 073f
00000130: bbb8 1a3e f1cc 2dbd 9e92 383e fdd7 a0be
00000140: c82e 9cbe 02da fabe 3e5f 25bf 5ec9 8abd
00000150: 8657 d73d ed48 0fbf 3d68 52be 2064 503e
00000160: 00e8 9ebe cd56 2c3e 5764 df3e ceff e4be
00000170: 5940 f23e b4f7 6cbe 2d23 163f 4b44 d8be
00000180: e69c f2be 15bc bcbe b910 383e 7540 0a3f
00000190: 146e 063b 8964 0b3f d38d 8d3d 9e11 0d3e
000001a0: 4de8 f9be 68a0 25bd c0d4 bd3e b037 c23d
000001b0: fb2b f23e 4b36 d6be 61b4 39be 7216 ebbe
000001c0: 7559 0abf 22b6 b43d be57 91be bb60 37bf
000001d0: dfef e83d a366 cdbc 1cb0 8f3e 325c a23d
000001e0: 54e8 1cbd 8bf3 f53e 74f1 cd3d 763f 153f
000001f0: cff0 2bbe 8a90 c5be 61b4 89be b9d5 0c3f
00000200: 054f 4fbd 1026 c13d ed95 813e 694b c93d
00000210: e9e7 1ebf 4622 dbbe e409 7bbe ec64 cb3e
00000220: 711d e43e f16d 0abe 739a 683e b7c5 fbbe
00000230: 3ec9 d23e 14f8 eebe b162 9dbe edc9 ddbe
00000240: 09ba f23e 9e2f 513e bdf9 563e 1f85 bfbe
00000250: 562e 84bd bfab 57be 454c 913e f77a 083f
00000260: f1ea f0bd 1e59 253e 5380 59be 5516 f1be
00000270: c221 77be ea77 a7be 5a37 de3e 9e12 03bf
00000280: 772c 02bf f4cc e73d 1208 1abf 8167 01bf
00000290: b8c4 173f fe6d 87be 7b4a 4bbe 53b4 973d
000002a0: 48a0 f33e 02ce 163e 3e91 0abf 9894 7cbe
000002b0: 6cb5 5b3e 5733 883d a106 dc3d 14e9 bfbe
000002c0: 8cad 09bf dd01 e8be 163f 6abe 7216 04bf
000002d0: a09e 63be af46 e73e 65f7 0c3e 9f5c c83d
000002e0: beb6 5fbe 1c9d 08bf 7385 a0be 8f0d e03e
000002f0: f43e 723e a5c6 113f 7811 0a3f 2da1 66be
00000300: ce39 bd3d 16c2 9d3e c21d b53e 640d a43e
00000310: c7b4 afbd 06e7 d33e 98c4 eebe e597 c6be
00000320: a78d 97be 9c18 c5be 59b6 51be c6d7 bbbe
00000330: 4960 14bf 33cc e43e ddf1 fcbd fefb a1be
00000340: 4d6a 72bd 1405 0b3f 7b14 913d 5867 82bd
00000350: fce3 c5be e5fe e63c 7ff7 d4be ee27 9ebd
00000360: a5ef 03bf f309 053f 5e96 53bd 5094 463e
00000370: 1de1 593e b825 22be 706e 9a3d 5f0e 333c
00000380: 7000 933e baff f03d 6b11 e63e 951e 023f
00000390: 03ff 3c3c 3aea 88bc 9f02 97be 55a2 533e
000003a0: aa73 83be 911c 29bf 994f aa3d 7e2e a03e
000003b0: 05e7 603e 2a1c 503e a10d 40bf feb9 82be
000003c0: 3041 ccbe add8 f9be 6d1d 9ebe 8e6d 82be
000003d0: 888a 193f 5c40 b4be cee0 073e b045 cfbe
000003e0: 90d1 1cbf 86e3 a63e dfe5 04bf d143 013f
000003f0: 8a14 81bd 2c58 17bf 69dd 903e 67e7 ec3d
0.20987779 -0.032163568 0.28679314 -0.41834822 0.047336712 0.49146834 -0.19188097 -0.01626739
-0.582629 -0.50236166 -0.4518628 -0.49003533 0.054857932 0.17348415 0.18334036 0.36758715
-0.30219042 0.59989977 -0.047335114 -0.51592106 0.5108279 -0.6004201 -0.10720217 0.14877576
0.1402086 0.659374 0.42665395 -0.5697396 -0.004373805 0.48975185 0.033959877 -0.0503172
-0.2923526 -0.3832791 -0.44219047 -0.008974998 -0.41504455 -0.08752788 -0.341608 0.047656517
-0.0710259 -0.3499231 -0.48664418 0.4956148 -0.4071437 -0.020593563 0.19378734 -0.045442365
-0.35556698 -0.53198236 -0.2574957 0.40383786 -0.33818647 -0.32798228 -0.11873755 0.2522
0.16939108 -0.58473086 -0.41930884 -0.002315187 -0.054089412 0.23657613 -0.3807324 0.122036904
0.45688358 0.46659103 -0.29332662 -0.25347707 -0.08106248 0.53631866 0.49629584 -0.12088491
0.3223066 -0.52581304 0.41555515 0.528345 0.15109532 -0.042431775 0.1802468 -0.31414786
-0.3050444 -0.48994452 -0.64598453 -0.06776689 0.10514741 -0.5597065 -0.20547576 0.20350695
-0.31036377 0.16829987 0.4363124 -0.44726413 0.47314718 -0.23141366 0.58647424 -0.42239603
-0.4738533 -0.36862245 0.17975129 0.54004604 0.002051239 0.5445028 0.069118164 0.13776252
-0.48810044 -0.04043618 0.37076378 0.09483278 0.4729918 -0.41838297 -0.18135215 -0.45915562
-0.5404275 0.088238016 -0.28387254 -0.71631974 0.11373877 -0.025073355 0.28064048 0.07927741
-0.038307503 0.4803737 0.10055819 0.5829996 -0.1679108 -0.38586837 -0.2689543 0.55013615
-0.05061247 0.09431088 0.25309697 0.098288365 -0.62072617 -0.42799586 -0.24515492 0.39725435
0.44553712 -0.13518502 0.22715168 -0.49174282 0.4116916 -0.46673644 -0.30739358 -0.4331812
0.4740756 0.20428321 0.20993705 -0.3740625 -0.064541504 -0.2106161 0.28378502 0.5331263
-0.117635615 0.16147277 -0.21240358 -0.4708735 -0.24133971 -0.32708675 0.43401605 -0.5120028
-0.508491 0.113183886 -0.60168564 -0.5054856 0.59284544 -0.26451105 -0.19852631 0.07407441
0.47583222 0.14727023 -0.5412787 -0.24666059 0.21455926 0.06650417 0.10743452 -0.37482512
-0.53780437 -0.45313922 -0.22875628 -0.5159675 -0.2222848 0.45171115 0.13766249 0.09783291
-0.21847054 -0.5336473 -0.31351814 0.43760344 0.23656827 0.5694373 0.53932905 -0.22522421
0.09239541 0.30812138 0.35374266 0.32041466 -0.085794024 0.41387194 -0.46634364 -0.3878776
-0.2960026 -0.38495338 -0.20479716 -0.3668806 -0.5795942 0.44687042 -0.12350819 -0.31637567
-0.059183408 0.54304624 0.070839845 -0.063673675 -0.386505 0.028197715 -0.41595075 -0.0772246
-0.51537544 0.51968306 -0.051657073 0.19392514 0.2127728 -0.15834701 0.075405955 0.010928719
0.2871127 0.11767526 0.44935164 0.50827914 0.011535409 -0.01671325 -0.29494187 0.20667394
-0.25674182 -0.66059214 0.08315963 0.3128547 0.21963127 0.20323244 -0.75020796 -0.25532526
-0.39893484 -0.48798123 -0.30881825 -0.2547421 0.59977007 -0.35205352 0.1326935 -0.40482855
-0.61257267 0.32595462 -0.51913255 0.50494105 -0.06302746 -0.59118915 0.28293923 0.11567574

layer.gru_unit.weight_ih f4 [384, 128]
00000000: 8621 c93d 3082 53be 716e 83bd 4c42 30be
00000010: 9960 b33e 825f 3abd c767 4b3e 2af7 07be
00000020: 7bfa bfbe d815 28be 798b 9abd 23cc a93d
00000030: dea8 60bc a31e 1abe b607 21be 5856 a0bd
00000040: e406 803d ea9e ac3c 4ca5 9cbe e824 9dbb
00000050: e849 513d c978 9dbb 27f9 2abd 07db 84be
00000060: fa6b 70bd 9f2a fc3d ae46 88bd 9ea1 683d
00000070: 8129 553b 42ac 7c3e 873b ed3d 6814 803e
00000080: dde7 a03c 2f98 82be 700d 42bd ebd6 6ebd
00000090: 3a70 5cbe 49ff 483e 1ec8 babb e3c8 1b3e
000000a0: eab9 46be 44fa 85bd 0da7 a2bd fbcc d13c
000000b0: c7f1 88be c82a 53be f2f6 c73d 7397 113d
000000c0: 2362 a6bc 2c67 edbc 30d9 a53e 521d 9c3d
000000d0: e7a0 df3d 59d3 463e c408 193d 50bc 6d3e
000000e0: 3c66 193e a7fa c93c 822a 343e 819c 0fbe
000000f0: c61f cabc b5b5 5c3d 602d 16be b4bf 553e
00000100: 7b13 fa3d f173 8cbc aadd 2bbd a434 833e
00000110: 8b29 a43e b115 bbbd f37f 6fbc 984d 0d3d
00000120: e426 46bd ec5a 1c3e d8a9 1e3d b09e 343d
00000130: 53d3 f83d eb83 b03d 813e ae3d 39ff bcbd
00000140: 540b fabd 7d50 7f3d 9d81 803d 2363 5dbc
00000150: 87b4 81be 3746 4ebe 495f 61bd 888d ad3c
00000160: 48bd 8a3d 5f57 cdbd 0923 1d3e 760c 553d
00000170: 854e f83d 2e3e bb3d 1984 a83d 9a05 313c
00000180: d03d 4f3e 5b28 b43c a658 0abe 5fba a7bd
00000190: c0e8 f73b b322 de3d 3aad 81be 3896 c03d
000001a0: 77b8 e63d fd79 0cbe d357 05bd c02d 02be
000001b0: d63b 01be d644 3e3c 395c 813d 6aa4 083e
000001c0: aa39 5cbd 4cba 30be b7fb f6bd 9323 ccbd
000001d0: 00f4 89be ff1e 77be eca2 9bb8 9871 69bd
000001e0: d1da 30be df8c c9bc 81e9 773e 68e6 e13c
000001f0: bd1b 1c3e 0c75 0cbd 12d5 153e f589 9d3b
00000200: bc4b 173c 1093 8a3d dfc1 6cbd 6c46 263e
00000210: 2e98 0dbe bdb2 8e3d 745c 943d a017 4c3c
00000220: b433 153d 578c 493d a9ea 51bd 1e16 fabc
00000230: c441 06be ecdb 3ebc 3e38 663c 9168 2ebe
00000240: c492 273e ba26 4f3e 2da8 58be 121e 8a3c
00000250: a708 9dbd 264d 45bd cd37 1c3d f6c6 41bd
00000260: 831d 19be 91cb 133d 575f da3d 5c13 dfbd
00000270: 1e63 85be 51e1 c23d 732d 9abe a7d9 dcbd
00000280: 3b31 5b3e 34ad 4c3e 0bf7 753c aed4 ab3d
00000290: f67a 8dbd e5d5 d43d feaa dabd 3b2d 47be
000002a0: c17d 28bd 09c4 443e 62ca 92bc 1271 8b3d
000002b0: a2fe e4bd 45be 463e 35d8 53bd 0905 85bd
000002c0: e337 8abd 400d 403e 1146 b9bd 32b8 913d
000002d0: 072c 42be 99c2 e7bc ba05 1cbd 4670 db3d
000002e0: ce9e 62bd 2d03 ab3d c697 503d dd70 223e
000002f0: 6465 58be fdff c03d 5857 15be 321f 1dbe
00000300: 7935 9e3d 23f9 4f3c 598a ae3d 9299 973e
00000310: c4e0 2abe 3c9d babc 0c31 3c3e 78fd ae3e
00000320: c9a5 94bd 0c68 3b3e 5df6 ed3c 7eab 11bc
00000330: b4f0 a3bd cf92 3cbd f292 4dbd 2a04 ebbd
00000340: 1c4a 38bd b615 203e a0df 793d f6e0 b03c
00000350: f419 afbd 63df 1a3e ee1f 8fbe fc4c bb3d
00000360: 692c e2bd e98e 94bc 25c8 d2bd f5da ee3d
00000370: a469 ddbd ee48 7c3e 74ac ab3d 7226 49be
00000380: 9a7c 833d e342 203e e9eb 393e 5e66 6abd
00000390: 570f 8c3c 37df 993c fe18 a9bd 2d4d 0c3d
000003a0: 2f87 b9bd 90df d4bc 1ef1 9bbd d52d a7bd
000003b0: 7d2e 073c bd20 adbd 673f db3d ea93 eebd
000003c0: 1697 d8bd 59a9 08bd 5856 843d a91e 8c3e
000003d0: 588f b03e 2841 883e df46 76bd a490 f7bd
000003e0: 5798 a4be abc3 3abc 5ac4 083d 73d7 233e
000003f0: bc62 503e 4522 18be 2ab1 c93e db53 4abd
0.09820847 -0.20655131 -0.064175494 -0.1721279 0.35034636 -0.04550124 0.19863807 -0.1327788
-0.3749579 -0.16414583 -0.075461335 0.08290889 -0.013712136 -0.1505075 -0.15725598 -0.07828969
0.06251314 0.02107187 -0.30594862 -0.0047956593 0.051095873 -0.0048056585 -0.041741516 -0.25948355
-0.058696724 0.12312817 -0.06654106 0.056794755 0.003252596 0.24675086 0.115836196 0.2501557
0.019641811 -0.25506732 -0.047376096 -0.05831043 -0.21527186 0.19628634 -0.0057001254 0.15213351
-0.19406858 -0.06541875 -0.07942019 0.025610438 -0.2674696 -0.20621789 0.09763898 0.035544824
-0.020310467 -0.02897986 0.32392263 0.0762278 0.109193616 0.1941656 0.037361875 0.23216367
0.14980406 0.024655653 0.1759434 -0.14024545 -0.024673354 0.053884227 -0.14665747 0.2087391
0.12210747 -0.017145129 -0.041959442 0.256261 0.32062945 -0.09134997 -0.014617908 0.034497827
-0.048376933 0.15269059 0.038736194 0.04409665 0.12149682 0.08618911 0.085080154 -0.09228367
-0.12209192 0.06233262 0.06274722 -0.013512406 -0.25333044 -0.20143972 -0.05502251 0.021185651
0.06774384 -0.1002643 0.15345396 0.052013837 0.121243514 0.09142719 0.08228321 0.010804558
0.20238423 0.0219919 -0.13510379 -0.08189844 0.0075655878 0.10846462 -0.25327474 0.09403652
0.112656526 -0.1371841 -0.03255446 -0.12712765 -0.12620482 0.011613091 0.06316418 0.13343969
-0.05376593 -0.17258567 -0.120597295 -0.09967723 -0.2694397 -0.24132918 -7.4213225e-05 -0.056993097
-0.17270972 -0.024603305 0.24210168 0.027575687 0.15244956 -0.034291312 0.14632061 0.0048077055
0.009234365 0.06766331 -0.057802077 0.16237801 -0.13827583 0.06967685 0.072441965 0.0124568045
0.03642626 0.049206104 -0.05124918 -0.030528124 -0.13111025 -0.011649113 0.014051495 -0.17032076
0.1636458 0.20229617 -0.21157904 0.016860042 -0.07667666 -0.048169278 0.038139153 -0.047308885
-0.14952664 0.036082808 0.10662716 -0.108923644 -0.26052183 0.09515632 -0.301128 -0.107837014
0.21405499 0.19987947 0.015012513 0.08390175 -0.069082186 0.1039236 -0.106771454 -0.19450848
-0.041135553 0.19215406 -0.01791877 0.06808676 -0.1118138 0.1940852 -0.051719863 -0.06495101
-0.06748941 0.18755054 -0.09046567 0.071152106 -0.18962108 -0.028291034 -0.0380914 0.10714774
-0.05532723 0.08350215 0.050925992 0.15863366 -0.21132427 0.09423826 -0.145841 -0.15343931
0.07725043 0.012693676 0.085224815 0.29609352 -0.16687304 -0.022780053 0.18378085 0.34177756
-0.072581835 0.1830141 0.02904814 -0.008890985 -0.08004895 -0.046038445 -0.050188966 -0.114754036
-0.04499255 0.15633282 0.06100428 0.021591645 -0.08549872 0.15124278 -0.27954048 0.09145543
-0.11043627 -0.018134551 -0.10292081 0.116628565 -0.10811165 0.24637195 0.08382502 -0.19643572
0.0642025 0.15650515 0.18156399 -0.05722653 0.017097158 0.018783195 -0.0825672 0.034253288
-0.09058987 -0.02598551 -0.07614349 -0.08163039 0.00825083 -0.0845351 0.107054524 -0.11649306
-0.10575692 -0.033364628 0.06461781 0.27367142 0.34484363 0.2661221 -0.06012618 -0.12088135
-0.32147476 -0.01139919 0.03339038 0.16000156 0.20350164 -0.14856823 0.39392978 -0.049396377

layer.gru_unit.weight_hh f4 [384, 128]
00000000: babb 53be d0cd aabd 87ae afbd 3880 83bd
00000010: 21e7 5a3d bee1 61be 828a 4f3b e4da 84bd
00000020: dcd4 a4bd b63d 29be 5fc1 b73d 9fa1 89be
00000030: 06c2 8abe 1d8b 4abe 1db4 cfbe 5af8 473d
00000040: 6088 1bbd 0698 60bb b47f a1be e8a4 01bd
00000050: c921 123d 5331 9cbd 552a 983d 5d6d e23d
00000060: 0b81 ffbd c895 debd 0776 4abe 4271 3bbe
00000070: b2ba 11bd 61d1 0d3d 6d7a 64be 2c5f dd3c
00000080: a4fd e3bd bd71 14bd 391c aabd c7f4 ccbb
00000090: 5273 a0bd 62eb b4bc 6a35 313d 2fc0 32bd
000000a0: ef06 bdbd edec 95bb e285 373d ef45 f63c
000000b0: 6f15 7fbe 7559 a5bd 21aa a2bd 96d0 cb3c
000000c0: 1893 78be c581 abbd 3588 71bd 0293 30be
000000d0: 59eb c83c 8bf4 5abd b9ac 963c ea4b 0b3e
000000e0: 2746 8ebe 25a5 9fbe d975 30be 1153 45be
000000f0: 3b11 a23e 19aa 80be 016d 9f3d 4f98 3dbd
00000100: d601 bfbd 58cc d1bd 2fc3 c0bc a03d cdbd
00000110: 35a5 7ebd 0ebd d1bd c631 bebd 6e4b 1e3e
00000120: f27e c73c c35f 66be ea12 a23d 7c5a 61be
00000130: 8416 89bc 2fd4 70bd a36b f93c 0c36 443d
00000140: 177a 95be b6a2 a6bd 2b2e d33e a546 3fbe
00000150: 7509 22bd 783c 28be 76f1 dd3d a640 153e
00000160: 499e 983d 1065 46be 16af 8c3d 5e54 823d
00000170: 260c abbe 95ab 8dbd 0e33 ecbc 14d2 173e
00000180: 725a 95bd da63 2f3d a5f8 3ebe 030b 0abe
00000190: f73b 46be 5103 bd3c 872b 983e 9d56 b2be
000001a0: 6f36 98bc ad11 7d3e 9669 3bbe c890 0dbe
000001b0: 9972 483e 4331 28be 8eb9 dcbd dbae 7bbe
000001c0: 7322 9fbd 5145 02be f238 9f3c 05f3 26be
000001d0: fc5b 35bd 9f1b 863e 41ff 143e cf0b bc3d
000001e0: f20a ae3d f638 23be fa42 56bc 6b42 333d
000001f0: e01d 25be 8e3c 96bd 5a53 97be 0bf9 ac3d
00000200: e888 0b3e 5d03 113e b5d1 063d 289c 593e
00000210: 5586 9a3e ed35 7c3e f9a8 15bd fdbf 053e
00000220: b47d 9e3e a9a6 e6bc 05c8 2e3d 3c97 f93c
00000230: e552 babb c048 69bd bc17 bfbd d945 09bd
00000240: 82ef 7fbd 4eec d33d b60f b5bc b1d8 69be
00000250: f0fe 373e f27c 903d dfec 0b3e 3aaa 17be
00000260: 775c 763e cf23 81bd fddf 73be 8e2c c13e
00000270: 830b e2bd 8b75 a63d ed5b 05be e635 cb3d
00000280: 26af 1bbd 325e 04be 87a8 6c3d 73a8 453d
00000290: bd06 b7bd f665 70be 1717 8e3b f76c 1d3f
000002a0: bcd8 133e 9ad8 4cbe 01b2 993d c07a 1abe
000002b0: b3b4 443e 5c84 073e 30ec 093d 8ac2 823e
000002c0: 8808 d03e adc5 f8bd 31f2 643e 9cec 483d
000002d0: 06bf c83d 960a 7abc 81e0 8fbd 1935 c83e
000002e0: e64d 11be 67ac a03c 6e3b 6c3e 72c1 a1bd
000002f0: 47fd 153e c8a9 813e 6fb6 9b3d 96e2 2f3d
00000300: f0ad e7bd 0f63 793d d9cd 993e a7ef 953d
00000310: aeb6 dc3d 57ec 173e cd29 4bbd 1cef 123e
00000320: 38f6 ea3e 1532 b7bd d9ac 903c 268a 89be
00000330: 49ca 9b3d 9305 3e3e 729c 483e 4a5f 86bc
00000340: 9f8c be3d 5c91 dcbb 79c7 8e3e 54d7 aa3d
00000350: 8e2a 153e f675 113e d8a8 ac3e 3cf1 233d
00000360: 85bd cf3d 2f0b b43e 5874 853e 402b a9bd
00000370: 4a0b 09bd a697 d2bb bd8f 183e ad7c 553c
00000380: 1081 6e3e 1ab0 b4bd 1919 0a3e c071 c7bd
00000390: 6544 503d 37ff 08bd 6d5f db3d e301 b33d
000003a0: 4896 d23d b82d 263e 80f7 d43d 2a94 b73e
000003b0: 42ce 313d ec7a b23d bb60 183e 9ca7 06be
000003c0: 47c2 a53b 3480 f7bd e00a ab3d 09f2 99ba
000003d0: 2b46 bcbd 9b0b 003e 3551 173d d6bd b93e
000003e0: b4bd 3cbb 1ca4 aabc 8e0e 29bd 48ce ad3d
000003f0: 35fa 3cbd bf27 af3e d8be 2b3e b7dd 173d
-0.20677081 -0.08340037 -0.0857821 -0.0642094 0.053443078 -0.2205877 0.003166825 -0.064870626
-0.08048412 -0.16527447 0.089724295 -0.2688112 -0.27101153 -0.1977963 -0.40567103 0.04882083
-0.037971854 -0.00342703 -0.31542742 -0.031651407 0.03567675 -0.07626595 0.07429949 0.11056016
-0.12475785 -0.10868412 -0.19771586 -0.18304923 -0.035578437 0.034623507 -0.22312327 0.02702292
-0.111323625 -0.03624128 -0.08306164 -0.0062547657 -0.078344956 -0.022084896 0.04326383 -0.04364031
-0.09229838 -0.004575363 0.044805415 0.030062644 -0.2491052 -0.08073703 -0.07942606 0.024879735
-0.24274862 -0.08374361 -0.058967788 -0.17243579 0.024526285 -0.05345587 0.018392907 0.13603178
-0.27787897 -0.31180683 -0.17232455 -0.19269969 0.3165377 -0.25129774 0.07784463 -0.04628783
-0.09326522 -0.102440536 -0.02353057 -0.1002152 -0.062169272 -0.102411374 -0.09286837 0.15458462
0.024352524 -0.22497468 0.07913764 -0.22007173 -0.01673437 -0.058796104 0.030446833 0.047903106
-0.2919471 -0.081365034 0.4124616 -0.18679293 -0.0395598 -0.16429317 0.10837071 0.14575443
0.074520655 -0.1937449 0.068693325 0.06363748 -0.33407706 -0.06917492 -0.028832939 0.14826232
-0.07292642 0.042819835 -0.18649538 -0.13480763 -0.19358812 0.02307287 0.2972071 -0.34831706
-0.018580643 0.24713774 -0.18301997 -0.13824761 0.19574966 -0.16425042 -0.10777579 -0.24578421
-0.077702425 -0.12721755 0.019436333 -0.16303642 -0.044277176 0.26192948 0.14550497 0.0918194
0.084981814 -0.15939698 -0.013077492 0.043764513 -0.16124678 -0.07335769 -0.2955578 0.08445939
0.13626444 0.14161439 0.032914836 0.21250975 0.30180612 0.24629946 -0.036538098 0.13061519
0.3095528 -0.028155642 0.042671222 0.030467622 -0.0056861513 -0.056954145 -0.09330699 -0.033513878
-0.06248427 0.10347806 -0.022102218 -0.22836567 0.17968345 0.070550814 0.13664578 -0.1481103
0.2405871 -0.06305658 -0.23815913 0.37729305 -0.11037352 0.08127888 -0.13023348 0.0992239
-0.03800883 -0.12926558 0.057777908 0.04825635 -0.08936832 -0.23476395 0.0043362486 0.6149439
0.14438146 -0.20004502 0.07504655 -0.15085888 0.19209556 0.13234085 0.03367251 0.25539047
0.4063151 -0.12147079 0.22358014 0.049053773 0.0980206 -0.015261313 -0.070252426 0.3910301
-0.14189872 0.019613458 0.23069546 -0.07898225 0.14647399 0.25324845 0.07603156 0.0429407
-0.11312473 0.060885485 0.30039862 0.07321101 0.10777031 0.1483625 -0.04960041 0.14349025
0.45890975 -0.08945099 0.017660545 -0.2686321 0.07606942 0.18556814 0.19590929 -0.01640286
0.09304165 -0.0067311954 0.2788656 0.08341852 0.14567015 0.14205155 0.33722568 0.04002498
0.1014357 0.35164782 0.26065326 -0.082602024 -0.03345803 -0.0064267693 0.14898582 0.013030213
0.23291421 -0.08822651 0.13486136 -0.09738493 0.050846476 -0.033446517 0.107115604 0.08740594
0.1028257 0.16228378 0.103987694 0.35855228 0.043409593 0.08714852 0.1488065 -0.13149875
0.00505856 -0.12085 0.083516836 -0.0011745106 -0.09193071 0.12504427 0.03694268 0.36277646
-0.0028799595 -0.020830207 -0.041273646 0.08486611 -0.046137054 0.3421001 0.1677202 0.037076678

layer.gru_unit.bias_ih f4 [384]
00000000: 469c bcbd 498c 313d 7cb6 953d 4797 04be
00000010: 0d17 8a3c ec75 0abd e0ff 213d a974 e9bb
00000020: 6ef2 cd3d 6228 873d 48c0 263d 51b5 81bd
00000030: 43df b5bc 83a8 603d 9bf1 753d 35c9 003e
00000040: 1491 49bd 612d b33c 278c 493c 9282 b63d
00000050: 261e aabd 04fb a63d 95cd b7bd f0a2 8dbd
00000060: d4c6 eebd 9433 393e 3bbe 0e3e 0433 1f3d
00000070: 17c2 8d3d cf34 f13c 4bb6 70bc feac 54bd
00000080: 2039 ddbd 20a7 32bd 9774 9abd 49ad 063e
00000090: 081d c13c bce7 453d b595 6e3c 00c0 103b
000000a0: 0b87 0e3e e154 ea3d 4bed 823d d609 0f3d
000000b0: a778 913d f133 413e 33f2 39bd 4a98 a4bb
000000c0: 07f9 533c 5265 a53d d96f 023e 4c9c bebd
000000d0: d510 dabd dce5 983b 0616 833d ca84 a73d
000000e0: 78ad af3d 0f76 f8bc 6094 143d 933f e73d
000000f0: 3210 463e 512d c439 e2a0 74bc d950 f73d
00000100: c63a f0bd f0ec ca3c cebe 8f3d 8ec9 0b39
00000110: 14de 15be 1e4e d4bd f935 243d 04e6 203d
00000120: 73d8 0e3d 57c0 4d3d c291 6abd 604d dd3d
00000130: eebc aebd 4f47 c7bc ee75 0d3e 8105 903c
00000140: aca1 123e ff95 78bc 91ab 833c 7ace 333c
00000150: f9bd 86bd da8d 2f3c c5cf 21bd 2a19 4ebc
00000160: d5da 923c 9984 4abd 498b 483e 9ad6 11be
00000170: 9955 3dbd 4a13 5f3d e024 e9bc 8b70 f53d
00000180: 151a fe3c b746 193d 4890 a43c 5647 863d
00000190: 9878 953d 2410 ef3d 3617 32bd fed6 e63c
000001a0: 3106 67bc 41bd f53c 9f98 52bd 020c 9c3d
000001b0: 3e70 ebbd d67c ef3d 263b 193e 3a58 883d
000001c0: 3a5d 113e 4229 38bd 549c 8abb 89ff c6bd
000001d0: 3ac0 0f3d 68e5 193e 66a9 963d ecdb b8bc
000001e0: 4d50 f8bc 901a 5ebd 0bcc 913d 289f ee3d
000001f0: ced8 963d ebd5 45bc 1f71 073d e9a3 e03d
00000200: d4de 1ebe 82c0 fe3c 9ac2 0f3d 5ac2 97bd
00000210: a41b 0e3d eb0c 0cbe aa1a cd3b 847e 4b3c
00000220: a9f6 883d ec03 efbd 68ed f5bb 1a7a 1dbe
00000230: 8916 36bd 248a c1bd 753e 10be c855 693d
00000240: 836f f8bd 57fc f5bb 33df e0bd ea00 fabd
00000250: 1fd1 c93d c391 0fbe 12aa b93c c437 5e3d
00000260: b9c2 4a3c 5f12 88bc 030c 82bd 16c4 583d
00000270: 9ad3 35be cd2c 1abd d188 203d 8b67 7cbc
00000280: 883f 0e3c ae26 d2bc 4ca6 3ebe c67c dc3d
00000290: ad0c de3d 7713 3fbe d26d 4cbe 83f1 f33d
000002a0: 6347 d5bd 501e b6bc 1c1e cfbd 6140 c0bd
000002b0: 1ff3 84bd 054b 1d3c 1584 5f3d de9b 6c3c
000002c0: e8c4 b13d 35af f9bd e670 ac38 1b26 93bc
000002d0: be67 583d 87df 2c3e 332b afbd 81a1 b23c
000002e0: c81c 013e 237a a5bd c4ce be3d acf3 15be
000002f0: 2f92 1bbe 859a acbd f5fe dc3c c6fd 22be
00000300: 0c95 2bbe b727 1cbd 3180 e33d 74d2 7e3b
00000310: 3b03 10bb c38e 50bd eb4e 14bc 3c87 f7bd
00000320: d9a1 45bd 7312 28be f599 f1bc 9370 aabd
00000330: 3a86 9f3c 6c8c 01bd ff8e b638 0d0c b13d
00000340: 3e76 523d 3ad6 98bd 90f1 d83d abe5 f4bd
00000350: 0c53 0f3b d611 373e 1954 5bbc b8df 1abe
00000360: 3c59 51bd b6b1 b53b 75c7 003c bada edbd
00000370: 06cf f6bc 8d8b 9bbd 7fe2 18be a985 1e3d
00000380: 209f 60bd 62be f53c d142 b0bd 71c5 a83c
00000390: cf9b c6bb b472 80bd 30ec b1bd 3a3d 8ebd
000003a0: bd14 733d af2b 5f3d c134 30be 64c5 e43d
000003b0: 6aef 31bd 909d c4bd 2090 b93c fd96 18be
000003c0: b497 ff3d 2917 4abe a28b 81bc e9be 933d
000003d0: 64a7 a4bc abc1 f53c 2fa8 68bb 25e8 46bd
000003e0: 6c9b 50bd d68d 0abe ff02 b43a d61f 6e3c
000003f0: 0db8 fc3d 065b 4dbd 6f54 493d 1515 5f3c
-0.09209494 0.043346677 0.07310197 -0.12948333 0.016856695 -0.033803865 0.039550662 -0.0071245027
0.100560054 0.06599499 0.040710717 -0.063334115 -0.022201186 0.054848205 0.060044866 0.12576754
-0.049210623 0.021872224 0.012301481 0.08911623 -0.083065316 0.08153346 -0.089747585 -0.069158435
-0.11659017 0.18086082 0.13939755 0.03886701 0.06921785 0.029444126 -0.0146918995 -0.05192279
-0.10801911 -0.043616414 -0.07541769 0.1315204 0.023573413 0.048316702 0.01456206 0.0022087097
0.13918702 0.114419706 0.06392916 0.03492149 0.07103091 0.1886747 -0.045396995 -0.005023037
0.012937791 0.08075966 0.12737979 -0.09307155 -0.10647742 0.0046660732 0.06400685 0.081796244
0.085780084 -0.030329732 0.036274314 0.11291423 0.19342116 0.00037417797 -0.014930936 0.12075967
-0.1172996 0.024771184 0.07018815 0.00013331158 -0.14635497 -0.10366462 0.040090535 0.03928186
0.03487439 0.050232258 -0.05726791 0.10805774 -0.08532129 -0.024325995 0.13814518 0.01758075
0.14319485 -0.015172481 0.01607302 0.010974521 -0.06579203 0.010714972 -0.039504785 -0.012579242
0.017926613 -0.04944286 0.19584383 -0.1424202 -0.04622421 0.054461755 -0.028459966 0.119843565
0.031018296 0.037420955 0.02008833 0.06556575 0.07298392 0.116730005 -0.043479167 0.028178688
-0.014100597 0.02999747 -0.051415082 0.07619478 -0.11496018 0.116937324 0.1496397 0.06657453
0.1419572 -0.04496122 -0.0042300615 -0.09716708 0.03509543 0.15028918 0.07356529 -0.022565804
-0.030311728 -0.05422455 0.07118996 0.116514504 0.07365571 -0.012074928 0.033066865 0.109687634
-0.1551469 0.031097654 0.035097696 -0.074101165 0.03469433 -0.13676803 0.006259282 0.0124203
0.06687672 -0.1167067 -0.0075051077 -0.1537861 -0.044455085 -0.09450176 -0.14086325 0.056966573
-0.12130644 -0.007506888 -0.10980072 -0.122072056 0.0985434 -0.14020447 0.022664104 0.0542524
0.012375527 -0.016610323 -0.06349947 0.052921377 -0.17756501 -0.03764038 0.03919298 -0.015405546
0.008682139 -0.02565321 -0.18618125 0.10765986 0.108422615 -0.18659769 -0.19963768 0.11911299
-0.104140066 -0.022231251 -0.10113165 -0.09387279 -0.06491684 0.009600406 0.054569323 0.0144414585
0.08680135 -0.12191621 8.222628e-05 -0.017962506 0.05283331 0.16882144 -0.085531615 0.021805527
0.12608635 -0.08079936 0.09316781 -0.14643735 -0.15192483 -0.0842791 0.026977042 -0.1591712
-0.16756076 -0.038123813 0.11108435 0.0038882764 -0.0021974582 -0.0509174 -0.009052019 -0.12086341
-0.048250053 -0.16413288 -0.029492358 -0.08322253 0.019473184 -0.031628057 8.7050714e-05 0.08644877
0.051382296 -0.074627355 0.105929494 -0.11957868 0.0021869568 0.17877898 -0.01338675 -0.15124404
-0.05111049 0.0055448664 0.007860054 -0.116139844 -0.030128013 -0.075949766 -0.14930151 0.038701687
-0.054839253 0.029998008 -0.08606494 0.02060196 -0.0060610543 -0.06271878 -0.08687627 -0.06945272
0.05934595 0.05448502 -0.17207624 0.11170462 -0.043441214 -0.09600365 0.022651732 -0.14901347
0.12480107 -0.19735397 -0.015813652 0.072141476 -0.02009935 0.029999575 -0.0035500636 -0.048561234
-0.05092947 -0.13530669 0.0013733803 0.0145339575 0.123397924 -0.050135635 0.049152788 0.013615866

layer.gru_unit.bias_hh f4 [384]
00000000: 9bc9 86bc 3ef4 4e3d 9cb4 a43d b04e 61bc
00000010: d48a 0fbc 4422 29bb 3c5f 59bd 7cb8 d0bd
00000020: 4d5f 453d d74c 20bc a479 8a3c d8f5 0bbc
00000030: d97d b93d 33e2 c53d f5a1 893d f20c c33d
00000040: 6a8f da3b 92ec cbbc 9158 11bd e071 173e
00000050: 287d d6bd 7651 143e 73bb 973b 32ae c93c
00000060: 9a42 cabd ae38 fb3d d0b6 093e ce4c c7bc
00000070: 56c2 ae3d 6b27 e23d 9e74 c13c 63cd a6bd
00000080: 07d0 57bd b2bc b1bc c80e 073d e475 1d3e
00000090: 17de e8bd 330f e13d 5d1a e63d 98df b6bd
000000a0: 3246 e63d 41e1 3f3e 8a39 103d 12c2 3c3d
000000b0: 130b f4bc 7bd3 db3c 1eeb 89bd cc69 8e3d
000000c0: 5d0a 553d c3d8 8f3d a0da 50bb 75a9 29be
000000d0: 330a 7fbd 886b 48bc 1803 353e f079 eb3d
000000e0: 4c2c fd3d 9da5 37be 21c3 e53d 1bf7 1e3e
000000f0: d370 3c3d b06e c7bd 3e26 bf3b 3f35 ff3d
00000100: 2af1 75bd c697 c43d ebe9 1f3e a29e 7a3d
00000110: 2f27 abbc d703 3ebc ac3d 3c3d e939 f73d
00000120: ad87 2cbd 6925 213d e2f4 693d d569 553e
00000130: b9ff 213d 4abf bcbd 51d6 853e efa7 3f3d
00000140: 0a95 923d 6655 a63d c3e9 dc3c 2f02 563d
00000150: 793f 86bd e2c3 fabd c505 99bd 62c5 a3bd
00000160: bd54 a0bd 2849 d33b 4bff c83d b15f 18be
00000170: 2a0d 183d 53b9 b03d 76a2 33bd 2968 2b3e
00000180: b545 1a3d 3119 c53d 56ba 083b 8f65 1a3e
00000190: cc9f 973d c9c7 743e 62e7 7e3d cbaf 0e3e
000001a0: 2630 143d 4cb3 aabc f25b c33a 3ad5 8b3d
000001b0: cda0 c1bd 50e5 953d 35c6 003d 336b fe3c
000001c0: 79ed f03d 8768 073c 1528 c33d cca1 88bd
000001d0: 2a3d c23c d4bf ad3b 4f6c 8d3d e259 a53c
000001e0: 8c8b 9abc 20f1 8f3c 4ed6 92bd 657e 0d3e
000001f0: cec2 1a3e 8a9b b5bc a5c9 3d3d 8420 fd3c
00000200: 686c fbbd 9a49 e0bd 5e65 cc3d 3ed1 b43c
00000210: 49bd 99bd 5644 e1bd 176a d4bc 0329 08be
00000220: 074d b03c 1d11 b2bd 0565 afbc 8647 05be
00000230: 8f56 d43c 1422 2abe 2db5 b0bc 978a a53b
00000240: 83f5 38bb 8122 e63c b2bd 6fbd d936 10be
00000250: adcd 6c3d 00b2 11be aeb7 a3bc fb81 a63d
00000260: 59e0 e43d 8157 05be 8853 42ba 6805 053e
00000270: 3cdf bcbc 55f3 00be 73cc 66bd e0cd 9b3d
00000280: 4e2b 833d 1bdd 613d de88 10be dc81 1a3e
00000290: 6846 ab3d 2239 7cbe a241 1bbe bca3 553e
000002a0: 3bfe fb3c ae10 d6bb 6d4f 90bd 2199 453c
000002b0: 6c99 adbd 1b4b 593c bbda 4e3d e22c c43c
000002c0: 6bad 3b3d 9608 39be bca7 01be 5cc0 0f3d
000002d0: 02bd 54bd 3be6 f63d d44a a0bd c537 adbc
000002e0: 3842 c13d 12e5 01bc 5595 09bd 9764 ccbd
000002f0: 3f04 5bbd 377a 853d b018 2d3d 057b ecbd
00000300: 5042 fcbd 26c4 1fbd 497d 203c 7a1e 8bbd
00000310: a7b2 49bd 037d 4dbc 9276 01bd 7976 cabd
00000320: 3f2c 71bd 1f0e d1bc 7b4f 0cbe ee5e 5dbd
00000330: 10c3 46bd d421 063d 1fee 00be 3cf9 4dbb
00000340: d19e ad3b d925 163d c534 af3d 0dbe 07be
00000350: ecaf 473d d5ed f03d 25b8 01be 6fe2 d4bd
00000360: 0741 873d 548a a73d e046 d03b 88eb 3fbe
00000370: 7d96 28bb 2ec9 66bd 912c 19be ae4f 6abd
00000380: afc7 833d 21c5 d1bd 06a6 a2bc 1195 03bc
00000390: 2f5c c9bc e3dd 6a3d 9202 3a3d 485f afbd
000003a0: 3235 153e 5708 663c cbfe d1bd f83b 093e
000003b0: 0e01 793c 9f0a 60bd e53e 673d a31b 13be
000003c0: baca 0c3e 63cb dabd bd34 343d 0a21 f53b
000003d0: 27bf 443c 4d23 0abd d51f 1c3d a877 913d
000003e0: 8ba1 91bd 4e89 0fbd 46dd 6abd becd 78bd
000003f0: 63f4 8a3d ba44 08bd 8122 083d c5a6 ffbd
-0.016453555 0.050525896 0.08042261 -0.013751671 -0.008761127 -0.0025807777 -0.05306934 -0.101914376
0.04818659 -0.009783945 0.016903706 -0.0085425 0.09057207 0.09662285 0.06720344 0.095239535
0.0066699283 -0.024893079 -0.035484854 0.14789534 -0.104730904 0.144842 0.0046305 0.024619196
-0.098759845 0.1226667 0.13448644 -0.024328616 0.085331604 0.11042675 0.023615178 -0.08144643
-0.052688625 -0.021696422 0.03297308 0.15377003 -0.11370485 0.10989227 0.11235497 -0.08929366
0.112438574 0.18738271 0.035211124 0.046083517 -0.029790437 0.02683424 -0.06734298 0.06953773
0.052011836 0.07023766 -0.0031868592 -0.16568549 -0.062265586 -0.012232669 0.17676961 0.11497867
0.123619646 -0.1793427 0.112188585 0.15523951 0.046006035 -0.09737909 0.0058334162 0.12461328
-0.060044445 0.09599261 0.15616576 0.06118644 -0.020892708 -0.011597595 0.045957252 0.12071592
-0.042121578 0.039342318 0.057118304 0.20841153 0.039550517 -0.09216173 0.26140073 0.046791013
0.07157333 0.08121757 0.026966935 0.052248176 -0.06555075 -0.12244393 -0.074718036 -0.07996632
-0.078286625 0.00644793 0.09814318 -0.14880253 0.03712193 0.08629098 -0.043856107 0.16738953
0.037664134 0.096239455 0.0020863018 0.15077804 0.07403526 0.23904337 0.062232383 0.13934247
0.03617873 -0.020837449 0.0014904721 0.06827779 -0.094544984 0.073191285 0.031439025 0.031056976
0.11764044 0.008264667 0.095291294 -0.06671485 0.023710806 0.0053024087 0.06905424 0.020184461
-0.01886537 0.017571032 -0.071697816 0.13817747 0.15113375 -0.022168893 0.04633488 0.030899294
-0.12276536 -0.109515384 0.09980272 0.02207243 -0.075068064 -0.10999362 -0.025929494 -0.13296895
0.021521104 -0.0869467 -0.021410475 -0.13015565 0.02592018 -0.16614562 -0.021570766 0.0050519216
-0.0028222508 0.028092625 -0.058530517 -0.14083423 0.057813335 -0.14228058 -0.019985046 0.081302606
0.111756034 -0.13021661 -0.000741296 0.12990344 -0.023055665 -0.12592824 -0.05634732 0.07607627
0.06404744 0.055142503 -0.1411471 0.150886 0.08363038 -0.2463117 -0.15161756 0.20863241
0.030760875 -0.00653275 -0.07046399 0.012060435 -0.084765285 0.013262535 0.050501566 0.023947183
0.04581968 -0.18069682 -0.12661642 0.035095558 -0.051938064 0.12055632 -0.07826772 -0.021144757
0.09436458 -0.00792815 -0.03358968 -0.099801235 -0.053470846 0.06517451 0.042259872 -0.115469016
-0.123173356 -0.03900542 0.009795495 -0.06792922 -0.04924264 -0.012542012 -0.031607218 -0.09885878
-0.058880087 -0.025519429 -0.13702194 -0.05404561 -0.04852587 0.032747105 -0.12590836 -0.0031429073
0.0052984734 0.036657188 0.08554987 -0.13256092 0.048751757 0.11764113 -0.12667902 -0.10394751
0.066042 0.08180681 0.006356105 -0.18742192 -0.0025724464 -0.056344204 -0.14958407 -0.057204895
0.06434571 -0.102426775 -0.019854557 -0.008031146 -0.02458009 0.057340514 0.045412607 -0.08563095
0.14571074 0.014040074 -0.10253676 0.13401783 0.015198005 -0.05469763 0.056456465 -0.14366011
0.13749209 -0.10683324 0.043995608 0.007480745 0.012008465 -0.03372507 0.038116295 0.07102901
-0.0711089 -0.035043053 -0.05733993 -0.060743086 0.06784894 -0.033268668 0.03323603 -0.12482981

mlp.0.weight f4 [128, 128]
00000000: 0e99 893d 0152 453c c6d7 04be 3b0e 22bb
00000010: c2ff 1b3e cff4 b43d d7ca 173e 71bb 833d
00000020: bedb 523d c003 173c 1faf 6abd 556c 36bc
00000030: 07a1 a9be 7f75 fe3d 57a8 78bd 629c 163e
00000040: 296b 5c3b 78ca a43d b867 26bc 3339 c8bd
00000050: ebb9 093e 1703 de3d 0660 acbd b95e fb3d
00000060: af27 273c c90c 7bbd 1ebb 0f3e 7f20 27be
00000070: a815 f33e 1e7d 883d 1a1b 0cbd d3ae 81bd
00000080: c7b6 b4bd 33ce b0bd 79d3 db3d c337 78be
00000090: 93c7 f73d 02ea dbbd a24e 98bd 77e6 7bbe
000000a0: ce24 dc3c f2f9 c1bd ce1b 013e 62ca ca3d
000000b0: 603d 99bd d2cb ce3d 2cab 8b3d d3e6 293e
000000c0: 02c3 a5bd c248 f43c 9912 913d 3c84 0cbd
000000d0: caea 133d a7e1 e93d a6eb 403d d4e3 b1bd
000000e0: 385f cfbd a016 7abd 9453 18bd 432d 203e
000000f0: eefc ffbd b758 a1bd f300 333d d46b bf3d
00000100: 877f a73d 9dd1 01bd 4249 d1bc c578 ed3d
00000110: f490 14be be22 8cbc 61de b2bd c64d cd3d
00000120: a5b2 043e a931 5bbd 13f1 c83d 1b70 183d
00000130: 2f4f 79bd 0389 99bd 9290 843e 2a25 98bc
00000140: 3cbf 21bc e937 ac3c 1528 293d 303c 3b3e
00000150: 4887 95bc ce53 17be 81b3 66bd 9002 c0bd
00000160: 30d5 a1bb 55ee 1dbe c4a4 68be acb8 b93d
00000170: 9d77 93bc f3d8 0d3d 32f6 4c3d 8748 91bc
00000180: 70d4 40bd 2e76 0f3e 8b09 313c 74c3 28bd
00000190: b1c7 033e 150e 35be b6a5 ae3c 9213 3f3d
000001a0: 8ced a93d af19 963c bcd2 483c c8e9 85be
000001b0: 8674 4ebd 5567 163c 815d 0dbe 0e57 453c
000001c0: 3d3d 21be bd84 cbbc c217 6b3c 8d9e 46be
000001d0: 6a31 abbd c8fa 8b3b c6fd cabb e5b9 eebc
000001e0: 0f64 103d a34a cd3d a563 853b a489 a4bd
000001f0: b1a8 8bbe 237f d73d 4542 e43c 9a26 453c
00000200: d528 a9bd 323c 48be 3835 483d a3c0 023e
00000210: 5f4b 5b3d 47ab c73d f959 553e 9900 51bd
00000220: 89c2 5bbd 7a46 a2bd e3b7 41be a5c8 c93d
00000230: bad7 8cbe 89d2 153d 5242 263e d74c da3d
00000240: 9756 74be cbc2 83bd 0e58 a13c a565 9dbd
00000250: 23f8 953e 79f0 193d 0f4e 01bf 10ab c1bc
00000260: c03f a5bd ea32 a6bc 0e72 c63d 2bbf 9e3d
00000270: 5032 9b3e b15d 3f3e 51cd 7a3d 3545 593c
00000280: 8857 7bbe 791f e5bd b612 943e b2da 3bbd
00000290: 1c13 b13d a934 92be 1095 42be 7c58 25be
000002a0: a8cc 1c3d b491 943e cb84 883d 1267 5c3c
000002b0: 9f79 93be 4dbf 38bd c926 5bbd 275c 82bd
000002c0: 8eb1 733e 5efa d8bc 4e70 f3bd a6d5 973d
000002d0: bd48 8d3d 5a04 bcbc cb90 5c3d c2c1 a2be
000002e0: 97a5 963d 8b56 e1bd 113e 6c3c a03f 6cbe
000002f0: f126 25bf 59f1 f4b9 0f52 033d 1fbb 22be
00000300: a69d 853c a2db 26bd 9bed cdbe 7ca7 ab3b
00000310: e0f1 1abe 82ba 3b3e 0456 42be ee47 d7bd
00000320: 1a38 043e fc6a 1cbe a6b6 a3bd 2568 253e
00000330: 1765 dfbd 7257 ed3d 9fce ee3e 0d12 0fbe
00000340: 0b2c a73d 35dc 9abc 3385 1bbe 7b0c 83bd
00000350: a55e b9bd 8142 9abd 3ab1 ffbd 76fa 91be
00000360: 2d14 733d be0e 92bd c797 f1be 350d 503d
00000370: b456 293e 255b bbbd c4e1 64be 0f6d 2fbe
00000380: a6cc 0b3e 6e27 c8be 20cd 6b3e d528 143d
00000390: 546a 323d 5e8e f23d f31c 6b3d 169f f3bc
000003a0: 857d 9b3d a2f7 c63e f859 373c 571b 0c3e
000003b0: 70c5 bdbd af3e eabd b402 9abe 34f5 123e
000003c0: a233 d43c f510 243e b666 b03c 3cbf 55be
000003d0: 0a56 ae3c 60b9 8b3d 70d9 d9bd 7c09 80bd
000003e0: a7b4 873d 89eb 4c3d c0a7 b9bc acfc 323d
000003f0: e52d 94be ec88 693e e2cd a9be 9000 59bd
0.06718646 0.012043477 -0.12972936 -0.002472772 0.15234283 0.08835756 0.14823471 0.06432236
0.051479094 0.009217203 -0.057295915 -0.011134227 -0.33130667 0.12424754 -0.060707416 0.14708093
0.0033633208 0.0804643 -0.010156564 -0.09776535 0.13449828 0.10840433 -0.084167525 0.12273926
0.010202332 -0.06129149 0.14036223 -0.1632099 0.4747746 0.06664489 -0.034205534 -0.06332173
-0.088239245 -0.086330794 0.107336946 -0.24240021 0.12098613 -0.10737993 -0.07436873 -0.24599634
0.026873019 -0.094715014 0.12608263 0.09901883 -0.074824095 0.100974694 0.06819758 0.16591959
-0.080938354 0.02981985 0.07083625 -0.034305796 0.036112584 0.11419993 0.04709973 -0.08686033
-0.101255834 -0.061056733 -0.03718908 0.15642266 -0.124994144 -0.07878249 0.043702077 0.093467385
0.08178621 -0.031694043 -0.025547627 0.115953006 -0.1450842 -0.01710641 -0.08733822 0.100246
0.12958772 -0.053514156 0.09811606 0.037216287 -0.06086653 -0.07496836 0.25891548 -0.018572409
-0.009872254 0.021022754 0.04129799 0.18284678 -0.018252984 -0.14778063 -0.056323532 -0.09375489
-0.004938744 -0.15422948 -0.22719103 0.090684265 -0.018001372 0.034630727 0.050039478 -0.017734779
-0.047077596 0.14009926 0.010805498 -0.041202024 0.12869145 -0.17681153 0.021319252 0.046649523
0.082972616 0.018322794 0.012257274 -0.26154923 -0.050404094 0.00917991 -0.138052 0.012044681
-0.15746017 -0.024843568 0.014348926 -0.1939642 -0.08359034 0.004271839 -0.006194803 -0.029141376
0.035251673 0.100240014 0.0040707164 -0.08034065 -0.2727714 0.10522296 0.027863631 0.012033129
-0.08259741 -0.19554213 0.04887888 0.12768798 0.053538676 0.097494654 0.20835103 -0.05102596
-0.05365232 -0.079235986 -0.18917803 0.09852723 -0.27508336 0.036577735 0.16236237 0.10659187
-0.23861156 -0.06433638 0.019695308 -0.07685403 0.29290876 0.03758285 -0.5050973 -0.02364114
-0.080688 -0.02028795 0.09689723 0.07751306 0.30311823 0.18688084 0.06123096 0.013261129
-0.2454511 -0.111876436 0.28920525 -0.04586286 0.08646223 -0.28555802 -0.19002175 -0.16147035
0.038281113 0.29017413 0.06665953 0.013452308 -0.28803727 -0.045104314 -0.053503785 -0.06365233
0.237982 -0.026486572 -0.11886655 0.07413797 0.06898639 -0.022951294 0.053849023 -0.3178845
0.073558025 -0.11002835 0.014419095 -0.23071146 -0.64512545 -0.00046719125 0.03206068 -0.15891694
0.016310524 -0.040736802 -0.4022034 0.0052384716 -0.1513133 0.18332866 -0.18978125 -0.105117664
0.12912026 -0.15275186 -0.07993822 0.16153009 -0.10907953 0.115889445 0.46642014 -0.1397173
0.081626974 -0.018903831 -0.1518753 -0.06398865 -0.09051255 -0.07532216 -0.12484975 -0.285114
0.059345413 -0.07131718 -0.4718611 0.050793845 0.16536981 -0.09148244 -0.22351748 -0.17131446
0.13652286 -0.39092582 0.23027468 0.036171753 0.043558434 0.11843561 0.057400655 -0.029738944
0.075923 0.38860804 0.011190884 0.13682304 -0.09266174 -0.11437737 -0.30080187 0.1435135
0.025903527 0.16022094 0.021533351 -0.20873731 0.021281261 0.06822467 -0.10637176 -0.06251809
0.066262536 0.05002931 -0.022662997 0.043697998 -0.28941265 0.22806138 -0.3316489 -0.052979052

mlp.0.bias f4 [128]
00000000: 2d2f 6cbd 369e a4bd 01bd 2cbd cb67 a2bd
00000010: 5e14 ca3d 37c3 6b3c 376e a5bc b0aa 78bd
00000020: e829 193d 5bfd 18bd 4434 cfbc 4cd8 85bd
00000030: d943 193d a554 fabc fe8e 143d 7604 3cbc
00000040: 3d6a 93bd 70ab ed3c 383c 39bd 86cd 08bc
00000050: 91b7 513c 5b9a d13c aea7 4e3d d028 12bc
00000060: 2837 c73d 180f e0bc 2794 abbd 12e6 a1bc
00000070: 94a7 8cbd 9d1e 38bd 8d23 d43c 4aa9 1b3d
00000080: abe7 bc3c e6cd 563d 5d0f 7bbd f466 c4bc
00000090: f0b0 a13d 7065 f5bc dd04 1d3d 70cb bbbb
000000a0: 8278 8d3d 8cf6 6ebd 1a72 32bd cfb4 983d
000000b0: c141 eebd b833 00bd ebed 3a3d 6565 893d
000000c0: 9b3b 333d b978 d3bd c25d 37bd 2324 60bd
000000d0: 768d 9fbc 4a22 62bd 4b75 3f3d ea45 74bc
000000e0: d236 9a3d 59fa 25bd 42ac 973c 196e aa3d
000000f0: 7732 123d 73cf 26bc 85ed 8b3c b846 3b3c
00000100: 67fd 8bbd 53f5 19bd 2c18 343b 9753 65bd
00000110: a1b9 993d 2d6f 8fbd d04c bdbc 07a7 7e3c
00000120: 998f 553d 2cc2 2dbd 3488 eabd ddf8 ed3b
00000130: fb23 593c ae37 983c 83de a0bd fec3 6fbb
00000140: e9cb e2b9 3b03 acbc 36a2 8d3d 6d45 863d
00000150: ecb3 91bb b17c e1bc 98a2 dabc c3f4 5e3c
00000160: a7bf 8ebd f71c 6a3d 4b99 c23d 7250 d5bc
00000170: 8cad 6f3d 571e 9f3c 2900 ba3c 0462 57bd
00000180: 10c1 9b3d d900 9f3d 6435 aebd 70bb aa3d
00000190: 6b2d 273d f43d 113d 5cb1 0a3d df64 763d
000001a0: 32dc c93d c4bf ca3c 7845 9f3d 4e06 82bd
000001b0: 9b26 3cbd f43a 083d 45d8 6f3c db4f cf3c
000001c0: 415c 6bbd 5504 a23c 0f54 af3d ba5c 2ebd
000001d0: 7bfe bf3c e1e5 233d d3eb 80bc 9190 72bd
000001e0: 4232 c13d 5642 273d 95cc 303d 3dcb 95bd
000001f0: bd85 db3c d15a 0f3d ca2d 97bd 838c 98bc
-0.057662178 -0.08037989 -0.042172436 -0.07929953 0.09867166 0.014389805 -0.020194156 -0.060709655
0.03739348 -0.037350994 -0.025293477 -0.06535396 0.03741822 -0.03055794 0.03626918 -0.011475673
-0.07197998 0.029012412 -0.045223445 -0.008349782 0.012800113 0.025586298 0.05045288 -0.008920863
0.09727317 -0.027350947 -0.08377867 -0.019763026 -0.068679005 -0.04495107 0.025895858 0.038003244
0.023059687 0.052442454 -0.06129395 -0.023974873 0.07895076 -0.029955596 0.038334716 -0.0057310387
0.06907751 -0.058340594 -0.043565847 0.074563615 -0.11633635 -0.031299323 0.045637053 0.067087926
0.043758016 -0.103257604 -0.04476715 -0.054721963 -0.019476634 -0.05520848 0.04674272 -0.014909247
0.075299874 -0.040521953 0.018514756 0.08321781 0.03569266 -0.010181296 0.017081032 0.011430435
-0.06835442 -0.037587475 0.0027480228 -0.05598792 0.07506109 -0.07003627 -0.023107916 0.015542752
0.0521389 -0.042421505 -0.1145176 0.007262333 0.013253207 0.018581238 -0.07854941 -0.0036585326
-0.00043258004 -0.020997634 0.06915705 0.06556211 -0.004446497 -0.027525278 -0.026688859 0.01360816
-0.069701485 0.05715653 0.095018946 -0.026039336 0.058515117 0.019423647 0.022705154 -0.05258371
0.07605183 0.077638336 -0.08506277 0.08336532 0.0408148 0.035459474 0.03386055 0.060154792
0.09856452 0.024749644 0.07776922 -0.06348859 -0.045935255 0.033259347 0.014638965 0.025306633
-0.057461027 0.019777456 0.08560955 -0.0425689 0.023436775 0.04001415 -0.01573745 -0.0592199
0.09433414 0.040834747 0.043163855 -0.07314155 0.02679717 0.03499872 -0.073817804 -0.018621689
