graph-neural-networks/zinc_models/MPNN_with_structural_encoding_add.pth (torch, 850040 bytes, 14 tensors)

layer.nnet.0.weight f4 [3, 3]
00000000: 7cc2 b0be 5656 913e b211 b7be b562 babe
00000010: 4349 0fbf 3010 3e3f d871 443e 5df1 90be
00000020: 7f77 02be
-0.3452338 0.28386182 -0.35755688 -0.36403432 -0.55971164 0.7424345 0.19184053 -0.28309146
-0.12740897

layer.nnet.0.bias f4 [3]
00000000: af1c 0abf 0009 103e 39eb 8b3d
-0.5395002 0.14065933 0.068319745

layer.nnet.2.weight f4 [17424, 3]
00000000: 2a82 07bd 0fb2 d2bd 5be8 313e 0393 c13e
00000010: 8159 b8be 9724 cebe d5e7 a33e 0125 77be
00000020: 11ff 26bf 12fa 20be 2ded d9be ee2c 04be
00000030: 6ac5 ddbd 95da bdbe 5324 54be bbc5 6e3e
00000040: 38e9 be3e d014 023e aa78 0dbf 13e6 ea3e
00000050: 66a5 25be 4d2d b93e 3d51 823d 53d2 d3be
00000060: af3e dc3e c30f 123f 1344 87bd 3e30 14bc
00000070: 2381 28bd 77a8 e03c be0a fb3e 0544 843e
00000080: 116e 143f cc37 3f3e 1ce7 edbd eae7 dbbe
00000090: a8c9 94be 64ca efbd a64f dabd e220 bebe
000000a0: c3ec 0dbd ef57 a03e 9e8d 843d a54f 07bf
000000b0: 6461 95be 3173 d83b ac0b f63e 534d 613e
000000c0: 2b82 843e 335f b5bd 8d00 e2be f468 4cbe
000000d0: 54bb e63e 9db0 963d f6d4 8b3e 34c8 10bb
000000e0: 5916 963e 0a08 9cbe acb3 893e f64f 83be
000000f0: b8a3 9dbe e540 0abf a662 e03e 3619 373e
00000100: 6b88 1cbe 51f2 403f 26f0 d2bd e868 babe
00000110: 6a6d adbe 9521 ecbc f911 3c3e d72d 8a3e
00000120: 68fd e73e 981b f7be ed96 e4bd 5aed 0abe
00000130: 25d9 b03e a827 953b 8f20 273e 8c90 babe
00000140: 64ee eabe 79d4 ba3e b784 05bf a093 2a3f
00000150: 6013 08bf 3cb7 f3be 2bee bbbd acb1 26be
00000160: d615 9f3e 13a4 05bf f370 213e 5d82 cbbe
00000170: 1d73 89be 0049 b33d d2b3 7d3e 16f9 d3be
00000180: cc85 d13e 1e37 883e 8133 9bbd bb61 2abd
00000190: 1a45 593d b51f 02bf 696e 8e3d 0669 173e
000001a0: da85 043d 20bf 1ebe 7ad2 0dbf 18b7 26bf
000001b0: b5a7 d1bd c83a 8c3e 3f18 e0be 49da 733e
000001c0: cdd6 113f 9cf3 38bf f44c 9e3e bdb9 01bf
000001d0: 7917 66be dc31 e63e 38fb 22bf 0d9e 203e
000001e0: b190 e6be 6252 42be 6589 dcbe d74c c93e
000001f0: f52f c2be 25f3 d13e ed9b 39bc e0d0 e0be
00000200: 9915 d53e 35c5 b73d 7b9a 40bf 6fa6 753e
00000210: 0f0a 89be 901c c7bc 432d 3ebf 2bff c93d
00000220: a984 1d3f 5391 973e bb57 25be 319d 8cbe
00000230: 1c4d 02bf 3464 b73e 54e1 5d3f 743e c1be
00000240: bb66 e3bd 67bd 483e 42f3 a0bd 5708 abbe
00000250: b032 e6be 7bbb c03e 44d6 443d a64b 633d
00000260: 81bf b0be c1c0 9abe 9f54 a83e da66 d33e
00000270: 41e8 2ebe 6f6b ffbe cae4 973e 222b f7bc
00000280: 5902 cebe d35e e33e 4104 dd3d 226e 383e
00000290: a753 04bf 3df9 85bd f65e 39be e067 d1be
000002a0: 980b 90be f052 a6be 6657 cdbe d74a febc
000002b0: 8c37 063f d7f0 ed3d 3891 79bd 0125 b0bd
000002c0: b1ae 14bf be37 cd3e 0da8 a73e aa6e c73d
000002d0: ea1f 053f 7b2f 24bf 3671 cf3b 1e5a 84be
000002e0: 98d6 29bf f778 ecbe dc6f 973e b492 dd3e
000002f0: 7ec0 aebe 554b bcbd 512c d23c 176e fdbe
00000300: a2a1 903e f51d b43e 9761 073e b345 e83e
00000310: 186f c7be b5cd ff3e 126a 16be 0c90 863e
00000320: 6290 c53e fe85 fdbe 1880 ebbe ac5c 323f
00000330: 0064 a5be 3bca 043c 305f d2be 9239 c7be
00000340: f51d c3be 053d 07bf 2597 0abf 4d8f 63be
00000350: 2e89 01bf 8b13 023d 52e4 b53d 1476 2dbf
00000360: f300 0ebf 3f6e debe 285f 0f3f fbe7 ffbe
00000370: 3eaf da3e f210 7e3c bc1b 04bf cadd aebd
00000380: f95e 87be aa5f b7be 6808 623e 047f 9c3e
00000390: 582d cdbe 4289 04bf 8bf3 023f ae16 0e3f
000003a0: 125b 8b3e 93c7 7ebd 5e63 b33e 6ae3 e2be
000003b0: 308e 9ebe e122 d93e cf86 19be acbf c13e
000003c0: fecd f5be 1e24 a93d f37b c6be d839 e33e
000003d0: d44e b7be 1991 e7be 329a f7be 27f6 233e
000003e0: 1bbc 45be 68a7 25be 11c9 e63d 68da a83e
000003f0: 6d86 b53e 6595 39bf dbb0 0b3e 77af c43e
-0.03308312 -0.10287868 0.17373793 0.37807474 -0.36005786 -0.4026229 0.3201281 -0.2413521
-0.6523295 -0.15720394 -0.42563763 -0.12907764 -0.10828669 -0.37080827 -0.20716982 0.23317616
0.37287307 0.12703252 -0.55262244 0.45878658 -0.16176376 0.36167374 0.06363151 -0.41371402
0.43016574 0.570553 -0.06604781 -0.009044705 -0.04113878 0.02742408 0.49031633 0.25833145
0.5798045 0.18673629 -0.11616346 -0.42950374 -0.29060102 -0.11708525 -0.10659723 -0.37134463
-0.03464962 0.31317088 0.06472324 -0.528559 -0.29175866 0.0066055288 0.4805578 0.22002153
0.2588056 -0.088560484 -0.44141045 -0.19961911 0.45064795 0.07357905 0.27310914 -0.0022091987
0.29313925 -0.30474883 0.2689489 -0.25646943 -0.3078897 -0.5400527 0.43825263 0.17880711
-0.15286414 0.75369745 -0.10299711 -0.36408162 -0.3387254 -0.028824607 0.18366231 0.26988098
0.4531052 -0.4826324 -0.11161599 -0.13567105 0.34540668 0.0045518465 0.16321014 -0.36438406
-0.45885003 0.3649023 -0.5215563 0.6663151 -0.53154564 -0.47600734 -0.09176286 -0.16278714
0.31071347 -0.5220348 0.15765743 -0.39747897 -0.26845637 0.08754158 0.24775627 -0.41400975
0.4092239 0.2660455 -0.07578183 -0.04159711 0.053044416 -0.5082963 0.06954653 0.14786157
0.032354213 -0.15502596 -0.55399287 -0.6512313 -0.10237066 0.27388597 -0.43768498 0.23813738
0.56968385 -0.7224672 0.30918086 -0.5067404 -0.22469892 0.44959915 -0.6366458 0.15685292
-0.45032266 -0.18976739 -0.43073574 0.39316437 -0.37927213 0.41005817 -0.0113286795 -0.4390936
0.4161804 0.08973161 -0.7523572 0.2398927 -0.26765487 -0.024305612 -0.74287814 0.098631226
0.6153055 0.2960306 -0.16146748 -0.27463678 -0.5089891 0.35818636 0.8667195 -0.3774296
-0.11103579 0.19603501 -0.07858898 -0.334048 -0.44960546 0.37643036 0.048055902 0.055492066
-0.34521106 -0.30225185 0.3287706 0.41289407 -0.17080785 -0.49886653 0.2966674 -0.030171935
-0.40236166 0.44408283 0.10791827 0.18010762 -0.51690143 -0.06541679 -0.18102631 -0.40899563
-0.28133845 -0.3248515 -0.40105742 -0.031041546 0.5242851 0.11618202 -0.060929507 -0.08600808
-0.5807906 0.4008159 0.327454 0.09737904 0.5200182 -0.6413495 0.0063306345 -0.25850004
-0.6634307 -0.4618604 0.2957753 0.43275988 -0.34131235 -0.09194056 0.025655897 -0.49498054
0.28248316 0.35179105 0.13220821 0.45365676 -0.38951945 0.4996163 -0.146889 0.26281774
0.38586718 -0.4951629 -0.45996165 0.69672656 -0.32302856 0.008104856 -0.41088247 -0.3891111
-0.38108793 -0.52827483 -0.5413688 -0.22222634 -0.50599945 0.03175692 0.08881439 -0.677583
-0.554702 -0.43443486 0.5600457 -0.49981675 0.42711824 0.01550697 -0.5160482 -0.08538397
-0.26439646 -0.35815173 0.22073519 0.30565655 -0.40073657 -0.5177194 0.5115287 0.55503356
0.2721792 -0.062202048 0.3503675 -0.44314128 -0.30967855 0.42409423 -0.14992832 0.37841547
-0.48008722 0.08258842 -0.3876644 0.4438007 -0.3580233 -0.45227888 -0.4835983 0.16011868
-0.19310038 -0.16177142 0.11268819 0.3297913 0.3545412 -0.7249358 0.13641684 0.3841512

layer.nnet.2.bias f4 [17424]
00000000: da45 1a3f 5217 84be 72ee b6bd ee0c 353f
00000010: d856 0ebf a6aa ee3d e6df 943e a7eb 023f
00000020: 583b 86be 67c6 39be 99f9 223f 0ca0 203e
00000030: 6a87 13be 3152 613d d41c 813e b2c1 ee3e
00000040: 14b9 d83e 37e5 0fbe 71a5 7cbd a842 92ba
00000050: 5fa6 183d ecbd b03e 1eec 113f 9399 463f
00000060: c092 c0be c783 db3d 510c c03e 7f18 d23e
00000070: 5716 103f dee4 c93e 2da1 dabe 1302 2abe
00000080: 3824 ddbd 6e56 18bf 9e51 a73e 3ca9 ce3d
00000090: 0531 993d f9bb b4be 3c50 fc3e f3a5 a53e
000000a0: 86af cfbe af5a 88bd 9410 b7be a21e 2ebe
000000b0: 8637 5abe ee97 2abe ac48 d13d 6595 09bf
000000c0: adee b83e f8f4 d3be 09d4 cebe 26a2 0fbf
000000d0: 5201 a53c 5f3f 02bd e10d 68be cf61 18be
000000e0: 21d1 fabe 8033 ab3e 5e94 08bf dad3 10bf
000000f0: 24cf 433e 2bc1 30be f03c 173f 3c05 0a3d
00000100: 687a 42bd 7baa f63e d39b c3be 3d69 293f
00000110: a035 e5be a422 133e 0a95 543e e8eb 0cbf
00000120: ea0d 27be ec52 30be e026 193f 0871 803e
00000130: 7c67 013f 655e a73e 2cae 13bf 92a8 a93e
00000140: 3694 96be d063 223e 1d06 b23e 8425 f7be
00000150: f366 35bf cef3 9cbd 3d81 4b3e 9a83 3f3e
00000160: b035 ef3e 8272 febe a959 2d3f 6275 b63d
00000170: ce98 34be 3e57 8ebe a054 c63e 76db c3bc
00000180: a67b d13e 4b38 40be b3f5 a0be 2fb5 61be
00000190: 41f4 543d d997 acbe 000f 603e a9ec 1cbe
000001a0: 43a2 f73e ddb9 0abe 240a 623e a019 073f
000001b0: 8860 4b3e e1d2 f23e c5e2 b9be 932d 81be
000001c0: 6947 1f3f f54e 733e ef22 813e a3d3 c8bd
000001d0: 2b4a 3bbd 6423 9a3e 1ff6 763c b2f2 e9be
000001e0: 9ba3 b03e 35bb 68be e735 c3bd 538a 053f
000001f0: 60af 073d b153 9e3e 0441 dfbe d147 f83d
00000200: 6821 1f3f c86f c5be 51d1 d4be 4770 dbbe
00000210: 27cc 3b3e 7389 ec3e 3d59 cfbe 25f7 063f
00000220: d160 cb3d 4e78 343e b595 e13e 0567 a5be
00000230: aa68 fa3e 888c 07bf 7f90 643e b475 c8bd
00000240: cd8a b83e 5f6d 9abe 73d8 c9be d144 b93e
00000250: 14ee 06bf 70a8 3bbf 5f54 9d3d 0ab4 de3e
00000260: 1d09 073f b032 913e 1a59 c93e a379 d5bd
00000270: ee2e c43d e427 213f 1ac4 90be 9e96 b1bc
00000280: 4bc9 1dbf db77 043e 7a01 ccbe 08dd 9fbe
00000290: 3beb 80be 46a8 03be 3e77 b23c eedf 893e
000002a0: d860 913c 1468 443d ebe1 363e 7294 f7be
000002b0: 6906 633e 2f1c af3e 48b6 803e f262 1dbd
000002c0: 3380 023f f5ef e13e eba5 6abe 6cbf 7bbd
000002d0: 2537 14bf f08d df3e b6bb de3e 1d9f 00bf
000002e0: f614 24bc 2860 913e 3242 1ebd fc92 193f
000002f0: 4f5e 633e 925c 01bf e59f 94bd 3602 acbe
00000300: bb95 4ebe c961 6b3e e32f 84be 4238 bf3d
00000310: 2670 d7be 5239 39bd e039 71be f930 5cbe
00000320: 6394 febe 3008 f23e 163c 35bd 356a 933e
00000330: 4444 04bf dccd 00bf 467b be3e e6fd 8ebe
00000340: 394a a93e e4c4 a6be bf39 98be 960e b33e
00000350: 4d24 b03d 16fa 67be a9ec 933e ac26 1dbf
00000360: a5a3 833c c834 1d3e 527d c43e 185e 563d
00000370: b87e 80bd ff86 2f3e 1187 e03c 1499 123e
00000380: 5011 683e 6b56 bbbe b7f8 4c3e 6ab6 793e
00000390: 9f7f 933e ed95 bbbe 22bd bd3e 1227 933e
000003a0: 619f f9bd 5b66 02be 06bb c73e a016 8c3e
000003b0: 84d5 e93e 9b02 823e a5b6 893e f13b 023f
000003c0: e1e5 14bd 69e6 c23e 861c 443e 8846 08be
000003d0: 9c71 7d3e 27c6 19be 6fb9 58be 0232 90be
000003e0: 3cde b33d 0f8b e3be d36b 083e 6a04 7a3e
000003f0: 9887 71be 2a4e ebbe fd85 be3e f407 43be
0.60262835 -0.25799042 -0.089321986 0.70722854 -0.55601263 0.11653642 0.2907707 0.51140827
-0.2621715 -0.1814209 0.63662106 0.15686053 -0.14407125 0.055010024 0.25217307 0.46632153
0.42328703 -0.14052282 -0.061681215 -0.0011158781 0.03726804 0.345199 0.5700091 0.77578086
-0.3761196 0.10718494 0.37509397 0.41034314 0.5628409 0.39432424 -0.42701092 -0.16602354
-0.10797924 -0.5950688 0.32679456 0.10090873 0.07480053 -0.35299662 0.49279964 0.32353172
-0.405636 -0.066579215 -0.35754836 -0.17003873 -0.21310243 -0.16659519 0.10218939 -0.5374358
0.36119595 -0.41397834 -0.40396145 -0.56106794 0.020142231 -0.031798717 -0.22661544 -0.14881061
-0.48987678 0.3343773 -0.5335139 -0.5657326 0.19121987 -0.17261188 0.5907736 0.0336964
-0.047480017 0.4817694 -0.38204822 0.66176206 -0.44767475 0.14368683 0.20759979 -0.55047464
-0.16313902 -0.17219132 0.59824944 0.25086236 0.5054853 0.32689205 -0.5768764 0.3313642
-0.2940995 0.15858388 0.3477029 -0.4827081 -0.70860213 -0.076636896 0.19873519 0.18702546
0.46720648 -0.49696738 0.67714936 0.08909108 -0.17636415 -0.27800936 0.3873644 -0.023908358
0.4091465 -0.18771474 -0.31437454 -0.22041772 0.05199075 -0.337096 0.21880722 -0.15324654
0.48365983 -0.13547464 0.22074181 0.52773476 0.19861042 0.47426513 -0.36305824 -0.25230083
0.6221834 0.23760588 0.25221965 -0.098059915 -0.04572503 0.30105126 0.015073328 -0.45692974
0.3449982 -0.22727664 -0.095317654 0.5216419 0.033126235 0.30923226 -0.4360429 0.12123073
0.6216035 -0.38561845 -0.41565946 -0.42859098 0.18339597 0.46198615 -0.4049777 0.5272086
0.09930576 0.17624018 0.4405953 -0.3230516 0.48907977 -0.5294881 0.22320746 -0.09788075
0.36043397 -0.3016157 -0.3942295 0.36185315 -0.5270703 -0.7330389 0.07682108 0.43496734
0.5274828 0.28358984 0.39325792 -0.10423591 0.09579264 0.62951493 -0.28274614 -0.021678265
-0.61635274 0.12936346 -0.39844877 -0.3122332 -0.25179467 -0.1285716 0.021785375 0.26928657
0.017746374 0.04795082 0.17859618 -0.48355442 0.22170414 0.3420119 0.2513907 -0.03842444
0.50976866 0.44128385 -0.22914855 -0.06146185 -0.57896644 0.43662977 0.43502587 -0.5024279
-0.010014763 0.28393674 -0.038637348 0.59989905 0.22203945 -0.50531876 -0.0725706 -0.33595437
-0.20174305 0.22986521 -0.25817785 0.09336902 -0.4207775 -0.04522068 -0.23557234 -0.21503057
-0.49722585 0.47271872 -0.044246756 0.28791967 -0.51666665 -0.50314116 0.37203425 -0.27928084
0.3306444 -0.3257209 -0.29731557 0.34972066 0.08600674 -0.22653994 0.28891495 -0.61387134
0.016069243 0.15352166 0.38376862 0.05233583 -0.0627417 0.1714134 0.027408155 0.14316207
0.22662854 -0.3658937 0.20016752 0.24385992 0.28808305 -0.36637822 0.3705836 0.28740746
-0.12188602 -0.12734358 0.39009875 0.27361012 0.45670712 0.25392613 0.2689716 0.50872713
-0.036352042 0.38066414 0.19151506 -0.13308156 0.2475037 -0.15016995 -0.21164487 -0.28163153
0.08782622 -0.4444203 0.13322382 0.24415746 -0.23586881 -0.45958072 0.372116 -0.19046003

layer.gru_unit.weight_ih f4 [396, 132]
00000000: 3689 5f3e 06d1 cdbd 554d c93d 0984 cf3d
00000010: 66fa 843a 178e 51be 2b22 87be 2724 ff3c
00000020: 8515 f53d d69b 92bd cf1f 813d a2c0 43bb
00000030: e7a3 d73c a882 4d3d 9d4b cc3c e424 aabe
00000040: 3009 003e e98e 303c 1483 35be 96b1 32bc
00000050: 1fc7 a2bd 4c15 e5bc b3ef 5b3e 8dc2 173e
00000060: 84a9 e5bc 1172 8fbe 4e78 ecbd ce4b b73c
00000070: b3fc b03d 55f1 633d 84ce a0bd e3f6 8e3d
00000080: a72a 1abd 776d 9d3d c217 0d3d 3a81 0abe
00000090: bb9f 47be 2045 82bd cd80 da3d 4507 653c
000000a0: 7307 94bd 3566 07be a1bb 3bbe 4023 fd3d
000000b0: a96d c13c 4608 2fbe dc40 babd 5600 f5bc
000000c0: d745 a53b acde d63c 6bed 553e b9dd 183d
000000d0: 1a86 163e 12a5 f93d 7277 1f3e 1e62 30be
000000e0: c041 123d 8597 533e a981 bd3d 0c6f 3bbd
000000f0: 10c2 953d 7fd8 fc3d af1f b23d 8e97 81bd
00000100: e6d7 e2bd f375 553e 9d7b 3a3e 226e 43be
00000110: f82d 8bbd 3886 8bbb 78bf cebc cd31 ba3d
00000120: 7620 433e 4b43 3abe 07cf a5bc 25cb 483e
00000130: 491f 843d 0449 5b3e e66d c1be 684a dbbe
00000140: 69c6 cbba ec9e 03bd 44b2 30be 6c28 9a3d
00000150: 8663 583d a34b b4bd 415d de3d 9a30 09bd
00000160: aa28 683e ca49 2dbe 45e5 3e3e 7de6 06be
00000170: 5bf7 babd d5b3 47bc 284c e73d d254 003d
00000180: 58b3 fb3b 3d62 52be aa62 babe 8df7 29be
00000190: 816c 1d3e 0dce 0bbe ba80 803c 0a6b 8ebd
000001a0: 1e45 94be 22ff 133c f1c6 603d 696f 183e
000001b0: 421f e7bd f457 0dbe fc57 5bbc f0d0 8ebd
000001c0: 463e 82be 402d a1bd 0a29 00be a084 24bd
000001d0: ec0a fe3d 1211 113e e90e 0b3c 189c 0e3d
000001e0: b3ae a03b 762c 4b3e 134a 3dbe f85f 05be
000001f0: d477 bbbd dc43 6dbe 57e4 313e 5eb4 af3e
00000200: 682c 2d3e dd12 203a dde7 413d 7dc3 dfbd
00000210: 94ce d33e 79d7 14bd aa2b 28be b64b 093e
00000220: 1b71 943e bf0d 71be 55a1 91be 8a34 1d3e
00000230: 3814 dfb9 5d6c 13be 161d 0dbd af75 043e
00000240: 81ff ca3d 29df bd3c 798a 11be 7a20 a53e
00000250: ae52 be3b 71c2 e83c 0503 463e 5139 63be
00000260: 3726 98bd da43 b6bd 83fb 4ebe 1683 b53d
00000270: 9b68 8cbe 1d3c 093e 9417 4b3d 9264 e0bc
00000280: 6072 833e 7b32 b9be 43ea 80bc 9995 903d
00000290: c257 83bd 7faf 1cbe 5d9a e0bc 52db 0cbd
000002a0: 1f0b 4ebd c799 ae3b 4e50 6a3d db08 693c
000002b0: 852d 81bd 31c9 ccbe 5e86 ea3d 16c5 e73d
000002c0: 3d0b d83d 8f2b 663d f101 7c3e 4044 d1be
000002d0: d20b 4f3e a02b cfbd 59a4 44bd cfa5 683d
000002e0: 57ee 8fbb 25c3 553e 8ea6 29bc 1b3c 783d
000002f0: 4006 4e3e 5ab7 003e 18c9 3d3c ba13 99bd
00000300: 1803 a6be 6ada 0a3e e131 b2bc 7301 73be
00000310: 511c bfbe 4f6c 10be 49ec 673e df16 41be
00000320: 09d1 ebbd 4a76 48be e4fc 6ebe 0056 26bd
00000330: 8f4a 5fbd b8a3 313e cfb0 d03d 48dd 8bbe
00000340: 92e1 4bbd b731 ddbb b942 abbd 7452 803e
00000350: 225b a73d 8989 99bc ab40 1c3d 7995 b83d
00000360: a443 a33d 2780 02be 37ec 6fbc b5a7 733d
00000370: 7a94 8a3d 3fb9 313e 1baa 2a3d aa4c 32be
00000380: fe43 f6bd ee9c 813e 59d2 473d 3d4c 3b3e
00000390: 8d31 013e 5596 69be 740d c13c 453e a23d
000003a0: 7e2f d2bc 769f a33d 3ed4 1b3d b395 26bd
000003b0: 1467 f53d 85d4 5b3e d1dd 963c dccb 333e
000003c0: 96cf b33d 3a70 c13d afc5 4ebd 0eeb c5be
000003d0: a22f e93c 66f6 823d c790 9dbd d36b d1bd
000003e0: 203a 61be 9f48 5bbd fbd4 f13d d89f a43d
000003f0: fb43 16be bd49 24be f832 8d3e 2f9f f13d
0.21829686 -0.10049634 0.09829203 0.101326056 0.0010145425 -0.20464359 -0.26393256 0.031145168
0.11966995 -0.071586296 0.06304895 -0.0029869457 0.026323272 0.05017343 0.024938399 -0.3323127
0.12503505 0.01077626 -0.17725784 -0.010906598 -0.079481356 -0.027964257 0.21478157 0.14820309
-0.028034933 -0.28016713 -0.11546384 0.022375014 0.086419486 0.055650074 -0.0785189 0.06980684
-0.037638333 0.076868944 0.034446485 -0.13525859 -0.19494526 -0.06360841 0.10669098 0.013978784
-0.07227983 -0.13222583 -0.18333293 0.12360239 0.02361186 -0.17093 -0.09094402 -0.029907387
0.005043726 0.026229225 0.20891349 0.037320826 0.14699593 0.12189688 0.15572909 -0.17224929
0.035707235 0.20663269 0.09253246 -0.0457602 0.07312405 0.12345981 0.086974494 -0.06327735
-0.110763356 0.20845775 0.18211217 -0.19084981 -0.06795877 -0.0042579435 -0.025237784 0.0909153
0.19055352 -0.18189733 -0.02024032 0.19608743 0.0645128 0.21414572 -0.37779158 -0.42830205
-0.0015546802 -0.03213398 -0.17255503 0.07527241 0.052829288 -0.08803489 0.108576305 -0.033493616
0.22671762 -0.1692268 0.18642147 -0.13173862 -0.091292106 -0.012188871 0.112938225 0.03133089
0.0076812916 -0.20545287 -0.364034 -0.1659834 0.15373422 -0.13652821 0.015686382 -0.0695401
-0.28958982 0.009032996 0.054877225 0.1488625 -0.11285259 -0.13803083 -0.013387676 -0.069734454
-0.25438136 -0.07869959 -0.12515655 -0.040165544 0.12404427 0.14166668 0.008487442 0.03481683
0.0049036383 0.19841179 -0.18485288 -0.1302489 -0.09153715 -0.23170418 0.17372261 0.34317297
0.16911471 0.00061063265 0.047340263 -0.10925958 0.41368544 -0.036338303 -0.16422907 0.13407788
0.28992543 -0.235404 -0.284434 0.15352073 -0.0004254894 -0.14396806 -0.034451567 0.12935518
0.09912015 0.0231777 -0.1421298 0.3225134 0.005808196 0.02841303 0.1933709 -0.22189833
-0.07429164 -0.088996604 -0.20213132 0.08862893 -0.27423558 0.13401838 0.049583033 -0.027391706
0.256732 -0.36171326 -0.015736705 0.070597835 -0.06413223 -0.15301321 -0.027417356 -0.034388848
-0.050303575 0.0053283903 0.05720549 0.014223303 -0.0630751 -0.39997247 0.1145141 0.11316888
0.105490185 0.056193884 0.24610116 -0.40872383 0.20219353 -0.10115743 -0.048008297 0.056798752
-0.004392426 0.20875223 -0.010354651 0.060604196 0.20119572 0.12569943 0.011583589 -0.07474466
-0.32424235 0.13559881 -0.0217523 -0.23731022 -0.3732629 -0.14103816 0.2264873 -0.18856381
-0.1151448 -0.19576374 -0.23338658 -0.04060936 -0.054514464 0.1734761 0.101899736 -0.27317262
-0.049775667 -0.0067503112 -0.08362336 0.25062907 0.08171679 -0.01874234 0.03814761 0.09012885
0.07971886 -0.12744199 -0.01464372 0.05948611 0.06766601 0.17355822 0.04166613 -0.17412058
-0.12024687 0.2531504 0.048784588 0.18290801 0.12616558 -0.22811253 0.023565985 0.07922033
-0.025657412 0.07989399 0.038044207 -0.040670108 0.11982551 0.21467789 0.018416317 0.17558235
0.08779828 0.09445234 -0.050481495 -0.38655895 0.028465096 0.06394653 -0.0769363 -0.10225644
-0.21994829 -0.053536054 0.11808201 0.080383 -0.1467437 -0.16043754 0.2757795 0.1179794

layer.gru_unit.weight_hh f4 [396, 132]
00000000: 61db 363c f87f 47bd 9853 80be 3237 833c
00000010: b346 733e 14aa cabe 9da8 05bb deef 70bc
00000020: d0ee 02be 9c77 26be 04ce 82be 1d02 e83d
00000030: d907 9bbd 76ca 2b3d 33c0 453e 8215 12be
00000040: 30bb 81be e76f debd 9959 d73e c9a3 2dbe
00000050: 2780 2e3d 3ef6 3b3e 68a5 09bc 90e6 433e
00000060: ce29 143e 44e7 a03d b627 493e 06e7 4abe
00000070: 2de4 a5be c09c 663d 8e45 4b3e bdde 40be
00000080: a3d8 df3d 32ad ec3c 9595 53be c965 0dbd
00000090: 2435 87be 9e90 0c3d b544 3b3e c88e 1fbd
000000a0: b4e4 073e 6b8b 143c b5c4 81bd 2e11 bfbd
000000b0: 9e16 b4bd 197f 9d3e 8e19 38bc 691c 25be
000000c0: 5c3c 443b 176e 87be 8b98 93bd 3cc4 173d
000000d0: a160 5bbe c36e a3bc 3d65 803d 1c49 54bd
000000e0: acda 633d ab9d 1c3d c29d b83e e28c d63d
000000f0: 625f 91be ef58 9a3d 1211 de3d 7b6a 5abc
00000100: 4822 9f3d 9bef b1bd d732 7bbc 1c30 2cbe
00000110: aa3f 003e a920 523e 2c07 773d ca2c 963d
00000120: 984a 903d 5c59 f73c a0b0 2d3e 0aa3 b33e
00000130: 87f3 323e bfc0 ad3d 645b bb3e 0f14 a03d
00000140: f14a d33d 2e9e 24be de6e e1bd a445 abbd
00000150: 7ca5 acbd b377 09be 1383 b33d f3d2 aebd
00000160: 690f 573d 52a6 84be efa9 063c 1fd0 17be
00000170: d7d4 8ebe 028b 983e b44a cdbd 3cc4 40be
00000180: 867a 4cbe 101d c3be e062 983e f2a8 46be
00000190: bfc4 203e 0b73 e43b 60c4 4ebd 4a24 53bc
000001a0: 1870 503e 743c a9bd 5288 0f3d 5a2b 17be
000001b0: d559 06bd 32ee aebd 7cdf 6fbd 02c2 0fbe
000001c0: 6f39 05be 861b 64bd 60eb 08bc c4ec 3dbe
000001d0: 78f2 1e3e 5079 8fbd 5a50 90be 2727 68be
000001e0: 3267 48be 9826 f0be 3d8d d93d 11ff 073d
000001f0: c6dd 473e 3f78 87be 5be1 e5bc d3c6 3e3d
00000200: a1e7 e8bd 4453 103d cb32 693a 8ed7 d3bd
00000210: 83ae c33e 2e12 173d 45e3 363e 57e9 133e
00000220: 0adf 543e cc84 bdbd da6f 0e3e 79f6 ba3e
00000230: dfad 483d 5e36 0d3e 4e7e 34bc 3610 e2ba
00000240: 3b84 4f3e 01ce b63d 83d5 c53d 36f8 3abd
00000250: 5a84 0abe 0b68 b43c 272b 353e a4bd f33d
00000260: b137 c83e 9352 c23e f14c 133e 1ff1 123e
00000270: b9a7 2f3e bb75 423e 51cb 633e dd0c 453e
00000280: a7bf bc3d 34e1 99bc 6b44 56bb 9608 1a3d
00000290: 7d1a 683e 3a5c f23c 8be1 063e 9666 3a3e
000002a0: 95f5 bbbc f5bc 633e 6442 a83e 93b7 5f3e
000002b0: fad8 c03d 9fdc 243e 6a8c 00bd e818 0e3e
000002c0: 64a8 183d a125 f43d 75a5 1a3e 2095 a93d
000002d0: c6dd 1f3b 64c3 1e3d db40 dc3d a281 e5bd
000002e0: 073c a73d 3bc8 313e 5c2c da3d 074c 0a3e
000002f0: efd3 42bd 0608 0c3e b7e8 2ebc 0eb9 0d3e
00000300: e54a 19bd 01c0 d8bd a768 883e dc3f ffbc
00000310: aa9f 09bc c5f5 c63d 207b 903e b3f8 8c3c
00000320: 4451 7f3e eb3f a23e 05a2 c6bc 3b0c 713e
00000330: 5ca9 73bc 8325 013e f4c8 b93e 0e75 af3e
00000340: 4996 e93e 6b4f 973d e9a9 873e 614c 4bbe
00000350: 476c 313e 1808 e53d ab28 35be d434 803d
00000360: 2d36 7e3e 3dae 3f3e a399 d33e e139 d2bd
00000370: b504 c93e cce9 fcbd a78e 083e 05e0 833e
00000380: 5283 0b3e 2d95 243e 885a 433d 84ee 723e
00000390: f2c1 f93c 4663 b13e 016e 753e 66f5 743d
000003a0: 782b d53d 7bf3 603e d31a b03d 8e88 1d3e
000003b0: 0d41 063e c758 183d 9ff7 573e a7e2 73bd
000003c0: 4889 ae3d a392 263c c80b f9bc b403 3a3e
000003d0: c2d2 3b3d 7579 5b3e 8bf0 e0bc 2fae c13b
000003e0: 8ff3 2d3e 98e7 323e a5b2 42bb fc62 213e
000003f0: 13f5 183e f035 973b a1ed 9abe 1ce1 ecbd
0.011160702 -0.048706025 -0.25063777 0.01601753 0.23757438 -0.39582884 -0.002039469 -0.014705626
-0.12786412 -0.16256565 -0.25547802 0.11328528 -0.07569856 0.04194113 0.193116 -0.14266017
-0.25338125 -0.108611874 0.42060545 -0.1695701 0.042602684 0.18355653 -0.008401252 0.19130921
0.14469072 0.078566104 0.19644055 -0.19814691 -0.32400647 0.056301832 0.19850752 -0.18834968
0.10929992 0.02889118 -0.2066253 -0.034520898 -0.2640773 0.034317605 0.18287928 -0.038954526
0.13270837 0.009066443 -0.06336347 -0.09329449 -0.087933764 0.3076103 -0.011236561 -0.16124119
0.0029943204 -0.2645118 -0.0720683 0.037052378 -0.2142358 -0.019950276 0.0626931 -0.051827535
0.055628464 0.0382363 0.3605786 0.1047609 -0.28393084 0.07536494 0.108431 -0.013331051
0.077702105 -0.08688279 -0.015331945 -0.16815227 0.12524286 0.20520271 0.060309574 0.073327616
0.07045478 0.030193977 0.16961908 0.35085326 0.17475711 0.08484029 0.36593163 0.07816326
0.10317028 -0.16075966 -0.11007474 -0.08362892 -0.08430001 -0.13424568 0.08765235 -0.08536329
0.05250493 -0.25908142 0.008219226 -0.14825486 -0.2789676 0.29793555 -0.10024014 -0.18824857
-0.19968614 -0.3810811 0.29762936 -0.19400385 0.15700053 0.006971722 -0.050480247 -0.01288707
0.2035526 -0.08263484 0.035042115 -0.14762631 -0.032800514 -0.08541526 -0.05856274 -0.14038852
-0.1301019 -0.05569031 -0.008356899 -0.1854735 0.15522182 -0.070055604 -0.28186303 -0.22671185
-0.19570616 -0.46904445 0.10622642 0.033202235 0.19518194 -0.26458928 -0.02806156 0.046576332
-0.11372305 0.03523566 0.00088958134 -0.10343848 0.3821908 0.036882572 0.17860134 0.14444481
0.20788208 -0.092538446 0.13909855 0.3651617 0.04899394 0.1379027 -0.0110164415 -0.0017247263
0.20265286 0.08926011 0.09659865 -0.04564687 -0.1352705 0.022022268 0.17692243 0.119014055
0.3910499 0.37953624 0.1438482 0.14349793 0.17153825 0.18990223 0.22245528 0.19243188
0.09216242 -0.018784143 -0.003269459 0.037605844 0.22666354 0.029584993 0.13171975 0.18203196
-0.022944251 0.2224005 0.32863152 0.21847372 0.09416385 0.16099785 -0.03138391 0.13876688
0.037269965 0.1192124 0.1510218 0.082803965 0.0024393662 0.038760558 0.10754558 -0.11206366
0.08165746 0.17361538 0.10652992 0.13505565 -0.047565397 0.13674936 -0.010675601 0.13840124
-0.03742494 -0.10583497 0.26642343 -0.03115838 -0.008399883 0.097148456 0.28218937 0.017208433
0.24933344 0.3168939 -0.024247179 0.23539822 -0.014871921 0.12611966 0.36286128 0.34268993
0.4562247 0.07388195 0.2649682 -0.19853355 0.17326461 0.111831844 -0.17691295 0.06260076
0.24825354 0.1871881 0.41328153 -0.10264946 0.39261404 -0.12349281 0.13335668 0.2575685
0.13624313 0.16072531 0.04769376 0.23723799 0.030487988 0.34646052 0.23967744 0.059804343
0.10408682 0.2196788 0.08598866 0.15384123 0.13110752 0.03719404 0.21090554 -0.059542324
0.08522278 0.010166797 -0.030401126 0.18165475 0.04585529 0.21433051 -0.02745845 0.005910657
0.16987441 0.17471159 -0.0029708531 0.15760416 0.14937238 0.004614584 -0.3025942 -0.11566374

layer.gru_unit.bias_ih f4 [396]
00000000: 2e81 a0bd 2b45 023e ac45 b43d e140 293e
00000010: d62a 7f3e a8bc 1a3e b4e6 7f3d c920 f33c
00000020: dec6 033e b33a 4b3e 6332 7f3e 54d7 143d
00000030: cd51 4d3e 1bed a33e a921 203e e3b5 f3bd
00000040: 8450 983e f891 dc3c 6ebb 27bb efb7 843d
00000050: 48f1 bc3d 4371 09be 0d42 0d3e 6fbe 0f3e
00000060: ed75 5d3d 7dd2 bf3d 17cc 323e 0aaf 2ebd
00000070: 4d75 083e ac5e 95bd 9316 e43d 4ad5 183e
00000080: 9c70 9b3e 2603 d13d 489c 28be 75e2 313e
00000090: 51ba 3c3e 7b48 893e b7db 943e c410 993d
000000a0: 250d 593d cbb6 073e 8d85 d53e 6ed7 4b3e
000000b0: b66d de3d 1226 923e 05e4 60bd 7f46 763e
000000c0: 5ec8 553d f890 ddbd 5772 93bc c48a 2b3d
000000d0: 2cdf 493d 37ef 203e b551 ab3d a5d6 4b3d
000000e0: 93d3 da3d ec78 15be 6c38 bd3e b4b2 5a3e
000000f0: 4684 133e 5206 353e e19e 6f3e 35fd c2bc
00000100: d690 223e 5e9b 2d3e c14f d03d f55b 893e
00000110: de93 283e 5022 31be 1fbb 5e3e 67ff 2d3e
00000120: d755 22be f139 3e3d e388 e5bd ad28 1fbe
00000130: fd34 41bd 8780 98bd c172 86be 6279 8b3e
00000140: 8c4f 383e d224 d53d 3d42 393e 7d3d 333e
00000150: 3252 2f3e 969d 423e fdc9 20bd 99e2 043e
00000160: 4400 573d 09ff 9ebd 5b25 0d3d e980 913e
00000170: df25 953d 12f5 e83c f1ce 2f3e 97c1 2fbd
00000180: 7e40 233e 73fe 1a3e b6fa bd3e eccc 813e
00000190: 84bb 9d3d 0985 aebc 94a3 d13d fad8 ae3e
000001a0: 131e c53d ebbc 74bd dadf a1bc 3fe3 bcbd
000001b0: 48c6 2d3e a67c e53d 8b0a 6c3e 6798 523e
000001c0: 2576 8d3e 46e2 a93c 1cb9 5c3e a2c2 403e
000001d0: 33ba 7b3d 1883 893e 6132 5a3e ef7b 293e
000001e0: 7667 693e 22b8 893d 6de5 1c3c e387 a73e
000001f0: 1790 483e 051f 1d3d 211a 033e 6500 383e
00000200: 811d a5be 1e1e 643e ceb0 193d 25d5 a73e
00000210: 7386 163e ea27 d1bd f828 d0bd 2af5 b9bd
00000220: 30b5 3d3c 56a1 3cbd aa02 a63e a259 c93e
00000230: 48fa 17be 6ffc a4bd e4e3 9a3d 5474 dc3c
00000240: c286 563d 5d3b e4bd 65d2 c13c c13d 6dbd
00000250: b051 7ebe d435 2dbe f7b2 69be 710f 21be
00000260: db2a 593e 5727 a33c 743a 4c3e c06a 923d
00000270: 72a0 1abd 1f57 94bc 918e fd3d adf8 d0bd
00000280: 1e62 ad3e e776 acbd 97a3 bf3c 35e8 613e
00000290: e52c 793c fd86 a03e 7a6f 953d c382 e4bc
000002a0: 5bb0 1bbe a125 6ebd 630a 8dbe 0848 643e
000002b0: 5810 913d ee22 c03b 38dd 1bbe 4433 17be
000002c0: 7b0a a2bc f29d 42be b56c 313e bdce 073e
000002d0: 75a6 523e 4788 9a3d ed69 f4bd 7af4 553e
000002e0: 4a36 27be 5b48 5d3d 925d 91bd 917d 66be
000002f0: c7ac 54be b5b5 16bd 6cd7 b13d 38f0 e2bd
00000300: dd59 99be 304c 81bd 8a21 493e 79ae debd
00000310: 1950 f13d 93c6 b13e c2c3 a33d 5f37 8abe
00000320: 94b9 0fbd c0e3 2a3d c25d 3ebd cd40 25be
00000330: 84f7 9bbc e8b4 27be 45f7 253d 965e b6bd
00000340: 1e5e fe3e bef9 383e 9d3a 9e3e 27eb bb3d
00000350: ea05 da3d 4095 473e 05c0 d93c 97e3 873e
00000360: b87a d2bd 6436 2e3d cb67 313d 793e 243e
00000370: 261e 9b3c 9afe 89bd 1015 6c3d d118 103e
00000380: c9b8 7abe 64fe 11bd 7881 97be 2d9d a63e
00000390: f02c 4abe c916 adbc 625f d23e adb8 783e
000003a0: a941 ce3d b5ab 773d 9d35 9c3e e715 75bd
000003b0: 21ae ac3e 547d 49bc 788d 083e 1435 5a3d
000003c0: a077 65be d096 99be 4e7f 87bc 076b a83e
000003d0: 8ea6 6cbe 9c71 47bd 3bd7 30bd e689 af3d
000003e0: 9e73 9abc 7442 aabb 839d 33bd 804d 2f3d
000003f0: 341e f23d cec1 1abd b41f 693e a510 e2bd
-0.07837139 0.12721698 0.08802351 0.16528656 0.24918684 0.15111029 0.062475875 0.02967872
0.1286883 0.1984661 0.24921565 0.036338165 0.20050736 0.32016835 0.1563784 -0.118999265
0.2974893 0.026925072 -0.0025593895 0.06480395 0.09225708 -0.13422112 0.13794728 0.14037488
0.05406754 0.09366319 0.17460667 -0.0426474 0.13325997 -0.07293448 0.11137118 0.14925113
0.30359352 0.10205679 -0.16465867 0.17371543 0.18430449 0.2681311 0.2907388 0.07473901
0.05299105 0.13253324 0.41703454 0.19906399 0.108607695 0.2854467 -0.054904956 0.2405033
0.05219304 -0.10818666 -0.017998857 0.041880384 0.0492851 0.15716253 0.08365194 0.049765248
0.10684886 -0.1459691 0.3695711 0.21357232 0.14405927 0.17678192 0.23400451 -0.02380238
0.15875563 0.16953799 0.10171462 0.2682797 0.16462657 -0.17298245 0.21751069 0.1699196
-0.15853058 0.046441976 -0.1120775 -0.1554286 -0.047169674 -0.0744639 -0.26259425 0.27241045
0.17999095 0.104074135 0.18091674 0.17503925 0.17121199 0.19005427 -0.03925513 0.12977065
0.052490488 -0.07763488 0.034459453 0.28418663 0.07282614 0.028437171 0.17168786 -0.04290923
0.1594257 0.15136127 0.3710534 0.25351655 0.077017814 -0.02130367 0.10236278 0.34149915
0.09624877 -0.05975048 -0.019760061 -0.09223031 0.1697017 0.112054154 0.23050897 0.2056595
0.276292 0.020737778 0.21554989 0.18824247 0.06145687 0.2685783 0.2130828 0.16551183
0.22793373 0.06724574 0.009576184 0.3272086 0.19586216 0.03835966 0.12802936 0.179689
-0.32249072 0.22277114 0.03752213 0.32779804 0.14699726 -0.10212691 -0.10164064 -0.090799645
0.011578843 -0.0460523 0.32423908 0.39326197 -0.14841568 -0.080559604 0.07562998 0.026910938
0.05237461 -0.11144135 0.023659894 -0.05792022 -0.24835849 -0.16915065 -0.22822176 -0.15728547
0.21207754 0.01991622 0.19944173 0.07149267 -0.03775067 -0.018107949 0.12380708 -0.10203681
0.3386392 -0.08421116 0.023393435 0.22061236 0.015208458 0.31352988 0.07296653 -0.027894383
-0.15203993 -0.058141354 -0.27546987 0.22293103 0.070831954 0.005863539 -0.15221107 -0.1476565
-0.019780388 -0.19005564 0.17326625 0.13262458 0.20571311 0.07545524 -0.11934266 0.20894042
-0.16329303 0.05402408 -0.07097925 -0.22508837 -0.20769034 -0.036794383 0.086836666 -0.11080974
-0.29951373 -0.0631336 0.196417 -0.10873122 0.117828555 0.34721813 0.07996322 -0.2699537
-0.03508909 0.041721106 -0.046476133 -0.16138001 -0.019038923 -0.16377604 0.040519018 -0.089047596
0.4968118 0.18064019 0.30904093 0.09175711 0.10645659 0.19490528 0.02658082 0.26540825
-0.10277313 0.04253234 0.043311875 0.16039456 0.018935274 -0.067380145 0.057637274 0.14071967
-0.24484552 -0.035642996 -0.29590964 0.3254179 -0.19743705 -0.021129029 0.41088396 0.24289198
0.100711174 0.060466487 0.30509654 -0.05983534 0.337266 -0.012297947 0.13335216 0.053273275
-0.22408915 -0.29997873 -0.016540196 0.32894155 -0.2311041 -0.04869233 -0.04317401 0.08571224
-0.018853959 -0.00519591 -0.043851387 0.04279852 0.11822167 -0.037782483 0.22766 -0.11038331

layer.gru_unit.bias_hh f4 [396]
00000000: 2667 5abd 5384 003e 2962 5dbd 4b8d 113e
00000010: c462 6d3e a9b2 c03d 2936 403e 8d01 43bd
00000020: 17f3 453e d387 513e 40be 823e d8e7 163d
00000030: 12b0 993e 6ebe 513e 407e 653e 72a9 9b3c
00000040: caaf 8d3e e811 593c 4be8 02bc cb75 19bd
00000050: 3c3c 603e 7fe0 f53c e59b 5e3e 72e1 303e
00000060: 2f1d f33d 227e 493e 3820 613e c5b6 60bd
00000070: a701 6f3e a8c8 6a3d 26ef e53d 230a 593d
00000080: d8dd 933e bf1e 043d 8227 e5bd f5e1 983e
00000090: a5e4 6c3d 96c5 753e eb5d cc3e 4b54 eb3d
000000a0: 2a00 003e c28d 813d 0d68 a43e 9150 873e
000000b0: 22e5 323e dfb7 1a3e 814f 35bc 7bfa 753e
000000c0: 774f e3bb db2b bfbc 40c0 fd3d f627 5d3d
000000d0: 39df e63d af09 8fbb e0dd 81bc 5cbb a33d
000000e0: 0d97 423e 18da fbbd c029 d13e 2653 e93d
000000f0: 1618 583e 4c49 503e fdf1 ad3e b5b9 4fbd
00000100: 96f2 453e 5c3f 573e c091 c43d 497c 3a3e
00000110: b665 803e 94f0 33be 05fb 213e 51df 8a3d
00000120: fccb 8abd 3805 70bb fe5a 23bd 09c8 27be
00000130: be47 8dbd b5c1 91bd 4ab8 60be 996c 543e
00000140: 9cf0 a33e 8bfd b93d 735f 683e 9cfc ca3c
00000150: bbd1 7f3e 3781 2c3e 7ba1 863d 6bc7 643d
00000160: 665c aabc 9729 e6bd 2826 013d e675 7e3e
00000170: 9847 b73d 12f0 1d3e ea98 3e3e fc5a f8bd
00000180: 64c0 523e 7ae5 113e a1b7 af3e 7f32 863e
00000190: 8a3b 203e 5d31 68bd f76e 293d 228b 953e
000001a0: 7623 143e f11f cf3a eef4 26bd 2bab 69bd
000001b0: 5c18 2e3e 67a7 34bd fefc 843e 183d 923e
000001c0: fcb3 923e 6789 f23d 711e 8c3e 0c04 b83d
000001d0: 7c07 3f3e b01b 1a3e 8bcf 383e cdc2 123e
000001e0: 53b1 913e 7510 c83d c110 e93d 2dee a03e
000001f0: 20cd ef3d c7b3 c5bc 3b47 b83d f01b 923e
00000200: 700d 79be 06bf 703e 0288 713a 2510 b23e
00000210: 0a2e 4b3e 477f f3bd 7045 b6bd 6477 2fbe
00000220: 9b04 c23b 6b7c 8f3d 2890 503e f421 c63e
00000230: a53c eebd 10ac 9ebc 0904 f5bc 5268 2a3d
00000240: e174 2e3e 8394 3cbd 4989 023e a03c b43c
00000250: b66f 3dbe 97bb fbbd bf7d 94be 7f05 97be
00000260: 2435 f43d e08b 693d 188d 1e3e 5cd2 ff3d
00000270: 2b4e 41be 45a3 16bd 47dd c83d 0167 05bc
00000280: 29e8 d93e 1e6e babd 4c96 8abd e475 183e
00000290: 9e0b d9bc 02dc cc3e e53e ef3d 850c 26bd
000002a0: daaf 2cbe dc56 00be c86c a5be f240 043e
000002b0: 1dfd 683c 171b 253c 9b07 60be cc39 7ebd
000002c0: e96b 82bd 791f 25be 6666 0a3e 86e9 003e
000002d0: 2515 6e3e 8fb6 293e 3cbf ed3c 8ef3 4e3e
000002e0: 2132 36be 3f57 7c3d fa61 d2bd bb90 cbbd
000002f0: 2c45 b4be e118 1fbe 52c6 65bd 4478 e8bc
00000300: 7246 e2be 000d fcbd a392 3a3e eb5b d8bd
00000310: 2882 f83d 7e63 943e f6e1 8b3d 5c66 f3bd
00000320: fde0 db3d fd5b 4e3d 4293 22be 4cf9 f9bd
00000330: 7d7d 27bd b23c 27be 5aef 103e 5d41 06be
00000340: d536 053f 27fd 8d3e fcd0 793e 6e5e c83c
00000350: 5bc2 a13d 1d27 453d 0b1b d43d e5b3 2d3e
00000360: 0ba9 53bd c00b 3cbd b496 103e ee82 6f3e
00000370: 0920 10bd 291a 17bd 2d86 5ebc d5fc a03c
00000380: 7a8b 35be 8946 b83c 0f60 7fbe c901 a73e
00000390: 296c 76be f96a 16be b022 e43e fd5b 033e
000003a0: 9769 7cbc 612e b63d 5761 7d3e 8402 64bd
000003b0: 7036 b43e af02 91bd 4a2e 9e3d 8eaf 1f3e
000003c0: fef7 bcbe 28ea 4dbe 54c9 cbbd 1105 b73e
000003d0: 2199 80be 983a 0dbe 8399 67bd 1e4d 703d
000003e0: 8098 b23c 0db9 90bd 5f7d e0bd 6dc7 b6bb
000003f0: db68 023e 36a0 2fbe ef03 b43d fe67 47bc
-0.053321026 0.12550478 -0.05404869 0.14214055 0.23182207 0.09409077 0.1877066 -0.0476089
0.19331013 0.20461969 0.25535774 0.036842197 0.30017143 0.204828 0.22411442 0.019001696
0.2767318 0.013248898 -0.007989953 -0.03746585 0.21897978 0.030014275 0.21739157 0.172735
0.11870801 0.19677022 0.21984947 -0.054861803 0.23340474 0.057320267 0.112272546 0.052988183
0.2888019 0.032255884 -0.11189176 0.29859892 0.05783524 0.24001154 0.39915404 0.11490687
0.12500063 0.06325866 0.32110634 0.26428655 0.1747022 0.15109204 -0.0110663185 0.24021332
-0.006936963 -0.023336342 0.123901844 0.053993188 0.11273045 -0.004365168 -0.015852869 0.0799472
0.19002934 -0.122974575 0.40852165 0.113928124 0.21102938 0.2034046 0.33973685 -0.050714213
0.1933082 0.21020263 0.09598112 0.18211474 0.250776 -0.17572242 0.15818413 0.067808755
-0.06777188 -0.0036624204 -0.0398817 -0.16384901 -0.06898449 -0.07117025 -0.219453 0.20744552
0.32019508 0.090815626 0.22692661 0.024778657 0.2498235 0.16846167 0.06573769 0.055854242
-0.020796012 -0.112384014 0.03153053 0.24849662 0.08949202 0.15423611 0.1861302 -0.12126729
0.20581204 0.14247695 0.34319785 0.262104 0.15647712 -0.0566877 0.04136559 0.29207712
0.14466652 0.0015802366 -0.040760927 -0.057048004 0.1700148 -0.04410496 0.25974268 0.28562236
0.28652942 0.11842614 0.27366975 0.08985147 0.18655199 0.15049624 0.18047921 0.14332123
0.284556 0.09768764 0.11380149 0.31431714 0.11709046 -0.024133576 0.08997961 0.2853694
-0.24321532 0.2351037 0.0009213687 0.34777942 0.19841781 -0.118895106 -0.08899963 -0.17135388
0.005920959 0.07006153 0.20367491 0.3869778 -0.11632661 -0.019369155 -0.02990915 0.041603394
0.17036773 -0.04604007 0.12747683 0.022001565 -0.18499646 -0.12291639 -0.29002187 -0.2949638
0.11924198 0.05701816 0.1548351 0.12491295 -0.18877475 -0.0367768 0.0980783 -0.008142234
0.42559937 -0.091030344 -0.06766948 0.14888722 -0.026494797 0.40011603 0.11681918 -0.040539283
-0.16863957 -0.12533134 -0.32309556 0.129154 0.014220503 0.0100772595 -0.21877901 -0.06206684
-0.063682385 -0.16125287 0.13515624 0.12589082 0.23250253 0.16573547 0.029021852 0.20210096
-0.1779256 0.06160664 -0.10272594 -0.099397145 -0.35209024 -0.15536834 -0.056097336 -0.02837766
-0.4419437 -0.12307167 0.1822 -0.10564407 0.121342 0.28982157 0.06830208 -0.11884758
0.107362725 0.050380696 -0.15876487 -0.12205753 -0.04089116 -0.16331747 0.14153805 -0.13110872
0.5203679 0.27732202 0.24396127 0.02445909 0.078983985 0.048133004 0.103567205 0.16963156
-0.051674884 -0.045909643 0.14119989 0.2338979 -0.0351868 -0.036890183 -0.013581795 0.01965181
-0.17728987 0.022494571 -0.24938987 0.3261855 -0.24064697 -0.14689244 0.44557714 0.1282806
-0.015406034 0.08895565 0.24744163 -0.05566646 0.35197783 -0.0708059 0.07723673 0.15594313
-0.36907953 -0.20108855 -0.0995051 0.35746053 -0.25116828 -0.13791883 -0.056542885 0.058667295
0.021801233 -0.07066546 -0.10961413 -0.0055779726 0.12735312 -0.1715096 0.08789813 -0.01217079

mlp.0.weight f4 [128, 132]
00000000: f5fc dabd e5ce d5bc 7d7c 253e f5a9 49bd
00000010: 567a 653e 48c6 2fbd 25ec 383d 3108 203e
00000020: 5b3e 16be c7b8 173d 12fa 003c fa93 463e
00000030: 2a86 28bd 2ab8 e2be b7d4 153e 258d fc3b
00000040: 1148 95bd 06fb 36be f0a0 b93d 3e31 ab3d
00000050: 3418 0a3e fcb9 d73e 9ee1 2f3d 9024 11bd
00000060: d6f9 e9bd 6f76 1c3d 0c9f 9fbc 5806 e3bd
00000070: 3083 86bc 050b dfbd 3581 cebd fc78 c3bd
00000080: cd4e dc3d 6372 fb3d d0d2 ab3c 0961 b03c
00000090: 5c17 8b3d 8906 663d 83f5 94bc 0062 503e
000000a0: a664 0ebd 11a3 93be 66f6 133f 7066 873d
000000b0: cf39 94bd 8e32 793d 8015 07be cfcd ffbb
000000c0: f278 40bd 7a5a 1d3e 35eb 57bd 6d97 6b3c
000000d0: 1229 253e 658a cdbe ba16 8fbc fc15 a33c
000000e0: 7221 0ebe 32cf 7fbd 0b77 8d3c fa0b 93be
000000f0: 526e d6bd da43 d7bd ac66 ea3e 4ea7 3c3e
00000100: b533 94bd 5c9d 1bbd 2c24 19be d3c0 08be
00000110: 72bd 54bd c058 d7bd 4140 c9bd 3bd5 a23f
00000120: 0552 85bc c5dc 2bbe 4063 903d 0eea 14be
00000130: 3020 d23c e066 ac3c bfe9 b53c bbec 223b
00000140: 1dd2 a0be fb90 2cbd a150 623c f54f dcbd
00000150: cb6d 613d 05cd adbc 666e 243d d906 3bbd
00000160: 67fa 713d 443d b9bb 8fda 8dbb 5829 abbd
00000170: 0dfb d13e bbb1 87bb 39c7 c7bb 7d33 46bd
00000180: bfbe b43c cd44 57be ed21 c4bc df7f 00bd
00000190: 7977 0a3e 3f6d 183c 18ad 923b 9126 3dbd
000001a0: bcf1 b23d dc6f c6bd 2868 e23c 1136 dcbd
000001b0: 5456 c9bd 9935 a1bd 83e4 34bd 3f8b f0bb
000001c0: a915 ed3d c2f2 77bd b76f 833e 5133 07be
000001d0: d71c d13d 7577 3bbd c436 cdbd 13e9 bfbd
000001e0: 74c3 c2bd 8495 933e bdab ae3c 3b15 503d
000001f0: 2fcb 143c 8414 19b9 ff8a 2ebd bb51 f3bc
00000200: 1738 bcbd 0055 e9bc 3256 4abd d819 93bd
00000210: 7523 0e3d 5567 f5bd 03ab 5cbd 0d9e c63d
00000220: fbb5 1cbd b50d 12be a0d6 46bd 6bcb 7dbd
00000230: bbe6 123e 7ec3 b9bc 6d4b a7bd 7932 0fbd
00000240: 9b2f 8fbc 5fe3 6cbc fffd 563b 37c0 18be
00000250: 2b64 e6bc 0a2c f1bd fc1c ca3b 4d26 1cbd
00000260: aa6e 6e3c d1e0 b83e 5308 dbb9 13d4 e83d
00000270: c282 753d 6122 023d c75a 313e 2211 f53d
00000280: 6615 58bd 04d5 c33d c3f3 1d3c 9eba cfbd
00000290: 6bbe b03d e8cf dcbd bfed e73c 2123 62bc
000002a0: f80f 27bd 204d 38bd 48b8 25bd 3ee8 843d
000002b0: f998 1ebe 9d74 d93d 5e6b 2a3e 8c2e debd
000002c0: 2000 36bc 06eb 5cbd a52d afbd 20e5 b43d
000002d0: 971a 013e 20a9 013d 6046 50be 3d7c c1bc
000002e0: f436 da3d ee06 32bd d8c6 fb3b 9b62 ce3b
000002f0: d32c 703d c9ba 20bb 4a8d af3d 41c6 fb3d
00000300: 4ef6 1bbd 0a57 0bbe 0f5e ffbc 2123 553d
00000310: 1606 e13d 82ba 253c f97a 2fbd 6d46 203d
00000320: cfce 54bb d817 853e 57bf 18be 8903 c23e
00000330: 5a96 243d 002c c2bc de8a 583b 5dae 63bd
00000340: acb5 57bd 242c f7bd a3eb 8bbb f24f 05bd
00000350: 862f c2bd 83e0 7dbd d7a7 293e b6ce 1a3d
00000360: b2fb 4fbb b8c7 963d 5383 0d3d 3ccf b6bd
00000370: 9414 a4bd 9487 8c3d af35 943c f2aa 733c
00000380: d524 fe3d d47b a339 96fd 273d c119 8dbc
00000390: 3872 6abd 24a5 c23c e3e0 843d e28f d63c
000003a0: e68c 3f3e 7504 d0bd 5b9d 8e3d 7d58 873d
000003b0: 74ec a4bd 19c4 39be e54b 1f3e 9c7d d7bd
000003c0: 0b9f a8bd 71d5 113b bf4d 2ebd f72c a9bb
000003d0: ae5f 5e3d 7f41 95bd f338 8abd 3929 b83c
000003e0: 4120 043d bf74 b1bd 09a4 15bc 1c53 19bd
000003f0: 3428 fdbc 58ee 7a3e eb49 603d 2a03 053e
-0.10692779 -0.026099632 0.1616077 -0.04923435 0.22409949 -0.042913705 0.04514708 0.15628125
-0.14672224 0.03704145 0.007872121 0.19392386 -0.041143574 -0.4428113 0.14631926 0.0077072554
-0.07289136 -0.17869195 0.090638995 0.083590016 0.13485795 0.42134082 0.042939775 -0.03543526
-0.114246055 0.038198885 -0.01948502 -0.11085194 -0.016419977 -0.10890774 -0.10083238 -0.0954456
0.107572176 0.12277677 0.020974547 0.021530645 0.06791565 0.056158576 -0.018183475 0.20349884
-0.034763955 -0.28835347 0.5779785 0.06611335 -0.072375886 0.06083923 -0.13191795 -0.0078065167
-0.046990342 0.15366545 -0.052714545 0.014379364 0.16128948 -0.4014465 -0.017466892 0.019907944
-0.13879946 -0.062453456 0.017268678 -0.28720075 -0.10470261 -0.105109885 0.45781457 0.18423197
-0.07236425 -0.037991866 -0.14955205 -0.13354807 -0.05193848 -0.105149746 -0.098267086 1.2721323
-0.016274462 -0.16783436 0.070501804 -0.1454241 0.025650114 0.021045148 0.022206185 0.002486034
-0.31410304 -0.04213045 0.013813169 -0.10757438 0.055036347 -0.021215925 0.040144347 -0.045660827
0.059076693 -0.0056530554 -0.0043290327 -0.08357495 0.4101185 -0.00414106 -0.0060967472 -0.048388947
0.022063611 -0.21022339 -0.023941958 -0.031371947 0.13522138 0.00930339 0.004476201 -0.046179358
0.087375134 -0.09689304 0.027637556 -0.107525 -0.09830919 -0.07871551 -0.04416324 -0.007340818
0.11576397 -0.060534246 0.2567117 -0.1320317 0.10210579 -0.04576822 -0.10020211 -0.09370627
-0.09509936 0.2882501 0.021322126 0.050801497 0.009081646 -0.0001459886 -0.042613026 -0.029702058
-0.09190386 -0.028482914 -0.04939861 -0.07182664 0.034701783 -0.119826 -0.053874027 0.096981145
-0.038259488 -0.14263041 -0.048544526 -0.061961573 0.14345829 -0.022676226 -0.08168683 -0.034960244
-0.017478755 -0.014458506 0.0032805202 -0.14917074 -0.028123936 -0.11775978 0.006168006 -0.038122464
0.014552752 0.3610902 -0.00041777137 0.11368575 0.059939153 0.031771068 0.17319785 0.119661584
-0.052754782 0.09562114 0.009640637 -0.10143016 0.08630069 -0.107818425 0.028311608 -0.013802321
-0.040786713 -0.044995427 -0.040458947 0.06489609 -0.15488042 0.10617945 0.1664252 -0.10848722
-0.011108428 -0.053935073 -0.08553628 0.088327646 0.126078 0.03165543 -0.20339346 -0.023618812
0.10655013 -0.04346364 0.007683616 0.006298376 0.058636498 -0.0024525395 0.085718706 0.12293673
-0.03807669 -0.13607422 -0.03117278 0.052035455 0.10987489 0.010115268 -0.042841885 0.039129663
-0.00324719 0.25994754 -0.1491674 0.37893322 0.04018245 -0.023702621 0.0033041756 -0.055586208
-0.05266349 -0.12068966 -0.0042700334 -0.032546945 -0.094817206 -0.06198169 0.16567932 0.03779479
-0.0031735715 0.07362312 0.03454907 -0.089262456 -0.080117375 0.06861797 0.018092005 0.0148722995
0.12409369 0.00031182042 0.041013323 -0.017224194 -0.057237834 0.023760386 0.06488206 0.026191656
0.18706092 -0.101571 0.06963607 0.06608675 -0.08052912 -0.18141212 0.15556295 -0.10522005
-0.0823346 0.0022252465 -0.042554613 -0.005162831 0.054290466 -0.07287883 -0.067491435 0.022480594
0.032257322 -0.08664846 -0.009133347 -0.037432775 -0.03090296 0.24504983 0.054757994 0.12989488

mlp.0.bias f4 [128]
00000000: 6bdd 86bd a3d4 a6bd 9190 89bc 4994 84bd
00000010: c27f 21bc f602 113c 1b65 ba3d 7fe8 123d
00000020: ad19 3bbc ab8a 093c 92a2 993b f01a b03c
00000030: bc49 0e3d e139 583d 5c07 d33d b5fc 6e3d
00000040: f83f a63d 9ac9 20bd cf72 473d 1862 b5bd
00000050: 49fe 083d 3c29 393c 426b e33c a8c3 1bbd
00000060: 4bbd 3dbd bde9 633d 1222 10be 2df7 8dbd
00000070: c684 2c3d b8da b4bd 0797 d9bd 0656 253d
00000080: 2f8b dbbd c42a 90bd 7565 94bb 73de 4e3d
00000090: c386 883d 6410 43bd c93a 01bc 9fa4 953d
000000a0: fcdd a5bd 7f46 8cbc 42b5 16bd 68fb 233d
000000b0: 59b0 c8bd 7626 4fbd 56a1 c4bc b5f1 ab3c
000000c0: a810 553d 43ef b8bd f271 343c fbec 243d
000000d0: cc2c 9e3c 11ca 0e3d 1792 553d c5dc 97bd
000000e0: 0aca a4bd a288 9f3c 296c 673c da2f 85bd
000000f0: 0692 283d bd4a 2bbd f408 403d c847 94bd
00000100: 0907 843d 6d7a 56bd 3c8d fb3b 1d91 313d
00000110: 6792 033d 5415 d53a 7f24 8ebc 29a1 f03c
00000120: c12b 943c e37e a03d 1192 8dbd 5c6d b6bd
00000130: 8dcb 8bbd 6ef9 aabd 51e2 f33b c80a 82bd
00000140: 7818 89bd a96b e2bc ac65 7a3d 9717 573d
00000150: 54b8 133d 1022 033d 3752 93bc f98d 2b3d
00000160: 808c a03c 9e58 23bd 6767 673d 0932 82bd
00000170: ab71 34bd 3041 9d3d f0e8 b9bd e630 5e3d
00000180: 6efa c6bb 59e0 52bb a75e 15bd 6ac9 3e3d
00000190: 6676 e0bc f3d0 87bc 5245 b9bd 3c96 0bbe
000001a0: 2781 60bb 24e3 8ebd 2b21 febc a015 7fbc
000001b0: 0cea 3ebc c8d6 ee3c 68a8 b4bd e83d ab3d
000001c0: 126e babd 2214 53bc a73c 90bd 658f 8c3d
000001d0: 53ad 303d 997a 833b eece 1d3d 6437 5bbd
000001e0: 887d 52bc 2580 5bbc 9d7c 6dbd 43d6 5ebd
000001f0: dc25 9b3c 91b7 673d f858 033d 90ea e43c
-0.06585201 -0.08146026 -0.016792567 -0.06473596 -0.00985712 0.008850804 0.091013156 0.035866257
-0.011419696 0.008394877 0.0046885693 0.02149722 0.034738287 0.052789573 0.10304138 0.05834647
0.0811767 -0.039254762 0.048693474 -0.088566005 0.03344563 0.011301335 0.027761105 -0.03802839
-0.046323102 0.055642832 -0.14075497 -0.06931911 0.04211881 -0.0883078 -0.10624509 0.04036524
-0.107199065 -0.07039407 -0.004528696 0.050505113 0.06666329 -0.047623053 -0.007887551 0.073067896
-0.08098981 -0.017123459 -0.036793955 0.04003468 -0.09799261 -0.05057379 -0.024002712 0.020989278
0.052017838 -0.090300106 0.011013495 0.040265065 0.01930847 0.034860674 0.052141275 -0.07415155
-0.080463484 0.019474331 0.0141249085 -0.065032676 0.041154884 -0.041819323 0.04688354 -0.07240254
0.06446654 -0.052362848 0.0076767486 0.04335128 0.032122042 0.0016256967 -0.017351387 0.029373722
0.01808727 0.07836702 -0.069126256 -0.089075774 -0.068259336 -0.08348356 0.0074427505 -0.063497126
-0.0669412 -0.027639227 0.061132118 0.05251273 0.03606446 0.032014906 -0.017983539 0.041883443
0.019598246 -0.039879434 0.056495097 -0.063572 -0.044053715 0.07678449 -0.090776324 0.054245852
-0.006072334 -0.0032177179 -0.03646722 0.046578802 -0.027400207 -0.016579127 -0.09046425 -0.13631529
-0.0034256668 -0.069769174 -0.031021675 -0.015569121 -0.011652481 0.02915515 -0.088211834 0.08361417
-0.091030255 -0.012883218 -0.070428185 0.06863288 0.043134045 0.0040124175 0.03852742 -0.05351962
-0.012847312 -0.013397251 -0.05798017 -0.054403555 0.018938951 0.056571547 0.03206727 0.02794388
